GeologicalScience/VolcanicEruption/code/volcanoinference/distance_learning/cross-valid-results/FP_nn_epochs400_param_distances.npy (npy, 1728 bytes, 1 tensors)

array f8 [100, 2]
-6.08356312204819 9.450889610784046 -54.42378775780213 8.062567333265825 8.985318837832011 4.526981432045446 39.740840861204674 1.212346705961977
-54.63645559768963 -19.51831793438504 39.06605593161794 -5.520659115366158 18.819739071699786 5.151657293544368 -44.281312315487554 1.1827848147071194
-23.741263086546155 -14.110983384640718 -34.13083360027301 61.44595372740203 -17.767691991124266 6.675873540517287 54.42378775780213 -8.062567333265825
-46.39835557660325 9.292570764819224 -21.734682501501112 36.69265666611693 -47.7129865534458 -2.5839496349647035 -15.707446653461773 -5.94559564524377
10.055180662203156 0.434804172139863 43.096393860242074 -7.943626251089512 -35.80516770962089 14.826695807865192 -4.531663770803334 -4.148096179393669
10.50573234880423 -6.3568744683509735 15.707446653461773 5.94559564524377 -20.21452447183853 -7.45469481621673 -11.859550271759701 -8.582706486831533
-39.740840861204674 -1.212346705961977 6.08356312204819 -9.450889610784046 -39.06605593161794 5.520659115366158 -0.28838107564749293 4.615405401226198
-15.629244368016998 2.104946217060906 -4.562476127339664 6.371951065695754 4.562476127339664 -6.371951065695754 -37.480479388210426 -11.15831162724244
17.30774805927392 -2.413948674564878 36.41065852985051 3.7413452695443823 -39.75948569275596 -12.211185890176012 -2.9646236412673943 6.729150693357411
14.898236981265015 -1.5297540626816613 -10.844598582028596 -9.461319307306667 10.844598582028596 9.461319307306667 -23.542448428839805 6.205739895445262
-7.057195360728343 -0.6569653915111218 -23.443542330738467 7.973026308346654 -6.180643585541418 -5.754698284271626 -13.714612063318214 -19.151857824951435
1.5154663301384517 -15.770296761426494 6.180643585541418 5.754698284271626 37.83654180641889 10.589627189042176 -15.942424492996253 -6.617155143410429
-1.5154663301384517 15.770296761426494 51.01824084764854 12.597094830922508 22.995900241533377 20.627793521345538 24.508261483792012 -3.8259787868352646
2.9646236412673943 -6.729150693357411 21.734682501501112 -36.69265666611693 -36.41065852985051 -3.7413452695443823 -6.648097943743409 3.8915339528904553
44.281312315487554 -1.1827848147071194 -53.684742539439554 2.5513114955867273 5.5350336712550074 -6.524443429176394 35.26240237055504 -4.922620274014744
12.162321253171427 1.3033842067211054 39.75948569275596 12.211185890176012 -19.05900992570011 -6.402998280857275 -22.15605689418365 -0.18183092413573831
23.542448428839805 -6.205739895445262 24.61680811020574 -2.273550115147259 -3.9377932715982524 -3.1124471895721015 60.46743815747368 -10.455273599724627
-35.26240237055504 4.922620274014744 6.648097943743409 -3.8915339528904553 -64.76091439213286 -14.24606588343292 15.942424492996253 6.617155143410429
3.9377932715982524 3.1124471895721015 23.76195832098375 0.46398443401762535 -18.10147341288618 0.2030010684193826 0.10961212443476143 4.33813054594809
8.89840593056293 -39.6298485962812 -19.014972498561605 9.5199021407524 -1.1589348545654161 0.768682517399931 -56.84791282720501 11.256854148189909
37.532569880212606 14.472533332750615 -23.76195832098375 -0.46398443401762535 4.531663770803334 4.148096179393669 6.2398727595748085 1.7077305209373748
-1.719247814261422 6.6681594574135445 15.629244368016998 -2.104946217060906 -37.00124098638821 12.897371916069304 97.18050011357133 1.1587485923934935
-9.593570200073998 -6.271403439655018 37.480479388210426 11.15831162724244 1.719247814261422 -6.6681594574135445 -8.985318837832011 -4.526981432045446
-6.943853981744013 -1.1801590475136123 19.014972498561605 -9.5199021407524 5.043502140148945 -6.765767803398752 -37.83654180641889 -10.589627189042176
-14.898236981265015 1.5297540626816613 -6.2398727595748085 -1.7077305209373748 -12.162321253171427 -1.3033842067211054 7.057195360728343 0.6569653915111218
00000000: 0065 3192 9155 18c0 e8d8 c800 dbe6 2240
00000010: 481a 60ad 3e36 4bc0 6c59 54d3 0820 2040
00000020: 103e f1b5 7bf8 2140 10f0 4005 a11b 1240
00000030: 1035 93df d3de 4340 0052 d8a8 c565 f33f
00000040: 70b7 8460 7751 4bc0 301d f17b b084 33c0
00000050: c000 5185 7488 4340 a072 c3a9 2715 16c0
00000060: 3834 786b dad1 3240 48e4 af0c 4c9b 1440
00000070: 947d bd0a 0224 46c0 c0f5 15c5 afec f23f
00000080: a072 ea6a c3bd 37c0 d0dc 6ed0 d238 2cc0
00000090: fc31 c927 bf10 41c0 4a5c 0103 15b9 4e40
000000a0: a447 5b76 87c4 31c0 9003 8331 18b4 1a40
000000b0: 481a 60ad 3e36 4b40 6c59 54d3 0820 20c0
000000c0: 58d8 c650 fd32 47c0 1c54 d5d5 cb95 2240
000000d0: 08e4 0427 14bc 35c0 102a 40f9 a858 4240
000000e0: ccc4 b424 43db 47c0 f079 45c9 edab 04c0
000000f0: e090 a072 366a 2fc0 803f 8e39 4ac8 17c0
00000100: 8011 c7a3 401c 2440 0053 e0e0 d4d3 db3f
00000110: 30a3 4ea2 568c 4540 604e c0f5 45c6 1fc0
00000120: f84e 4abc 0fe7 41c0 e80a 45ac 44a7 2d40
00000130: 0046 b077 6c20 12c0 28a2 5c86 a697 10c0
00000140: 7049 b559 ef02 2540 1861 2980 706d 19c0
00000150: e090 a072 366a 2f40 803f 8e39 4ac8 1740
00000160: f8bc 6613 eb36 34c0 103f 9584 9bd1 1dc0
00000170: a0f3 24f9 16b8 27c0 8c37 3081 582a 21c0
00000180: 1035 93df d3de 43c0 0052 d8a8 c565 f3bf
00000190: 0065 3192 9155 1840 e8d8 c800 dbe6 22c0
000001a0: c000 5185 7488 43c0 a072 c3a9 2715 1640
000001b0: 003e 2ce6 d574 d2bf 7031 60d5 2c76 1240
000001c0: 80a6 5b51 2c42 2fc0 90ec d00a eed6 0040
000001d0: 80d1 eebd f93f 12c0 a080 7bbd e07c 1940
000001e0: 80d1 eebd f93f 1240 a080 7bbd e07c 19c0
000001f0: 0862 3d59 80bd 42c0 682a bb38 0e51 26c0
00000200: 2cfd a993 c84e 3140 60d4 9b52 c44f 03c0
00000210: 04c4 6d75 9034 4240 40e6 bd6d 46ee 0d40
00000220: 5815 c2d3 36e1 43c0 805d 978e 206c 28c0
00000230: 0089 8199 8cb7 07c0 a04d b77a a6ea 1a40
00000240: 982e b5b7 e5cb 2d40 0041 6265 df79 f8bf
00000250: 201f b039 6fb0 25c0 80ca 530b 32ec 22c0
00000260: 201f b039 6fb0 2540 80ca 530b 32ec 2240
00000270: 30a2 75e6 dd8a 37c0 f0ad a97a add2 1840
00000280: a03e af6b 913a 1cc0 809c e448 dc05 e5bf
00000290: d0e9 7cfd 8b71 37c0 68fc 3102 61e4 1f40
000002a0: c087 d0a1 fab8 18c0 002d 85a0 cf04 17c0
000002b0: c08e e2a1 e16d 2bc0 e0ce 8727 e026 33c0
000002c0: 0024 629f 593f f83f 4015 4d56 648a 2fc0
000002d0: c087 d0a1 fab8 1840 002d 85a0 cf04 1740
000002e0: 2827 4acd 13eb 4240 8089 6b9d e32d 2540
000002f0: 90bc 9076 85e2 2fc0 2006 9684 f777 1ac0
00000300: 0024 629f 593f f8bf 4015 4d56 648a 2f40
00000310: 080d 52b7 5582 4940 7cd8 e669 b631 2940
00000320: e076 7751 f3fe 3640 dcd1 8213 b7a0 3440
00000330: 00b4 b26c 1d82 3840 802d 25c4 9a9b 0ec0
00000340: 0089 8199 8cb7 0740 a04d b77a a6ea 1ac0
00000350: 08e4 0427 14bc 3540 102a 40f9 a858 42c0
00000360: 04c4 6d75 9034 42c0 40e6 bd6d 46ee 0dc0
00000370: 60ee c3fc a697 1ac0 4081 978d dc21 0f40
00000380: 947d bd0a 0224 4640 c0f5 15c5 afec f2bf
00000390: 5489 bea4 a5d7 4ac0 78a1 5b00 1669 0440
000003a0: 4032 e1dd df23 1640 a8a8 c3b2 0719 1ac0
000003b0: a0f6 9f66 96a1 4140 5c14 7e5e c3b0 13c0
000003c0: 50a2 73c5 1b53 2840 40d7 df65 a9da f43f
000003d0: 5815 c2d3 36e1 4340 805d 978e 206c 2840
000003e0: 7805 4546 1b0f 33c0 4081 d294 ab9c 19c0
000003f0: 88d5 3858 f327 36c0 0040 4858 3c46 c7bf
00000400: 30a2 75e6 dd8a 3740 f0ad a97a add2 18c0
00000410: c03d e522 e79d 3840 00ff f20a 3b30 02c0
00000420: 0063 3fc2 9980 0fc0 10ea 4db6 4ae6 08c0
00000430: 40a0 7703 d53b 4e40 5419 0b9f 19e9 24c0
00000440: a0f6 9f66 96a1 41c0 5c14 7e5e c3b0 1340
00000450: 60ee c3fc a697 1a40 4081 978d dc21 0fc0
00000460: 0c51 47d2 b230 50c0 f002 f458 fc7d 2cc0
00000470: 90bc 9076 85e2 2f40 2006 9684 f777 1a40
00000480: 0063 3fc2 9980 0f40 10ea 4db6 4ae6 0840
00000490: 508a 55b3 0fc3 3740 805c 7dc4 ebb1 dd3f
000004a0: 78c2 5d29 fa19 32c0 0008 f562 f0fb c93f
000004b0: 0040 b149 8a0f bc3f b080 d2e4 3e5a 1140
000004c0: b899 b4dc fbcb 2140 c93a f9e0 9ed0 43c0
000004d0: 58a9 d73c d503 33c0 cc4d 079d 300a 2340
000004e0: 00d9 2846 ff8a f2bf 40ab 2714 0c99 e83f
000004f0: 2a5a 5368 886c 4cc0 9ca2 0c63 8283 2640
00000500: 842c f53f 2bc4 4240 18de 94e3 eff1 2c40
00000510: 508a 55b3 0fc3 37c0 805c 7dc4 ebb1 ddbf
00000520: 0046 b077 6c20 1240 28a2 5c86 a697 1040
00000530: e04c 6634 a1f5 1840 c0e9 1c3d dd52 fb3f
00000540: 808e fffe 0982 fbbf c86a 28fe 31ac 1a40
00000550: 80a6 5b51 2c42 2f40 90ec d00a eed6 00c0
00000560: e0f9 25aa 2880 42c0 a8bb ef54 74cb 2940
00000570: a42d 5950 8d4b 5840 80db c9f6 3b8a f23f
00000580: 6065 ea6e e82f 23c0 605c 85c8 ea15 19c0
00000590: 0862 3d59 80bd 4240 682a bb38 0e51 2640
000005a0: 808e fffe 0982 fb3f c86a 28fe 31ac 1ac0
000005b0: 103e f1b5 7bf8 21c0 10f0 4005 a11b 12c0
000005c0: e028 7fa8 81c6 1bc0 4064 1274 eee1 f2bf
000005d0: 58a9 d73c d503 3340 cc4d 079d 300a 23c0
000005e0: a0fb 34d3 8b2c 1440 a8b5 5f6f 2510 1bc0
000005f0: 2827 4acd 13eb 42c0 8089 6b9d e32d 25c0
00000600: 982e b5b7 e5cb 2dc0 0041 6265 df79 f83f
00000610: e04c 6634 a1f5 18c0 c0e9 1c3d dd52 fbbf
00000620: 50a2 73c5 1b53 28c0 40d7 df65 a9da f4bf
00000630: a03e af6b 913a 1c40 809c e448 dc05 e53f
