GeologicalScience/VolcanicEruption/code/volcanoinference/distance_learning/cross-valid-results/epsilon_sensitivity_study/contrastive_batch32_epochs400_param_distancesepsilon_0.14.npy (npy, 1728 bytes, 1 tensors)

array f8 [100, 2]
00000000: c061 6ce5 5656 1440 90dd 3cae 06b4 0340
00000010: 481a 60ad 3e36 4bc0 6c59 54d3 0820 2040
00000020: e088 acee bbe6 1640 005c 6522 1cc5 bfbf
00000030: 8045 1df0 750f 0f40 c061 c0e5 1730 0640
00000040: a0aa 2710 b93f 2440 e06e dc3d c916 15c0
00000050: c000 5185 7488 4340 a072 c3a9 2715 16c0
00000060: 383d 6f80 71e1 3ec0 3082 00b1 7e5b 0140
00000070: f05f 6fe5 66d2 28c0 681f dd5b adb8 18c0
00000080: 000a 0aed 4514 d63f 803c b6ce 73fd 0840
00000090: 00b1 d797 0265 4cc0 381a 1d76 53ce 2e40
000000a0: 40e9 ecc3 b367 f1bf 00f2 cebf d62f c9bf
000000b0: c087 bed4 e018 5140 387f 4479 6d31 23c0
000000c0: c087 bed4 e018 51c0 387f 4479 6d31 2340
000000d0: 109d a35b 284f 1dc0 e8df 05f1 c11f 2740
000000e0: 0029 62b4 2e1e f4bf 0008 6888 9376 c3bf
000000f0: c07d de84 9c2c 2ac0 8048 5793 4bc3 f5bf
00000100: 8011 c7a3 401c 2440 0053 e0e0 d4d3 db3f
00000110: cc6c dbc8 0aab 4840 f013 79a6 8ef1 18c0
00000120: 30ad 0cce 0c29 2e40 4045 4e5d 6273 00c0
00000130: 0029 62b4 2e1e f43f 0008 6888 9376 c33f
00000140: 8821 79fc 7ced 35c0 20ee 837e 776d f63f
00000150: 003e 2ce6 d574 d23f 7031 60d5 2c76 12c0
00000160: 181d d867 c401 2b40 10d6 7ba2 8ea9 0ec0
00000170: c061 6ce5 5656 14c0 90dd 3cae 06b4 03c0
00000180: 0432 fd36 523c 48c0 f07b e159 592f 2640
00000190: 60e3 ce3b f455 2640 0843 73aa b2f3 1bc0
000001a0: a0f9 1c42 04b0 3ec0 a038 a53a a7b8 2540
000001b0: b0ce a270 392f 2740 90d4 46f5 c325 16c0
000001c0: c8ac 829f 45fa 46c0 c010 bb94 6df9 1a40
000001d0: 80d1 eebd f93f 12c0 a080 7bbd e07c 1940
000001e0: 80d1 eebd f93f 1240 a080 7bbd e07c 19c0
000001f0: 40bb f285 539f 2140 503b 24a6 dd79 11c0
00000200: 7472 9ee1 644e 57c0 e295 7cce d6c9 2640
00000210: 0068 96f8 83f1 0640 609c 6862 7f2e 1640
00000220: 40bb f285 539f 21c0 503b 24a6 dd79 1140
00000230: c032 e75a fe0e 1a40 009f 13f5 a3d3 eb3f
00000240: 6053 cf99 95c9 25c0 70e1 e059 cce7 0640
00000250: e050 1acf dacf 2f40 4020 e4ab 9873 fcbf
00000260: 00f6 f52c a2e1 17c0 c0ff 26fe cc85 ff3f
00000270: 8029 f469 5937 07c0 9027 8c3c 35c1 13c0
00000280: 004a 4fc9 dc71 d6bf 8046 008a fcc0 0740
00000290: f0ff b647 1c52 2ec0 e0d7 b3cc 7822 ff3f
000002a0: 40af f135 3b09 1bc0 a00e ab01 4dba 01c0
000002b0: a8d4 c858 ce74 5140 c0b8 aa67 2adf 3ac0
000002c0: b0c2 b412 518a 3c40 60c0 b2d1 e89d 0dc0
000002d0: 40e9 ecc3 b367 f13f 00f2 cebf d62f c93f
000002e0: 80b7 c1e4 0cbb 1b40 60a0 266b 588e 00c0
000002f0: 8039 e557 c4ee 0840 009c 70f8 7d69 cbbf
00000300: 8011 c7a3 401c 24c0 0053 e0e0 d4d3 dbbf
00000310: b0c2 b412 518a 3cc0 60c0 b2d1 e89d 0d40
00000320: b0ce a270 392f 27c0 90d4 46f5 c325 1640
00000330: 4065 406c c35a 26c0 402c 0027 637a 06c0
00000340: e050 1acf dacf 2fc0 4020 e4ab 9873 fc3f
00000350: 2089 d875 2c29 1540 68f3 2928 0f39 46c0
00000360: 00f6 f52c a2e1 1740 c0ff 26fe cc85 ffbf
00000370: 0068 96f8 83f1 06c0 609c 6862 7f2e 16c0
00000380: 947d bd0a 0224 4640 c0f5 15c5 afec f2bf
00000390: 5489 bea4 a5d7 4ac0 78a1 5b00 1669 0440
000003a0: 409d 0406 94e8 31c0 004f b93d 652d f73f
000003b0: 5489 bea4 a5d7 4a40 78a1 5b00 1669 04c0
000003c0: 4087 7114 b6a8 fa3f 405c 62d3 54bc 0ac0
000003d0: 00dc bf37 f320 1ac0 80a1 dc51 02b0 1540
000003e0: 8039 e557 c4ee 08c0 009c 70f8 7d69 cb3f
000003f0: 40f5 8478 1226 0cc0 b0ec 892d 3629 10c0
00000400: 68bb 436f c666 4340 8047 95cf 2eab e1bf
00000410: c00b 1d82 d79f 19c0 001b b5ef dad9 e53f
00000420: 0028 7715 6bc2 5240 54d0 0378 de47 22c0
00000430: e0cd d38f 3d06 2d40 d043 b652 8bb1 0dc0
00000440: 6ff6 38d3 4bd1 5240 cc80 e433 66c5 21c0
00000450: 60ee c3fc a697 1a40 4081 978d dc21 0fc0
00000460: 004a 4fc9 dc71 d63f 8046 008a fcc0 07c0
00000470: 0080 4ae7 167f f33f 00ba 3836 40de f43f
00000480: e0c3 ed4f 1638 3a40 c0cb 8e28 a489 fdbf
00000490: 08fe f78d 0300 4640 b051 b94a 6cd3 25c0
000004a0: 0061 84fc 8afc f23f 20b2 8efc 6da4 14c0
000004b0: 0040 b149 8a0f bc3f b080 d2e4 3e5a 1140
000004c0: b05c 379b 9978 1140 ccd5 37af 9d2c 26c0
000004d0: 30ad 0cce 0c29 2ec0 4045 4e5d 6273 0040
000004e0: 0000 95e3 f632 b93f 40ad 41f6 b076 ed3f
000004f0: 6ff6 38d3 4bd1 52c0 cc80 e433 66c5 2140
00000500: 40fd e56d 16e8 26c0 7094 ead0 4d2e 1040
00000510: 4846 8a96 79bf 3340 888b 4d36 6a6f 10c0
00000520: 4846 8a96 79bf 33c0 888b 4d36 6a6f 1040
00000530: 409d 0406 94e8 3140 004f b93d 652d f7bf
00000540: 6053 cf99 95c9 2540 70e1 e059 cce7 06c0
00000550: 0040 b149 8a0f bcbf b080 d2e4 3e5a 11c0
00000560: 70ca b295 42f4 47c0 9c8c 76c0 c5fd 2b40
00000570: 8821 79fc 7ced 3540 20ee 837e 776d f6bf
00000580: 80b7 c1e4 0cbb 1bc0 60a0 266b 588e 0040
00000590: 00dc bf37 f320 1a40 80a1 dc51 02b0 15c0
000005a0: 0432 fd36 523c 4840 f07b e159 592f 26c0
000005b0: f0c2 f5b7 675d 2940 8002 2e3b 0875 ff3f
000005c0: 0080 4ae7 167f f3bf 00ba 3836 40de f4bf
000005d0: f05f 6fe5 66d2 2840 681f dd5b adb8 1840
000005e0: e0c3 ed4f 1638 3ac0 c0cb 8e28 a489 fd3f
000005f0: 204f 1bf5 b10c 2640 009e 8f06 3a1c 07c0
00000600: 181d d867 c401 2bc0 10d6 7ba2 8ea9 0e40
00000610: 1014 d671 5756 2740 601c 6b3d 2140 09c0
00000620: 6095 f554 fc9c 15c0 008c ec3a e133 ed3f
00000630: 204f 1bf5 b10c 26c0 009e 8f06 3a1c 0740
5.08431585763941 2.4629033672642393 -54.42378775780213 8.062567333265825 5.7253262799078755 -0.12410140838379391 3.8825491675312946 2.7734830808005597
10.124458794443228 -5.272252050952119 39.06605593161794 -5.520659115366158 -30.880638148458473 2.1696752384453006 -12.410941285939742 -6.180348811503656
0.3449873747669301 3.1237560414661516 -56.78914163619811 15.402980509808103 -1.0878179219567556 -0.19677242627757607 68.38872259718391 -9.59653834305901
-68.38872259718391 9.59653834305901 -7.327302390919854 11.562026531188124 -1.2573687597492267 -0.15205616150348078 -13.087131645354816 -1.3601794963365421
10.055180662203156 0.434804172139863 49.33626661981688 -6.235895730152137 15.080175818488527 -2.0563399590979827 1.2573687597492267 0.15205616150348078
-21.927688388417238 1.4017252866750667 0.28838107564749293 -4.615405401226198 13.50345158112627 -3.8327915853540233 -5.08431585763941 -2.4629033672642393
-48.47125899661117 11.092478569769781 11.1678789796876 -6.987986243519806 -30.687564975809096 10.860650856655695 11.592235107301661 -5.536880333374157
-45.95524972801792 6.743582080762451 -4.562476127339664 6.371951065695754 4.562476127339664 -6.371951065695754 8.81118410671263 -4.369009586297423
-93.22490730737064 11.394216969211758 2.8679274960422845 5.545407807955684 -8.81118410671263 4.369009586297423 6.514642162667485 0.8695850168851109
-10.893719488676368 2.863182737517654 15.905966255152123 -1.7782217707154047 -5.970345213424935 1.9701661994767932 -2.9020260121953356 -4.938679643682818
-0.35069961222794177 2.969231680043606 -15.16037201031574 1.9459159847442535 -6.759014933468109 -2.215967190773725 69.82509441006061 -26.871740798168275
28.54029957688425 -3.7021042235065096 1.0878179219567556 0.19677242627757607 6.932666372607741 -2.0695045825159895 3.1165854327038574 -0.21415686255315336
-10.055180662203156 -0.434804172139863 -28.54029957688425 3.7021042235065096 -11.592235107301661 5.536880333374157 -11.177272208081035 -2.8097594305923224
-15.905966255152123 1.7782217707154047 5.2902086652195806 -44.44577505157832 5.970345213424935 -1.9701661994767932 -2.8679274960422845 -5.545407807955684
44.281312315487554 -1.1827848147071194 -53.684742539439554 2.5513114955867273 -17.90850865948346 1.4485828791702602 53.684742539439554 -2.5513114955867273
1.6661892698834464 -3.341958667220325 -6.532177802167098 5.421883849230994 -3.1165854327038574 0.21415686255315336 -3.5185899177146496 -4.0402457347328635
38.802930744240086 -0.5521463446004731 -6.406095536253758 0.6828436548028947 75.03778587948182 -9.140369177308607 14.512188429455762 -3.7116915189621764
75.27025299608952 -8.885545369761893 6.648097943743409 -3.8915339528904553 0.35069961222794177 -2.969231680043606 1.2185277018361376 1.3042604558974062
26.219090457485322 -1.8461038193024564 44.00010847672462 -10.912935576555213 1.186655985255186 -5.160575815400563 0.10961212443476143 4.33813054594809
4.367773461584122 -11.08714053684789 -15.080175818488527 2.0563399590979827 0.09843390518381057 0.9207386789034118 -75.27025299608952 8.885545369761893
-11.453296121907101 4.045218719785325 19.747949036367828 -4.108803604586576 -19.747949036367828 4.108803604586576 17.90850865948346 -1.4485828791702602
10.893719488676368 -2.863182737517654 -0.10961212443476143 -4.33813054594809 -47.908282005596334 13.995649351569504 21.927688388417238 -1.4017252866750667
-6.932666372607741 2.0695045825159895 6.532177802167098 -5.421883849230994 48.47125899661117 -11.092478569769781 12.682431935072117 1.966072302981189
-1.2185277018361376 -1.3042604558974062 12.410941285939742 6.180348811503656 -26.219090457485322 1.8461038193024564 11.024795207580212 -2.888782550103997
-13.50345158112627 3.8327915853540233 11.66863589990865 -3.156313400107635 -5.403306319703319 0.9125829840526194 -11.024795207580212 2.888782550103997
