GeologicalScience/VolcanicEruption/code/volcanoinference/distance_learning/cross-valid-results/epsilon_sensitivity_study/contrastive_batch32_epochs400_param_distancesepsilon_0.50.npy (npy, 1728 bytes, 1 tensors)

array f8 [100, 2]
000000 c0 61 6c e5 56 56 14 40 90 dd 3c ae 06 b4 03 40
       5.08431585763941 2.4629033672642393
000010 48 1a 60 ad 3e 36 4b c0 6c 59 54 d3 08 20 20 40
       -54.42378775780213 8.062567333265825
000020 e0 88 ac ee bb e6 16 40 00 5c 65 22 1c c5 bf bf
       5.7253262799078755 -0.12410140838379391
000030 80 45 1d f0 75 0f 0f 40 c0 61 c0 e5 17 30 06 40
       3.8825491675312946 2.7734830808005597
000040 00 93 01 69 65 6d 1e c0 b0 56 b1 08 e6 09 18 c0
       -7.606832161637385 -6.00966657240285
000050 a0 90 68 1a 05 6f 32 40 d0 03 95 19 64 19 17 40
       18.433671618012 5.774795913429401
000060 38 3d 6f 80 71 e1 3e c0 30 82 00 b1 7e 5b 01 40
       -30.880638148458473 2.1696752384453006
000070 94 7d bd 0a 02 24 46 c0 c0 f5 15 c5 af ec f2 3f
       -44.281312315487554 1.1827848147071194
000080 f8 8a 69 2e 11 39 22 40 04 53 6d 61 7b 68 39 40
       9.111459207900666 25.408132638159273
000090 fc 31 c9 27 bf 10 41 c0 4a 5c 01 03 15 b9 4e 40
       -34.13083360027301 61.44595372740203
0000a0 40 e9 ec c3 b3 67 f1 bf 00 f2 ce bf d6 2f c9 bf
       -1.0878179219567556 -0.19677242627757607
0000b0 48 1a 60 ad 3e 36 4b 40 6c 59 54 d3 08 20 20 c0
       54.42378775780213 -8.062567333265825
0000c0 58 d8 c6 50 fd 32 47 c0 1c 54 d5 d5 cb 95 22 40
       -46.39835557660325 9.292570764819224
0000d0 00 fd 38 68 da 1a 10 40 d8 c7 92 cb d6 5e 37 c0
       4.026223782041825 -23.370465014777295
0000e0 f8 4f 94 05 d0 1a 50 40 f0 69 eb 5b e7 dd 03 c0
       64.41894664271956 -2.483351438638458
0000f0 a0 f1 4d 25 0b cd 27 c0 40 84 64 e1 40 15 1a c0
       -11.90047566009963 -6.520755311737105
000100 a0 f9 1c 42 04 b0 3e 40 a0 38 a5 3a a7 b8 25 c0
       30.687564975809096 -10.860650856655695
000110 00 8a 97 14 8e 19 0c c0 d0 22 01 b6 81 51 1f c0
       -3.5124780281778385 -7.829596370524726
000120 70 ba cc 39 c9 f3 20 40 30 4c a2 b3 ae 49 2b 40
       8.476144605866665 13.643910993158073
000130 f8 52 78 29 e3 bf 49 c0 f0 38 00 27 e3 55 11 40
       -51.49911993384552 4.3338743299375295
000140 70 49 b5 59 ef 02 25 40 18 61 29 80 70 6d 19 c0
       10.50573234880423 -6.3568744683509735
000150 a0 30 d4 1f e0 c2 27 40 00 83 53 65 f8 4d 24 c0
       11.880616182949154 -10.152285734600355
000160 e0 64 ac e9 b6 93 28 c0 80 af 58 a8 b5 ec e1 3f
       -12.288504888815112 0.5601452148452921
000170 60 e3 ce 3b f4 55 26 c0 08 43 73 aa b2 f3 1b 40
       -11.1678789796876 6.987986243519806
000180 04 32 fd 36 52 3c 48 c0 f0 7b e1 59 59 2f 26 40
       -48.47125899661117 11.092478569769781
000190 60 e3 ce 3b f4 55 26 40 08 43 73 aa b2 f3 1b c0
       11.1678789796876 -6.987986243519806
0001a0 e0 70 39 f0 e3 a1 34 c0 38 3b ac e1 45 97 26 40
       -20.63238431360594 11.295455028795558
0001b0 b0 ce a2 70 39 2f 27 40 90 d4 46 f5 c3 25 16 c0
       11.592235107301661 -5.536880333374157
0001c0 00 09 ef 65 4b 7a 2f c0 d0 14 d4 be 8f dd 01 c0
       -15.73885649245176 -2.2331843288871838
0001d0 80 d1 ee bd f9 3f 12 c0 a0 80 7b bd e0 7c 19 40
       -4.562476127339664 6.371951065695754
0001e0 80 d1 ee bd f9 3f 12 40 a0 80 7b bd e0 7c 19 c0
       4.562476127339664 -6.371951065695754
0001f0 40 bb f2 85 53 9f 21 40 50 3b 24 a6 dd 79 11 c0
       8.81118410671263 -4.369009586297423
000200 40 56 e2 a2 f1 a2 3b c0 c0 f3 a1 bc ce 53 fd 3f
       -27.636499576814685 1.8329608314954697
000210 c0 74 f1 00 ca 3d 0e c0 80 2e 9a d4 b6 df 22 40
       -3.780170447701124 9.436941760846139
000220 40 bb f2 85 53 9f 21 c0 50 3b 24 a6 dd 79 11 40
       -8.81118410671263 4.369009586297423
000230 90 59 bd fa de de 32 c0 d8 2a d8 52 c6 03 21 40
       -18.870589896419517 8.507372464072816
000240 80 45 1d f0 75 0f 0f c0 c0 61 c0 e5 17 30 06 c0
       -3.8825491675312946 -2.7734830808005597
000250 a0 c8 7d ce f4 92 30 40 00 4d d3 01 75 26 0a c0
       16.57404795237437 -3.2687778608902818
000260 00 f6 f5 2c a2 e1 17 c0 c0 ff 26 fe cc 85 ff 3f
       -5.970345213424935 1.9701661994767932
000270 90 f3 b0 ad fa d1 33 c0 78 d5 ae 80 d8 7b 3a c0
       -19.820231300068883 -26.483772318538712
000280 00 4a 4f c9 dc 71 d6 bf 80 46 00 8a fc c0 07 40
       -0.35069961222794177 2.969231680043606
000290 88 58 83 02 52 68 45 c0 40 86 42 1a 98 ac 2c 40
       -42.815002740987495 14.337097950573593
0002a0 40 af f1 35 3b 09 1b c0 a0 0e ab 01 4d ba 01 c0
       -6.759014933468109 -2.215967190773725
0002b0 e8 1f 5a dc 37 62 30 40 98 1a 13 5e 66 49 17 40
       16.383664867404065 5.821679563442238
0002c0 b0 c2 b4 12 51 8a 3c 40 60 c0 b2 d1 e8 9d 0d c0
       28.54029957688425 -3.7021042235065096
0002d0 40 e9 ec c3 b3 67 f1 3f 00 f2 ce bf d6 2f c9 3f
       1.0878179219567556 0.19677242627757607
0002e0 80 b7 c1 e4 0c bb 1b 40 60 a0 26 6b 58 8e 00 c0
       6.932666372607741 -2.0695045825159895
0002f0 80 39 e5 57 c4 ee 08 40 00 9c 70 f8 7d 69 cb bf
       3.1165854327038574 -0.21415686255315336
000300 a0 90 68 1a 05 6f 32 c0 d0 03 95 19 64 19 17 c0
       -18.433671618012 -5.774795913429401
000310 b0 c2 b4 12 51 8a 3c c0 60 c0 b2 d1 e8 9d 0d 40
       -28.54029957688425 3.7021042235065096
000320 b0 ce a2 70 39 2f 27 c0 90 d4 46 f5 c3 25 16 40
       -11.592235107301661 5.536880333374157
000330 c0 0b 1d 82 d7 9f 19 40 00 1b b5 ef da d9 e5 bf
       6.406095536253758 -0.6828436548028947
000340 00 06 14 de ec 60 e5 3f c0 79 c2 57 51 d9 f7 bf
       0.6680816972222487 -1.4905560901748771
000350 fc 31 c9 27 bf 10 41 40 4a 5c 01 03 15 b9 4e c0
       34.13083360027301 -61.44595372740203
000360 00 f6 f5 2c a2 e1 17 40 c0 ff 26 fe cc 85 ff bf
       5.970345213424935 -1.9701661994767932
000370 60 ee c3 fc a6 97 1a c0 40 81 97 8d dc 21 0f 40
       -6.648097943743409 3.8915339528904553
000380 94 7d bd 0a 02 24 46 40 c0 f5 15 c5 af ec f2 bf
       44.281312315487554 -1.1827848147071194
000390 18 3f 51 91 8d db 32 40 bc d3 08 70 30 5e 24 c0
       18.85762890084797 -10.183963299825216
0003a0 18 3f 51 91 8d db 32 c0 bc d3 08 70 30 5e 24 40
       -18.85762890084797 10.183963299825216
0003b0 50 06 56 05 0e c0 34 40 d0 c9 8b d4 f6 5f f3 bf
       20.750213941099275 -1.2109287550525671
0003c0 00 3c 09 a1 04 82 e2 3f 60 4b 5f 3f 52 4f 0c c0
       0.5783713479266908 -3.5387310934979013
0003d0 00 dc bf 37 f3 20 1a c0 80 a1 dc 51 02 b0 15 40
       -6.532177802167098 5.421883849230994
0003e0 80 39 e5 57 c4 ee 08 c0 00 9c 70 f8 7d 69 cb 3f
       -3.1165854327038574 0.21415686255315336
0003f0 a0 f1 4d 25 0b cd 27 40 40 84 64 e1 40 15 1a 40
       11.90047566009963 6.520755311737105
000400 40 3f 2d 53 e8 27 36 40 00 00 f4 d8 2a ea 3a c0
       22.15588874678292 -26.914716300554574
000410 c0 0b 1d 82 d7 9f 19 c0 00 1b b5 ef da d9 e5 3f
       -6.406095536253758 0.6828436548028947
000420 58 9b ca 02 25 bd 39 40 a8 e6 50 4c 66 97 23 c0
       25.738845991577676 -9.795702347636805
000430 50 06 56 05 0e c0 34 c0 d0 c9 8b d4 f6 5f f3 3f
       -20.750213941099275 1.2109287550525671
000440 88 58 83 02 52 68 45 40 40 86 42 1a 98 ac 2c c0
       42.815002740987495 -14.337097950573593
000450 60 ee c3 fc a6 97 1a 40 40 81 97 8d dc 21 0f c0
       6.648097943743409 -3.8915339528904553
000460 00 4a 4f c9 dc 71 d6 3f 80 46 00 8a fc c0 07 c0
       0.35069961222794177 -2.969231680043606
000470 00 80 4a e7 16 7f f3 3f 00 ba 38 36 40 de f4 3f
       1.2185277018361376 1.3042604558974062
000480 04 09 34 f7 23 b8 4a 40 80 02 33 81 88 e0 18 c0
       53.43859758415968 -6.219270724047078
000490 58 9b ca 02 25 bd 39 c0 a8 e6 50 4c 66 97 23 40
       -25.738845991577676 9.795702347636805
0004a0 00 61 84 fc 8a fc f2 3f 20 b2 8e fc 6d a4 14 c0
       1.186655985255186 -5.160575815400563
0004b0 00 09 ef 65 4b 7a 2f 40 d0 14 d4 be 8f dd 01 40
       15.73885649245176 2.2331843288871838
0004c0 4c d4 40 71 aa f0 39 c0 ae 2a 53 c8 b8 01 31 c0
       -25.94010074455973 -17.006725807480215
0004d0 88 eb 8d ee af e4 3c 40 a0 7d de 46 2a e7 11 c0
       28.89330950703473 -4.475747210817104
0004e0 e0 12 79 6f 50 73 29 40 38 83 f7 4d 68 ec 23 40
       12.725223048715122 9.96173328062433
0004f0 3e 09 ad a2 0b f3 4b c0 00 e3 eb 6a fa 2b 04 40
       -55.898792585840496 2.5214737275349535
000500 40 fd e5 6d 16 e8 26 c0 70 94 ea d0 4d 2e 10 40
       -11.453296121907101 4.045218719785325
000510 48 46 8a 96 79 bf 33 40 88 8b 4d 36 6a 6f 10 c0
       19.747949036367828 -4.108803604586576
000520 48 46 8a 96 79 bf 33 c0 88 8b 4d 36 6a 6f 10 40
       -19.747949036367828 4.108803604586576
000530 3e 09 ad a2 0b f3 4b 40 00 e3 eb 6a fa 2b 04 c0
       55.898792585840496 -2.5214737275349535
000540 e0 64 ac e9 b6 93 28 40 80 af 58 a8 b5 ec e1 bf
       12.288504888815112 -0.5601452148452921
000550 40 56 e2 a2 f1 a2 3b 40 c0 f3 a1 bc ce 53 fd bf
       27.636499576814685 -1.8329608314954697
000560 88 eb 8d ee af e4 3c c0 a0 7d de 46 2a e7 11 40
       -28.89330950703473 4.475747210817104
000570 58 d8 c6 50 fd 32 47 40 1c 54 d5 d5 cb 95 22 c0
       46.39835557660325 -9.292570764819224
000580 80 b7 c1 e4 0c bb 1b c0 60 a0 26 6b 58 8e 00 40
       -6.932666372607741 2.0695045825159895
000590 00 dc bf 37 f3 20 1a 40 80 a1 dc 51 02 b0 15 c0
       6.532177802167098 -5.421883849230994
0005a0 4c d4 40 71 aa f0 39 40 ae 2a 53 c8 b8 01 31 40
       25.94010074455973 17.006725807480215
0005b0 f0 c2 f5 b7 67 5d 29 40 80 02 2e 3b 08 75 ff 3f
       12.682431935072117 1.966072302981189
0005c0 00 80 4a e7 16 7f f3 bf 00 ba 38 36 40 de f4 bf
       -1.2185277018361376 -1.3042604558974062
0005d0 30 4b c3 a2 d0 de 3f c0 d8 9c 22 4d d9 73 1d 40
       -31.87037102954781 7.363133626210775
0005e0 f8 52 78 29 e3 bf 49 40 f0 38 00 27 e3 55 11 c0
       51.49911993384552 -4.3338743299375295
0005f0 20 4f 1b f5 b1 0c 26 40 00 9e 8f 06 3a 1c 07 c0
       11.024795207580212 -2.888782550103997
000600 f8 8a 69 2e 11 39 22 c0 04 53 6d 61 7b 68 39 c0
       -9.111459207900666 -25.408132638159273
000610 10 14 d6 71 57 56 27 40 60 1c 6b 3d 21 40 09 c0
       11.66863589990865 -3.156313400107635
000620 60 95 f5 54 fc 9c 15 c0 00 8c ec 3a e1 33 ed 3f
       -5.403306319703319 0.9125829840526194
000630 20 4f 1b f5 b1 0c 26 c0 00 9e 8f 06 3a 1c 07 40
       -11.024795207580212 2.888782550103997
