GeologicalScience/VolcanicEruption/code/volcanoinference/distance_learning/cross-valid-results/epsilon_sensitivity_study/contrastive_batch32_epochs400_param_distancesepsilon_0.64.npy (npy, 1728 bytes, 1 tensors)

array f8 [100, 2]
16.767214014719514 -12.325543015012556 -54.42378775780213 8.062567333265825 5.7253262799078755 -0.12410140838379391 30.13431232175799 -33.68876252784652
-14.476345813159895 10.42098963483469 8.378490955808843 5.339991741289538 14.476345813159895 -10.42098963483469 22.176004986525413 2.3926008986541305
0.3449873747669301 3.1237560414661516 -13.773233636433389 2.29541503056042 -1.0878179219567556 -0.19677242627757607 54.42378775780213 -8.062567333265825
3.096838736771531 -6.488039973769048 4.026223782041825 -23.370465014777295 -1.2573687597492267 -0.15205616150348078 -13.087131645354816 -1.3601794963365421
-8.378490955808843 -5.339991741289538 43.096393860242074 -7.943626251089512 15.080175818488527 -2.0563399590979827 1.2573687597492267 0.15205616150348078
27.567505924957544 -14.378885451913206 20.502262790813575 -9.373465550618533 13.50345158112627 -3.8327915853540233 -11.859550271759701 -8.582706486831533
-48.47125899661117 11.092478569769781 38.111259452167985 -16.122839074951813 -20.63238431360594 11.295455028795558 3.5185899177146496 4.0402457347328635
-15.629244368016998 2.104946217060906 -27.567505924957544 14.378885451913206 37.75015179998098 -18.60033144568284 -0.6680816972222487 1.4905560901748771
-93.22490730737064 11.394216969211758 -3.780170447701124 9.436941760846139 -25.385232059087002 7.637787447187705 6.514642162667485 0.8695850168851109
-10.893719488676368 2.863182737517654 25.385232059087002 -7.637787447187705 -5.970345213424935 1.9701661994767932 -16.767214014719514 12.325543015012556
-0.3449873747669301 -3.1237560414661516 -15.16037201031574 1.9459159847442535 -15.061679061159026 8.611775923753527 23.253178518926575 -10.608976643795302
28.54029957688425 -3.7021042235065096 1.0878179219567556 0.19677242627757607 6.932666372607741 -2.0695045825159895 3.1165854327038574 -0.21415686255315336
20.63238431360594 -11.295455028795558 -28.54029957688425 3.7021042235065096 -11.592235107301661 5.536880333374157 6.406095536253758 -0.6828436548028947
0.6680816972222487 -1.4905560901748771 -2.5029176908693103 -58.03259101431837 12.034260361858571 -6.086416789878825 -6.648097943743409 3.8915339528904553
31.87037102954781 -7.363133626210775 -13.358146074378823 -35.26716979617516 -139.45673252220138 11.623720615947065 93.22490730737064 -11.394216969211758
-32.90918097275505 32.61397252182382 -20.502262790813575 9.373465550618533 -3.1165854327038574 0.21415686255315336 -3.5185899177146496 -4.0402457347328635
11.859550271759701 8.582706486831533 -6.406095536253758 0.6828436548028947 139.45673252220138 -11.623720615947065 -9.212745020537284 -2.1321369100996037
-14.512188429455762 3.7116915189621764 3.780170447701124 -9.436941760846139 15.067391298620038 -14.704763645263284 1.2185277018361376 1.3042604558974062
26.219090457485322 -1.8461038193024564 54.50584082552885 -17.269810044906187 11.34976998053952 -8.536997850294767 0.10961212443476143 4.33813054594809
8.89840593056293 -39.6298485962812 -15.080175818488527 2.0563399590979827 -52.65805478841094 5.1025568473374605 -17.30774805927392 2.413948674564878
7.720993138991645 -2.638104684972461 -22.176004986525413 -2.3926008986541305 -21.437487269044198 -5.866391119311196 -43.096393860242074 7.943626251089512
25.791956469941383 -4.392936800199315 -0.10961212443476143 -4.33813054594809 -35.49734071965659 20.17599816307316 46.39835557660325 -9.292570764819224
-6.932666372607741 2.0695045825159895 -11.34976998053952 8.536997850294767 15.16037201031574 -1.9459159847442535 2.0063073939512037 8.096124423233334
-1.2185277018361376 -1.3042604558974062 -31.87037102954781 7.363133626210775 52.65805478841094 -5.1025568473374605 11.024795207580212 -2.888782550103997
-25.791956469941383 4.392936800199315 11.66863589990865 -3.156313400107635 -30.13431232175799 33.68876252784652 -11.024795207580212 2.888782550103997
00000000: d040 3e23 68c4 3040 20d7 f592 ada6 28c0
00000010: 481a 60ad 3e36 4bc0 6c59 54d3 0820 2040
00000020: e088 acee bbe6 1640 005c 6522 1cc5 bfbf
00000030: 8066 d54a 6222 3e40 d2e7 d95e 29d8 40c0
00000040: 7037 3299 e3f3 2cc0 d423 13f4 8bd7 2440
00000050: c00f 0a91 c9c1 2040 a0fe 86cb 265c 1540
00000060: 7037 3299 e3f3 2c40 d423 13f4 8bd7 24c0
00000070: 400f ada9 0e2d 3640 30cc a0f0 0b24 0340
00000080: 000a 0aed 4514 d63f 803c b6ce 73fd 0840
00000090: 104c 7947 e58b 2bc0 e007 388e 025d 0240
000000a0: 40e9 ecc3 b367 f1bf 00f2 cebf d62f c9bf
000000b0: 481a 60ad 3e36 4b40 6c59 54d3 0820 20c0
000000c0: 805b 3b63 53c6 0840 40ea 39c0 c0f3 19c0
000000d0: 00fd 3868 da1a 1040 d8c7 92cb d65e 37c0
000000e0: 0029 62b4 2e1e f4bf 0008 6888 9376 c3bf
000000f0: c07d de84 9c2c 2ac0 8048 5793 4bc3 f5bf
00000100: c00f 0a91 c9c1 20c0 a0fe 86cb 265c 15c0
00000110: 30a3 4ea2 568c 4540 604e c0f5 45c6 1fc0
00000120: 30ad 0cce 0c29 2e40 4045 4e5d 6273 00c0
00000130: 0029 62b4 2e1e f43f 0008 6888 9376 c33f
00000140: 98fa 7b11 4891 3b40 78cb 2146 fdc1 2cc0
00000150: c08a 544b 9480 3440 b02d 6ce0 36bf 22c0
00000160: 181d d867 c401 2b40 10d6 7ba2 8ea9 0ec0
00000170: a0f3 24f9 16b8 27c0 8c37 3081 582a 21c0
00000180: 0432 fd36 523c 48c0 f07b e159 592f 2640
00000190: 5837 eebf 3d0e 4340 c496 b161 721f 30c0
000001a0: e070 39f0 e3a1 34c0 383b ace1 4597 2640
000001b0: 40f5 8478 1226 0c40 b0ec 892d 3629 1040
000001c0: 80a6 5b51 2c42 2fc0 90ec d00a eed6 0040
000001d0: 98fa 7b11 4891 3bc0 78cb 2146 fdc1 2c40
000001e0: 18fa 63f9 04e0 4240 dcf7 5552 af99 32c0
000001f0: 0006 14de ec60 e5bf c079 c257 51d9 f73f
00000200: 7472 9ee1 644e 57c0 e295 7cce d6c9 2640
00000210: c074 f100 ca3d 0ec0 802e 9ad4 b6df 2240
00000220: 4026 7791 9e62 39c0 d0e1 0d27 188d 1e40
00000230: c032 e75a fe0e 1a40 009f 13f5 a3d3 eb3f
00000240: 6053 cf99 95c9 25c0 70e1 e059 cce7 0640
00000250: 4026 7791 9e62 3940 d0e1 0d27 188d 1ec0
00000260: 00f6 f52c a2e1 17c0 c0ff 26fe cc85 ff3f
00000270: d040 3e23 68c4 30c0 20d7 f592 ada6 2840
00000280: 000a 0aed 4514 d6bf 803c b6ce 73fd 08c0
00000290: f0ff b647 1c52 2ec0 e0d7 b3cc 7822 ff3f
000002a0: 500d dd65 941f 2ec0 d000 a2b1 3a39 2140
000002b0: e0d6 b24e d040 3740 e041 62c9 cb37 25c0
000002c0: b0c2 b412 518a 3c40 60c0 b2d1 e89d 0dc0
000002d0: 40e9 ecc3 b367 f13f 00f2 cebf d62f c93f
000002e0: 80b7 c1e4 0cbb 1b40 60a0 266b 588e 00c0
000002f0: 8039 e557 c4ee 0840 009c 70f8 7d69 cbbf
00000300: e070 39f0 e3a1 3440 383b ace1 4597 26c0
00000310: b0c2 b412 518a 3cc0 60c0 b2d1 e89d 0d40
00000320: b0ce a270 392f 27c0 90d4 46f5 c325 1640
00000330: c00b 1d82 d79f 1940 001b b5ef dad9 e5bf
00000340: 0006 14de ec60 e53f c079 c257 51d9 f7bf
00000350: 80e8 d6b5 f905 04c0 0852 3ef1 2b04 4dc0
00000360: a076 fb92 8a11 2840 606b 99a4 7d58 18c0
00000370: 60ee c3fc a697 1ac0 4081 978d dc21 0f40
00000380: 304b c3a2 d0de 3f40 d89c 224d d973 1dc0
00000390: b04b 19ec 5eb7 2ac0 9186 b09e 32a2 41c0
000003a0: fcbb 858d 9d6e 61c0 d0aa fe4e 583f 2740
000003b0: 7472 9ee1 644e 5740 e295 7cce d6c9 26c0
000003c0: 7010 c80a 6074 40c0 1ff0 cea6 964e 4040
000003d0: c08a 544b 9480 34c0 b02d 6ce0 36bf 2240
000003e0: 8039 e557 c4ee 08c0 009c 70f8 7d69 cb3f
000003f0: 40f5 8478 1226 0cc0 b0ec 892d 3629 10c0
00000400: a0f3 24f9 16b8 2740 8c37 3081 582a 2140
00000410: c00b 1d82 d79f 19c0 001b b5ef dad9 e53f
00000420: fcbb 858d 9d6e 6140 d0aa fe4e 583f 27c0
00000430: 6030 53ea ec6c 22c0 40c7 dbcb 9d0e 01c0
00000440: e0cd d38f 3d06 2dc0 d043 b652 8bb1 0d40
00000450: c074 f100 ca3d 0e40 802e 9ad4 b6df 22c0
00000460: 5037 bf1c 8122 2e40 90a1 cfc7 d668 2dc0
00000470: 0080 4ae7 167f f33f 00ba 3836 40de f43f
00000480: e0c3 ed4f 1638 3a40 c0cb 8e28 a489 fdbf
00000490: 6450 6564 bf40 4b40 1e01 6745 1245 31c0
000004a0: 6014 070d 15b3 2640 a013 da61 f112 21c0
000004b0: 0040 b149 8a0f bc3f b080 d2e4 3e5a 1140
000004c0: b899 b4dc fbcb 2140 c93a f9e0 9ed0 43c0
000004d0: 30ad 0cce 0c29 2ec0 4045 4e5d 6273 0040
000004e0: c099 a923 3b54 4ac0 582e 85a9 0469 1440
000004f0: 2cfd a993 c84e 31c0 60d4 9b52 c44f 0340
00000500: 2070 8206 4ce2 1e40 800c 0ba1 d61a 05c0
00000510: 400f ada9 0e2d 36c0 30cc a0f0 0b24 03c0
00000520: 10f6 682a ff6f 35c0 18f2 cb3b 2f77 17c0
00000530: 30a3 4ea2 568c 45c0 604e c0f5 45c6 1f40
00000540: fc40 c2a8 bdca 3940 f800 4906 5e92 11c0
00000550: 0040 b149 8a0f bcbf b080 d2e4 3e5a 11c0
00000560: 74f2 56dc a8bf 41c0 288e 3237 0e2d 3440
00000570: 58d8 c650 fd32 4740 1c54 d5d5 cb95 22c0
00000580: 80b7 c1e4 0cbb 1bc0 60a0 266b 588e 0040
00000590: 6014 070d 15b3 26c0 a013 da61 f112 2140
000005a0: f0ff b647 1c52 2e40 e0d7 b3cc 7822 ffbf
000005b0: 80f2 15e4 ea0c 0040 a044 6c38 3731 2040
000005c0: 0080 4ae7 167f f3bf 00ba 3836 40de f4bf
000005d0: 304b c3a2 d0de 3fc0 d89c 224d d973 1d40
000005e0: c099 a923 3b54 4a40 582e 85a9 0469 14c0
000005f0: 204f 1bf5 b10c 2640 009e 8f06 3a1c 07c0
00000600: fc40 c2a8 bdca 39c0 f800 4906 5e92 1140
00000610: 1014 d671 5756 2740 601c 6b3d 2140 09c0
00000620: 8066 d54a 6222 3ec0 d2e7 d95e 29d8 4040
00000630: 204f 1bf5 b10c 26c0 009e 8f06 3a1c 0740
