GeologicalScience/VolcanicEruption/code/volcanoinference/distance_learning/cross-valid-results/epsilon_sensitivity_study/contrastive_batch32_epochs400_param_distancesepsilon_0.44.npy (npy, 1728 bytes, 1 tensors)

array f8 [100, 2]
00000000: c061 6ce5 5656 1440 90dd 3cae 06b4 0340
00000010: 481a 60ad 3e36 4bc0 6c59 54d3 0820 2040
00000020: 2070 8206 4ce2 1ec0 800c 0ba1 d61a 0540
00000030: 0004 903b 700b 1cc0 98a1 d01f f28b 1640
00000040: 0093 0169 656d 1ec0 b056 b108 e609 18c0
00000050: c000 5185 7488 4340 a072 c3a9 2715 16c0
00000060: e81f 5adc 3762 30c0 981a 135e 6649 17c0
00000070: 80e5 7f28 876a 1a40 80dd f54a 8766 2fc0
00000080: 000a 0aed 4514 d63f 803c b6ce 73fd 0840
00000090: 4c74 d3af 4ef7 56c0 489d aee6 754d 2940
000000a0: 4087 7114 b6a8 fabf 405c 62d3 54bc 0a40
000000b0: e0f9 25aa 2880 4240 a8bb ef54 74cb 29c0
000000c0: 58d8 c650 fd32 47c0 1c54 d5d5 cb95 2240
000000d0: 8061 f2b2 8708 f6bf 7863 bbc1 3775 36c0
000000e0: 0000 95e3 f632 b9bf 40ad 41f6 b076 edbf
000000f0: c07d de84 9c2c 2ac0 8048 5793 4bc3 f5bf
00000100: a0f9 1c42 04b0 3e40 a038 a53a a7b8 25c0
00000110: 10ff 62c8 ea9c 53c0 0067 9db1 22da 0140
00000120: 0096 8aae 767a 0fc0 f878 670b b0da 1d40
00000130: 40bd db64 d776 1bc0 be81 4667 d6ce 2440
00000140: 288f 14a5 7d78 3840 b0ac 09cc 3990 1fc0
00000150: 8027 c9fa aef0 2b40 c073 f7dd d69c 0fc0
00000160: c0c5 c897 fd1b 15c0 a88b c56a 5b4e 14c0
00000170: 60e3 ce3b f455 26c0 0843 73aa b2f3 1b40
00000180: c085 be1c f843 2bc0 d819 5d99 b00f 27c0
00000190: 60e3 ce3b f455 2640 0843 73aa b2f3 1bc0
000001a0: c000 5185 7488 43c0 a072 c3a9 2715 1640
000001b0: b0ce a270 392f 2740 90d4 46f5 c325 16c0
000001c0: 0009 ef65 4b7a 2fc0 d014 d4be 8fdd 01c0
000001d0: 80d1 eebd f93f 12c0 a080 7bbd e07c 1940
000001e0: 80d1 eebd f93f 1240 a080 7bbd e07c 19c0
000001f0: 40bb f285 539f 2140 503b 24a6 dd79 11c0
00000200: 0057 6668 854b 2ec0 18f5 09f6 4576 1fc0
00000210: c074 f100 ca3d 0ec0 802e 9ad4 b6df 2240
00000220: 40bb f285 539f 21c0 503b 24a6 dd79 1140
00000230: 9059 bdfa dede 32c0 d82a d852 c603 2140
00000240: 6053 cf99 95c9 25c0 70e1 e059 cce7 0640
00000250: 9059 bdfa dede 3240 d82a d852 c603 21c0
00000260: 80d4 8aab e4d3 1440 10d6 09d3 a41e 1340
00000270: 40a9 23f0 5d85 2e40 0005 b7a0 479d 1640
00000280: 000a 0aed 4514 d6bf 803c b6ce 73fd 08c0
00000290: 0057 6668 854b 2e40 18f5 09f6 4576 1f40
000002a0: 40af f135 3b09 1bc0 a00e ab01 4dba 01c0
000002b0: e81f 5adc 3762 3040 981a 135e 6649 1740
000002c0: b0c2 b412 518a 3c40 60c0 b2d1 e89d 0dc0
000002d0: c087 d0a1 fab8 1840 002d 85a0 cf04 1740
000002e0: c035 3541 0868 14c0 301b 066f 5111 1040
000002f0: 8039 e557 c4ee 0840 009c 70f8 7d69 cbbf
00000300: 8011 c7a3 401c 24c0 0053 e0e0 d4d3 dbbf
00000310: b0c2 b412 518a 3cc0 60c0 b2d1 e89d 0d40
00000320: b0ce a270 392f 27c0 90d4 46f5 c325 1640
00000330: 80d4 8aab e4d3 14c0 10d6 09d3 a41e 13c0
00000340: 0006 14de ec60 e53f c079 c257 51d9 f7bf
00000350: fc1e 8c6c dee5 42c0 0481 4db4 82d0 48c0
00000360: c035 3541 0868 1440 301b 066f 5111 10c0
00000370: 60ee c3fc a697 1ac0 4081 978d dc21 0f40
00000380: 304b c3a2 d0de 3f40 d89c 224d d973 1dc0
00000390: 2c86 13a2 9e77 40c0 2079 2b2c 3572 f53f
000003a0: 9eba aa9f c1fe 4240 0077 1e98 8f2a f1bf
000003b0: 40bd db64 d776 1b40 be81 4667 d6ce 24c0
000003c0: 40af f135 3b09 1b40 a00e ab01 4dba 0140
000003d0: 00dc bf37 f320 1ac0 80a1 dc51 02b0 1540
000003e0: 8039 e557 c4ee 08c0 009c 70f8 7d69 cb3f
000003f0: 0061 84fc 8afc f2bf 20b2 8efc 6da4 1440
00000400: 00c7 962f 6bfb 0740 70b6 4bbf 918c 2c40
00000410: 9075 a796 5795 31c0 80e5 126b ec03 01c0
00000420: 10ff 62c8 ea9c 5340 0067 9db1 22da 01c0
00000430: 2c86 13a2 9e77 4040 2079 2b2c 3572 f5bf
00000440: 48ee 9c5c 33fb 4c40 6817 7b3e eae2 19c0
00000450: 60ee c3fc a697 1a40 4081 978d dc21 0fc0
00000460: 40f3 d2a4 cf1f 17c0 b4a6 ac4c 4bd8 3440
00000470: 0080 4ae7 167f f33f 00ba 3836 40de f43f
00000480: e0c3 ed4f 1638 3a40 c0cb 8e28 a489 fdbf
00000490: 08fe f78d 0300 4640 b051 b94a 6cd3 25c0
000004a0: c07d de84 9c2c 2a40 8048 5793 4bc3 f53f
000004b0: 0009 ef65 4b7a 2f40 d014 d4be 8fdd 0140
000004c0: bc8f b9fc f987 3640 a6e8 4375 6519 3cc0
000004d0: 80e5 7f28 876a 1ac0 80dd f54a 8766 2f40
000004e0: 0000 95e3 f632 b93f 40ad 41f6 b076 ed3f
000004f0: 9eba aa9f c1fe 42c0 0077 1e98 8f2a f13f
00000500: 40fd e56d 16e8 26c0 7094 ead0 4d2e 1040
00000510: c071 9a68 f73c 3440 943c dda8 fbc0 26c0
00000520: 10f6 682a ff6f 35c0 18f2 cb3b 2f77 17c0
00000530: 207e 9b1d bae8 2540 80d6 018c 629b fb3f
00000540: 6053 cf99 95c9 2540 70e1 e059 cce7 06c0
00000550: 207e 9b1d bae8 25c0 80d6 018c 629b fbbf
00000560: e0f9 25aa 2880 42c0 a8bb ef54 74cb 2940
00000570: 58d8 c650 fd32 4740 1c54 d5d5 cb95 22c0
00000580: 40fd e56d 16e8 2640 7094 ead0 4d2e 10c0
00000590: 8027 c9fa aef0 2bc0 c073 f7dd d69c 0f40
000005a0: 7828 da5d f54c 3240 c805 9d6c 2497 1640
000005b0: f0c2 f5b7 675d 2940 8002 2e3b 0875 ff3f
000005c0: 0080 4ae7 167f f3bf 00ba 3836 40de f4bf
000005d0: 0096 8aae 767a 0f40 f878 670b b0da 1dc0
000005e0: e0c3 ed4f 1638 3ac0 c0cb 8e28 a489 fd3f
000005f0: 204f 1bf5 b10c 2640 009e 8f06 3a1c 07c0
00000600: f8b4 4be5 fd3b 22c0 a482 5656 ad50 33c0
00000610: 1014 d671 5756 2740 601c 6b3d 2140 09c0
00000620: 6871 e502 05fe 24c0 f023 29c3 d494 12c0
00000630: 204f 1bf5 b10c 26c0 009e 8f06 3a1c 0740
5.08431585763941 2.4629033672642393 -54.42378775780213 8.062567333265825 -7.720993138991645 2.638104684972461 -7.011170321145073 5.636665818318214
-7.606832161637385 -6.00966657240285 39.06605593161794 -5.520659115366158 -16.383664867404065 -5.821679563442238 6.604031212621862 -15.700250952256056
0.3449873747669301 3.1237560414661516 -91.86417766237099 12.651290139022095 -1.6661892698834464 3.341958667220325 37.00124098638821 -12.897371916069304
-46.39835557660325 9.292570764819224 -1.3770825376614937 -22.457882030724676 -0.09843390518381057 -0.9207386789034118 -13.087131645354816 -1.3601794963365421
30.687564975809096 -10.860650856655695 -78.45183000247584 2.2315114856872924 -3.9347966800730774 7.463562181654417 -6.866056037818737 10.403979518276966
24.470667188186013 -7.890845478144158 13.970084988646477 -3.951581701387539 -5.277334567670039 -5.076520603472922 -11.1678789796876 6.987986243519806
-13.63275232148851 -11.530644219031203 11.1678789796876 -6.987986243519806 -39.06605593161794 5.520659115366158 11.592235107301661 -5.536880333374157
-15.73885649245176 -2.2331843288871838 -4.562476127339664 6.371951065695754 4.562476127339664 -6.371951065695754 8.81118410671263 -4.369009586297423
-15.14750219582811 -7.865501255376579 -3.780170447701124 9.436941760846139 -8.81118410671263 4.369009586297423 -18.870589896419517 8.507372464072816
-10.893719488676368 2.863182737517654 18.870589896419517 -8.507372464072816 5.206926994656101 4.7799256300691155 15.260482315400282 5.653593550844789
-0.3449873747669301 -3.1237560414661516 15.14750219582811 7.865501255376579 -6.759014933468109 -2.215967190773725 16.383664867404065 5.821679563442238
28.54029957688425 -3.7021042235065096 6.180643585541418 5.754698284271626 -5.10159398925083 4.016912207362836 3.1165854327038574 -0.21415686255315336
-10.055180662203156 -0.434804172139863 -28.54029957688425 3.7021042235065096 -11.592235107301661 5.536880333374157 -5.206926994656101 -4.7799256300691155
0.6680816972222487 -1.4905560901748771 -37.79585034219596 -49.628988778918966 5.10159398925083 -4.016912207362836 -6.648097943743409 3.8915339528904553
31.87037102954781 -7.363133626210775 -32.93452859834028 1.3403827405341602 37.99028392635704 -1.0728908483646933 6.866056037818737 -10.403979518276966
6.759014933468109 2.215967190773725 -6.532177802167098 5.421883849230994 -3.1165854327038574 0.21415686255315336 -1.186655985255186 5.160575815400563
2.9977630346191972 14.27454946326472 -17.583367744334794 -2.1269157757894277 78.45183000247584 -2.2315114856872924 32.93452859834028 -1.3403827405341602
57.962504936815606 -6.4715966951970145 6.648097943743409 -3.8915339528904553 -5.781065535903338 20.844898979331177 1.2185277018361376 1.3042604558974062
26.219090457485322 -1.8461038193024564 44.00010847672462 -10.912935576555213 13.087131645354816 1.3601794963365421 15.73885649245176 2.2331843288871838
22.53115825205144 -28.099204377249997 -6.604031212621862 15.700250952256056 0.09843390518381057 0.9207386789034118 -37.99028392635704 1.0728908483646933
-11.453296121907101 4.045218719785325 20.23815015574087 -11.376920010572839 -21.437487269044198 -5.866391119311196 10.954544949751892 1.7254357785253944
10.893719488676368 -2.863182737517654 -10.954544949751892 -1.7254357785253944 -37.00124098638821 12.897371916069304 46.39835557660325 -9.292570764819224
11.453296121907101 -4.045218719785325 -13.970084988646477 3.951581701387539 18.300618997346163 5.647599885066889 12.682431935072117 1.966072302981189
-1.2185277018361376 -1.3042604558974062 3.9347966800730774 -7.463562181654417 -26.219090457485322 1.8461038193024564 11.024795207580212 -2.888782550103997
-9.117171445361677 -19.315144916649515 11.66863589990865 -3.156313400107635 -10.496131983287981 -4.645342873941431 -11.024795207580212 2.888782550103997
