GeologicalScience/VolcanicEruption/code/volcanoinference/distance_learning/cross-valid-results/epsilon_sensitivity_study/contrastive_batch32_epochs400_param_distancesepsilon_0.06.npy (npy, 1728 bytes, 1 tensors)

array f8 [100, 2]
0	0x40145656e56c61c0	5.08431585763941
1	0x4003b406ae3cdd90	2.4629033672642393
2	0xc04b363ead601a48	-54.42378775780213
3	0x40202008d354596c	8.062567333265825
4	0x401bc681a87f28e0	6.943853981744013
5	0x3ff2e1ee74126440	1.1801590475136123
6	0x400f0f75f01d4580	3.8825491675312946
7	0x40063017e5c061c0	2.7734830808005597
8	0x40135645aa76cc20	4.834250129223648
9	0x40439636006e658c	39.173523000626204
10	0x40438874855100c0	39.06605593161794
11	0xc0161527a9c372a0	-5.520659115366158
12	0xc03ee171806f3d38	-30.880638148458473
13	0x40015b7eb1008230	2.1696752384453006
14	0xc04624020abd7d94	-44.281312315487554
15	0x3ff2ecafc515f5c0	1.1827848147071194
16	0x402e1f9465dd0d50	15.061679061159026
17	0xc021393ab1a200d0	-8.611775923753527
18	0xc04110bf27c931fc	-34.13083360027301
19	0x404eb91503015c4a	61.44595372740203
20	0xbff167b3c3ece940	-1.0878179219567556
21	0xbfc92fd6bfcef200	-0.19677242627757607
22	0x404b363ead601a48	54.42378775780213
23	0xc0202008d354596c	-8.062567333265825
24	0xc02bee0bf073d4e0	-13.964934839381783
25	0x3ff88b252f812e60	1.5339710097931842
26	0xc03071c9098ec1c0	-16.44447383628153
27	0xc01f0331774e4ac0	-7.753118385461391
28	0xbff41e2eb4622900	-1.2573687597492267
29	0xbfc3769388680800	-0.15205616150348078
30	0xc02a2c9c84de7dc0	-13.087131645354816
31	0xbff5c34b93574880	-1.3601794963365421
32	0x40241c40a3c71180	10.055180662203156
33	0x3fdbd3d4e0e05300	0.434804172139863
34	0x4037b9953d137f20	23.724933449993046
35	0xbff945db0db4f920	-1.5795546088625727
36	0x402e290cce0cad30	15.080175818488527
37	0xc00073625d4e4540	-2.0563399590979827
38	0x3ff41e2eb4622900	1.2573687597492267
39	0x3fc3769388680800	0.15205616150348078
40	0xc035ed7cfc792188	-21.927688388417238
41	0x3ff66d777e83ee20	1.4017252866750667
42	0x402bf0aefac92780	13.970084988646477
43	0xc00f9cd6ddf773c0	-3.951581701387539
44	0x402b01c467d81d18	13.50345158112627
45	0xc00ea98ea27bd610	-3.8327915853540233
46	0xc0145656e56c61c0	-5.08431585763941
47	0xc003b406ae3cdd90	-2.4629033672642393
48	0xc0413b542c9a1c58	-34.463506293534635
49	0x400ee9d4011eee50	3.8641738975109448
50	0x400272e03a3e8600	2.306091742547096
51	0xbff4bd00b8f11500	-1.2961432670866202
52	0xc0438874855100c0	-39.06605593161794
53	0x40161527a9c372a0	5.520659115366158
54	0xc032a331092836e0	-18.637466976469
55	0x400ede08958f5560	3.858414810597125
56	0xc02f422c515ba680	-15.629244368016998
57	0x4000d6ee0ad0ec90	2.104946217060906
58	0x4023de766932d1e0	9.934497153714744
59	0xbff9e913e45f6c40	-1.619403736191785
60	0x403ee171806f3d38	30.880638148458473
61	0xc0015b7eb1008230	-2.1696752384453006
62	0xbfe560ecde140600	-0.6680816972222487
63	0x3ff7d95157c279c0	1.4905560901748771
64	0xc04cfb335c9cee48	-57.962504936815606
65	0x4019e2ea3e7b1768	6.4715966951970145
66	0x4032a331092836e0	18.637466976469
67	0xc00ede08958f5560	-3.858414810597125
68	0xc0219f5385f2bb40	-8.81118410671263
69	0x401179dda6243b50	4.369009586297423
70	0xc032dedefabd5990	-18.870589896419517
71	0x402103c652d82ad8	8.507372464072816
72	0x402dcbe5b7b52e98	14.898236981265015
73	0xbff879df65624100	-1.5297540626816613
74	0x4032dedefabd5990	18.870589896419517
75	0xc02103c652d82ad8	-8.507372464072816
76	0xc017e1a22cf5f600	-5.970345213424935
77	0x3fff85ccfe26ffc0	1.9701661994767932
78	0xc0378adde675a230	-23.542448428839805
79	0x4018d2ad7aa9adf0	6.205739895445262
80	0xbfd61445ed0a0a00	-0.3449873747669301
81	0xc008fd73ceb63c80	-3.1237560414661516
82	0xc02e521c47b6fff0	-15.16037201031574
83	0x3fff2278ccb3d7e0	1.9459159847442535
84	0xc02e1f9465dd0d50	-15.061679061159026
85	0x4021393ab1a200d0	8.611775923753527
86	0xc023de766932d1e0	-9.934497153714744
87	0x3ff9e913e45f6c40	1.619403736191785
88	0x403c8a5112b4c2b0	28.54029957688425
89	0xc00d9de8d1b2c060	-3.7021042235065096
90	0x3ff167b3c3ece940	1.0878179219567556
91	0x3fc92fd6bfcef200	0.19677242627757607
92	0x401bbb0ce4c1b780	6.932666372607741
93	0xc0008e586b26a060	-2.0695045825159895
94	0x4008eec457e53980	3.1165854327038574
95	0xbfcb697df8709c00	-0.21415686255315336
96	0xc0241c40a3c71180	-10.055180662203156
97	0xbfdbd3d4e0e05300	-0.434804172139863
98	0xc03c8a5112b4c2b0	-28.54029957688425
99	0x400d9de8d1b2c060	3.7021042235065096
100	0x40213e4876d4e4e0	8.62164660786442
101	0x3fe8ec184e755500	0.7788201839818214
102	0x40199fd7821d0bc0	6.406095536253758
103	0xbfe5d9daefb51b00	-0.6828436548028947
104	0x3fe560ecde140600	0.6680816972222487
105	0xbff7d95157c279c0	-1.4905560901748771
106	0x404110bf27c931fc	34.13083360027301
107	0xc04eb91503015c4a	-61.44595372740203
108	0x4017e1a22cf5f600	5.970345213424935
109	0xbfff85ccfe26ffc0	-1.9701661994767932
110	0xc01a97a6fcc3ee60	-6.648097943743409
111	0x400f21dc8d978140	3.8915339528904553
112	0x404624020abd7d94	44.281312315487554
113	0xbff2ecafc515f5c0	-1.1827848147071194
114	0xc040779ea213862c	-32.93452859834028
115	0x3ff572352c2b7920	1.3403827405341602
116	0xc031e89406049d40	-17.90850865948346
117	0x3ff72d653db94f00	1.4485828791702602
118	0x405ba2170688f1bf	110.53265536664456
119	0xc02b9dc7e3238afa	-13.808165643776636
120	0x3fe28204a1093c00	0.5783713479266908
121	0xc00c4f523f5f4b60	-3.5387310934979013
122	0xc0213e4876d4e4e0	-8.62164660786442
123	0xbfe8ec184e755500	-0.7788201839818214
124	0xc008eec457e53980	-3.1165854327038574
125	0x3fcb697df8709c00	0.21415686255315336
126	0xc03627f35838d588	-22.15605689418365
127	0xbfc7463c58484000	-0.18183092413573831
128	0x40378adde675a230	23.542448428839805
129	0xc018d2ad7aa9adf0	-6.205739895445262
130	0xc0199fd7821d0bc0	-6.406095536253758
131	0x3fe5d9daefb51b00	0.6828436548028947
132	0x405ff2702cd0b576	127.78809662229273
133	0xc020ef4fffa3e3b8	-8.46740721583943
134	0xc034c00e05560650	-20.750213941099275
135	0x3ff35ff6d48bc9d0	1.2109287550525671
136	0x404cfb335c9cee48	57.962504936815606
137	0xc019e2ea3e7b1768	-6.4715966951970145
138	0x401a97a6fcc3ee60	6.648097943743409
139	0xc00f21dc8d978140	-3.8915339528904553
140	0x3fd671dcc94f4a00	0.35069961222794177
141	0xc007c0fc8a004680	-2.969231680043606
142	0x3ff37f16e74a8000	1.2185277018361376
143	0x3ff4de403638ba00	1.3042604558974062
144	0x403a38164fedc3e0	26.219090457485322
145	0xbffd89a4288ecbc0	-1.8461038193024564
146	0x4037c30fb3558a50	23.76195832098375
147	0x3fddb1ebc47d5c80	0.46398443401762535
148	0x402a2c9c84de7dc0	13.087131645354816
149	0x3ff5c34b93574880	1.3601794963365421
150	0x4029327cf1f1b800	12.598609505421337
151	0xc01570fac05ff158	-5.3603315409239585
152	0xc01e8ed44d9aaf50	-7.639481747213566
153	0xc026b7df5a57d278	-11.359125922413327
154	0xc02e290cce0cad30	-15.080175818488527
155	0x400073625d4e4540	2.0563399590979827
156	0xbff28aff4628d900	-1.1589348545654161
157	0x3fe8990c1427ab40	0.768682517399931
158	0xc0314ec893a9fd2c	-17.30774805927392
159	0x40034fc4529bd460	2.413948674564878
160	0x401ee24c06827020	7.720993138991645
161	0xc0051ad6a10b0c80	-2.638104684972461
162	0xc04ab823f7340904	-53.43859758415968
163	0x4018e08881330280	6.219270724047078
164	0xc045c144a4efe84c	-43.50990735735158
165	0x400d2896f40b6b80	3.644819170568951
166	0x4031e89406049d40	17.90850865948346
167	0xbff72d653db94f00	-1.4485828791702602
168	0x4025c99599cf5360	10.893719488676368
169	0xc006e7cc59e0e170	-2.863182737517654
170	0x402f422c515ba680	15.629244368016998
171	0xc000d6ee0ad0ec90	-2.104946217060906
172	0xc03ce4afee8deb88	-28.89330950703473
173	0x4011e72a46de7da0	4.475747210817104
174	0x4035ed7cfc792188	21.927688388417238
175	0xbff66d777e83ee20	-1.4017252866750667
176	0xc01bbb0ce4c1b780	-6.932666372607741
177	0x40008e586b26a060	2.0695045825159895
178	0xc02bf0aefac92780	-13.970084988646477
179	0x400f9cd6ddf773c0	3.951581701387539
180	0x402e521c47b6fff0	15.16037201031574
181	0xbfff2278ccb3d7e0	-1.9459159847442535
182	0x40295d67b7f5c2f0	12.682431935072117
183	0x3fff75083b2e0280	1.966072302981189
184	0xbff37f16e74a8000	-1.2185277018361376
185	0xbff4de403638ba00	-1.3042604558974062
186	0xc03fded0a2c34b30	-31.87037102954781
187	0x401d73d94d229cd8	7.363133626210775
188	0xc03a38164fedc3e0	-26.219090457485322
189	0x3ffd89a4288ecbc0	1.8461038193024564
190	0x40260cb1f51b4f20	11.024795207580212
191	0xc0071c3a068f9e00	-2.888782550103997
192	0xc02b01c467d81d18	-13.50345158112627
193	0x400ea98ea27bd610	3.8327915853540233
194	0xc048ab0ac8db6ccc	-49.33626661981688
195	0x4018f18ea67913f0	6.235895730152137
196	0xc0341eb83077c3d8	-20.119998006095415
197	0x40294bd5b8fe58b0	12.648114949272298
198	0xc0260cb1f51b4f20	-11.024795207580212
199	0x40071c3a068f9e00	2.888782550103997
