GeologicalScience/VolcanicEruption/code/volcanoinference/distance_learning/cross-valid-results/epsilon_sensitivity_study/contrastive_batch32_epochs400_param_distancesepsilon_0.54.npy (npy, 1728 bytes, 1 tensors)

array f8 [100, 2]
0	0x4030c468233e40d0	16.767214014719514
1	0xc028a6ad92f5d720	-12.325543015012556
2	0xc03ebe6f15751678	-30.7438825045451
3	0x4031bbd9f478f690	17.733794478923812
4	0xc01ee24c06827020	-7.720993138991645
5	0x40051ad6a10b0c80	2.638104684972461
6	0x40151bfd97c8c5c0	5.277334567670039
7	0x40144e5b6ac58ba8	5.076520603472922
8	0x400b57fd026a1680	3.4179630459428267
9	0xc021cc0185fc92d8	-8.898449122506847
10	0x40438874855100c0	39.06605593161794
11	0xc0161527a9c372a0	-5.520659115366158
12	0x404ab880c364995c	53.44142954265655
13	0xc04058c1ff97bfb3	-32.693420361610514
14	0xc04624020abd7d94	-44.281312315487554
15	0x3ff2ecafc515f5c0	1.1827848147071194
16	0x40209af6cae435b0	8.302664127690917
17	0xc025a7cdf20cc478	-10.827743114527252
18	0xc04749348a383de0	-46.57191589113404
19	0x4030434482f997d0	16.262764154372974
20	0xc02d4d5dd6bd40e8	-14.651106558420409
21	0x4019d8cc41bf7eb0	6.461716677964134
22	0x404db0c3cbe83a68	59.38097523535981
23	0xc03feca79f4a1b0c	-31.924432712166023
24	0xbff7734031448f00	-1.4656373905681335
25	0xbfbdb800af9a6800	-0.1160889080732943
26	0xc021cbfbdcb499b8	-8.89840593056293
27	0x4043d09ee0f93ac9	39.6298485962812
28	0xc04a60d49f1b6440	-52.75648869359475
29	0x4010ba2e8abcf8b0	4.181818168434049
30	0xc04db0c3cbe83a68	-59.38097523535981
31	0x403feca79f4a1b0c	31.924432712166023
32	0x40241c40a3c71180	10.055180662203156
33	0x3fdbd3d4e0e05300	0.434804172139863
34	0x4048ab0ac8db6ccc	49.33626661981688
35	0xc018f18ea67913f0	-6.235895730152137
36	0xc0430e3dbfee3758	-38.111259452167985
37	0x40301f7261b196c4	16.122839074951813
38	0x3ff28aff4628d900	1.1589348545654161
39	0xbfe8990c1427ab40	-0.768682517399931
40	0x40370149a2004638	23.00502979761788
41	0xc020038ce7640b28	-8.006934386217452
42	0x402bf0aefac92780	13.970084988646477
43	0xc00f9cd6ddf773c0	-3.951581701387539
44	0xc02893b6e9ac64e0	-12.288504888815112
45	0x3fe1ecb5a858af80	0.5601452148452921
46	0xc027b816f924f3a0	-11.859550271759701
47	0xc0212a588130378c	-8.582706486831533
48	0xc02b43f81cbe85c0	-13.63275232148851
49	0xc0270fb0995d19d8	-11.530644219031203
50	0x40430e3dbfee3758	38.111259452167985
51	0xc0301f7261b196c4	-16.122839074951813
52	0xc0438874855100c0	-39.06605593161794
53	0x40161527a9c372a0	5.520659115366158
54	0xc032a331092836e0	-18.637466976469
55	0x400ede08958f5560	3.858414810597125
56	0xc02f422c515ba680	-15.629244368016998
57	0x4000d6ee0ad0ec90	2.104946217060906
58	0xc0123ff9bdeed180	-4.562476127339664
59	0x40197ce0bd7b80a0	6.371951065695754
60	0xc0370149a2004638	-23.00502979761788
61	0x4020038ce7640b28	8.006934386217452
62	0x40219f5385f2bb40	8.81118410671263
63	0xc01179dda6243b50	-4.369009586297423
64	0x40314ec893a9fd2c	17.30774805927392
65	0xc0034fc4529bd460	-2.413948674564878
66	0x4032a331092836e0	18.637466976469
67	0xc00ede08958f5560	-3.858414810597125
68	0xc0219f5385f2bb40	-8.81118410671263
69	0x401179dda6243b50	4.369009586297423
70	0xc032dedefabd5990	-18.870589896419517
71	0x402103c652d82ad8	8.507372464072816
72	0x40171fcfa4d2f340	5.781065535903338
73	0xc034d84b4caca6b4	-20.844898979331177
74	0x402fcfdacf1a50e0	15.905966255152123
75	0xbffc7398abe42040	-1.7782217707154047
76	0xc017e1a22cf5f600	-5.970345213424935
77	0x3fff85ccfe26ffc0	1.9701661994767932
78	0xc030c468233e40d0	-16.767214014719514
79	0x4028a6ad92f5d720	12.325543015012556
80	0xc03106862941a3a8	-17.025484636807647
81	0x403aad646928cbb2	26.677313396892437
82	0xc037718bfd7ce9d0	-23.443542330738467
83	0x401fe4610231fc68	7.973026308346654
84	0xc01b093b35f1af40	-6.759014933468109
85	0xc001ba4d01ab0ea0	-2.215967190773725
86	0x40300025c6a421c0	16.0005764151299
87	0xc03232aa4b49ff0c	-18.197910981717584
88	0x4007375969f42980	2.9020260121953356
89	0x4013c1353c8c2790	4.938679643682818
90	0x4018b8faa1d087c0	6.180643585541418
91	0x401704cfa0852d00	5.754698284271626
92	0x401bbb0ce4c1b780	6.932666372607741
93	0xc0008e586b26a060	-2.0695045825159895
94	0x4031c487765b47a4	17.767691991124266
95	0xc01ab41831830390	-6.675873540517287
96	0xc0241c40a3c71180	-10.055180662203156
97	0xbfdbd3d4e0e05300	-0.434804172139863
98	0x4032238380b65d60	18.13872532322182
99	0xc0210f928ed238d0	-8.530415023004394
100	0x40213e4876d4e4e0	8.62164660786442
101	0x3fe8ec184e755500	0.7788201839818214
102	0x40199fd7821d0bc0	6.406095536253758
103	0xbfe5d9daefb51b00	-0.6828436548028947
104	0xc02fcfdacf1a50e0	-15.905966255152123
105	0x3ffc7398abe42040	1.7782217707154047
106	0xc0135645aa76cc20	-4.834250129223648
107	0xc0439636006e658c	-39.173523000626204
108	0x4017e1a22cf5f600	5.970345213424935
109	0xbfff85ccfe26ffc0	-1.9701661994767932
110	0xc041951216a5e0ec	-35.16461451625386
111	0x403ab7612aa32fc0	26.716326393928966
112	0x404624020abd7d94	44.281312315487554
113	0xbff2ecafc515f5c0	-1.1827848147071194
114	0xc0326c1e7c3d2568	-18.422340168884517
115	0xc002f870bca08740	-2.3713087784280162
116	0xc027565771d61410	-11.66863589990865
117	0x400940213d6b1c60	3.156313400107635
118	0x4034c00e05560650	20.750213941099275
119	0xbff35ff6d48bc9d0	-1.2109287550525671
120	0xc0209af6cae435b0	-8.302664127690917
121	0x4025a7cdf20cc478	10.827743114527252
122	0xc0213e4876d4e4e0	-8.62164660786442
123	0xbfe8ec184e755500	-0.7788201839818214
124	0x4012baa09295b4a0	4.682253160846045
125	0x401ed4fa0c0b3860	7.707985103783443
126	0xbff2fc8afc846100	-1.186655985255186
127	0x4014a46dfc8eb220	5.160575815400563
128	0x4027b816f924f3a0	11.859550271759701
129	0x40212a588130378c	8.582706486831533
130	0xc0199fd7821d0bc0	-6.406095536253758
131	0x3fe5d9daefb51b00	0.6828436548028947
132	0x4052c26b15772800	75.03778587948182
133	0xc02247de7803d054	-9.140369177308607
134	0xc034c00e05560650	-20.750213941099275
135	0x3ff35ff6d48bc9d0	1.2109287550525671
136	0x403e537516578650	30.32600536000092
137	0xc0128df68f529a78	-4.638635863701545
138	0xc032238380b65d60	-18.13872532322182
139	0x40210f928ed238d0	8.530415023004394
140	0xc0171fcfa4d2f340	-5.781065535903338
141	0x4034d84b4caca6b4	20.844898979331177
142	0x3ff37f16e74a8000	1.2185277018361376
143	0x3ff4de403638ba00	1.3042604558974062
144	0x4053be6fe3892318	78.97557915108007
145	0xc0181c9794e0aba0	-6.027921987736505
146	0x404600038df7fe08	44.00010847672462
147	0xc025d36c4ab951b0	-10.912935576555213
148	0x3ff2fc8afc846100	1.186655985255186
149	0xc014a46dfc8eb220	-5.160575815400563
150	0x403bbf012d2c0780	27.746111701249447
151	0x40040a966b540780	2.50516971445262
152	0x4021cbfbdcb499b8	8.89840593056293
153	0xc043d09ee0f93ac9	-39.6298485962812
154	0xc03303d53cd7a958	-19.014972498561605
155	0x40230a309d074dcc	9.5199021407524
156	0xbff28aff4628d900	-1.1589348545654161
157	0x3fe8990c1427ab40	0.768682517399931
158	0xc04c6c8868535a2a	-56.84791282720501
159	0x40268382630ca29c	11.256854148189909
160	0x401ee24c06827020	7.720993138991645
161	0xc0051ad6a10b0c80	-2.638104684972461
162	0xc037ae0e454b1e18	-23.679905253257033
163	0xc02357ab159d93b4	-9.671227145657987
164	0x4038f5fb7724baa0	24.960868307559053
165	0xc02e516373bb4d28	-15.15896188413042
166	0x4025e8ba1d9b7e20	10.954544949751892
167	0x3ffb9b628c01d680	1.7254357785253944
168	0x402893b6e9ac64e0	12.288504888815112
169	0xbfe1ecb5a858af80	-0.5601452148452921
170	0x402f422c515ba680	15.629244368016998
171	0xc000d6ee0ad0ec90	-2.104946217060906
172	0xc047f44295b2ca70	-47.908282005596334
173	0x402bfdc5c0768c9c	13.995649351569504
174	0x404ca9ff3e839ae0	57.32810193468117
175	0xc0403a3691c10ecb	-32.45479032446527
176	0xc032371872dfa520	-18.21521680793842
177	0xc01c336dd2540700	-7.050223623636839
178	0xc02bf0aefac92780	-13.970084988646477
179	0x400f9cd6ddf773c0	3.951581701387539
180	0x402c03f8298c56b0	14.007752703076534
181	0xc01ce9c8b33380b8	-7.228304672258837
182	0x40295d67b7f5c2f0	12.682431935072117
183	0x3fff75083b2e0280	1.966072302981189
184	0xbff37f16e74a8000	-1.2185277018361376
185	0xbff4de403638ba00	-1.3042604558974062
186	0x4047f44295b2ca70	47.908282005596334
187	0xc02bfdc5c0768c9c	-13.995649351569504
188	0x404a60d49f1b6440	52.75648869359475
189	0xc010ba2e8abcf8b0	-4.181818168434049
190	0x40260cb1f51b4f20	11.024795207580212
191	0xc0071c3a068f9e00	-2.888782550103997
192	0x4034f5c625482a24	20.960054712408365
193	0xbfa01157a8c61000	-0.031382312156921444
194	0xc048ab0ac8db6ccc	-49.33626661981688
195	0x4018f18ea67913f0	6.235895730152137
196	0xc0159cfc54f59560	-5.403306319703319
197	0x3fed33e13aec8c00	0.9125829840526194
198	0xc00b57fd026a1680	-3.4179630459428267
199	0x4021cc0185fc92d8	8.898449122506847
