GeologicalScience/VolcanicEruption/code/volcanoinference/distance_learning/cross-valid-results/epsilon_sensitivity_study/contrastive_batch32_epochs400_param_distancesepsilon_0.04.npy (npy, 1728 bytes, 1 tensors)

array f8 [100, 2]
00000000: c061 6ce5 5656 1440 90dd 3cae 06b4 0340
00000010: e0d4 73f0 0bee 2b40 602e 812f 258b f8bf
00000020: e028 7fa8 81c6 1b40 4064 1274 eee1 f23f
00000030: 8045 1df0 750f 0f40 c061 c0e5 1730 0640
00000040: a0aa 2710 b93f 2440 e06e dc3d c916 15c0
00000050: c000 5185 7488 4340 a072 c3a9 2715 16c0
00000060: 3e29 ba07 0ef4 52c0 78a9 7483 1b28 2740
00000070: 947d bd0a 0224 46c0 c0f5 15c5 afec f23f
00000080: a0b4 9592 a0ba 12c0 6038 0b0c fad4 1ec0
00000090: 7ca8 2aca 4efb 51c0 186d cf3a 49a2 2740
000000a0: 40e9 ecc3 b367 f1bf 00f2 cebf d62f c9bf
000000b0: 481a 60ad 3e36 4b40 6c59 54d3 0820 20c0
000000c0: e0d4 73f0 0bee 2bc0 602e 812f 258b f83f
000000d0: c0c1 8e09 c971 30c0 c04a 4e77 3103 1fc0
000000e0: 4064 1b9f d460 4ac0 b0f8 bc8a 2eba 1040
000000f0: 606e 7216 21a6 2040 1093 d1cc c2b9 13c0
00000100: 8011 c7a3 401c 2440 0053 e0e0 d4d3 db3f
00000110: cc6c dbc8 0aab 4840 f013 79a6 8ef1 18c0
00000120: 30ad 0cce 0c29 2e40 4045 4e5d 6273 00c0
00000130: 00d9 2846 ff8a f23f 40ab 2714 0c99 e8bf
00000140: 288f 14a5 7d78 3840 b0ac 09cc 3990 1fc0
00000150: 8027 c9fa aef0 2b40 c073 f7dd d69c 0fc0
00000160: e064 ace9 b693 28c0 80af 58a8 b5ec e13f
00000170: c061 6ce5 5656 14c0 90dd 3cae 06b4 03c0
00000180: b860 9180 dced 41c0 8071 a822 6afa f83f
00000190: f465 610e 304b 4740 6085 033f d8d4 03c0
000001a0: c000 5185 7488 43c0 a072 c3a9 2715 1640
000001b0: e036 2809 31a3 32c0 6055 8f95 08de 0e40
000001c0: 0006 69f4 b603 2840 8095 ff63 3568 d13f
000001d0: e0d1 3269 76de 2340 406c 5fe4 13e9 f9bf
000001e0: e0b3 3c4f 6377 46c0 ec88 34d7 3bd1 2240
000001f0: 40bb f285 539f 2140 503b 24a6 dd79 11c0
00000200: 2cfd a993 c84e 3140 60d4 9b52 c44f 03c0
00000210: 88d5 3858 f327 3640 0040 4858 3c46 c73f
00000220: 40bb f285 539f 21c0 503b 24a6 dd79 1140
00000230: 1071 2b8c 271a 32c0 c0e6 3708 2425 0940
00000240: 982e b5b7 e5cb 2d40 0041 6265 df79 f8bf
00000250: e050 1acf dacf 2f40 4020 e4ab 9873 fcbf
00000260: 606e 7216 21a6 20c0 1093 d1cc c2b9 1340
00000270: 30a2 75e6 dd8a 37c0 f0ad a97a add2 1840
00000280: 004a 4fc9 dc71 d6bf 8046 008a fcc0 0740
00000290: f0ff b647 1c52 2ec0 e0d7 b3cc 7822 ff3f
000002a0: 6095 f554 fc9c 1540 008c ec3a e133 edbf
000002b0: e0d1 3269 76de 23c0 406c 5fe4 13e9 f93f
000002c0: b0c2 b412 518a 3c40 60c0 b2d1 e89d 0dc0
000002d0: 40e9 ecc3 b367 f13f 00f2 cebf d62f c93f
000002e0: 80b7 c1e4 0cbb 1b40 60a0 266b 588e 00c0
000002f0: 8039 e557 c4ee 0840 009c 70f8 7d69 cbbf
00000300: 8011 c7a3 401c 24c0 0053 e0e0 d4d3 dbbf
00000310: b0c2 b412 518a 3cc0 60c0 b2d1 e89d 0d40
00000320: e0e4 d476 483e 2140 0055 754e 18ec e83f
00000330: c00b 1d82 d79f 1940 001b b5ef dad9 e5bf
00000340: e050 1acf dacf 2fc0 4020 e4ab 9873 fc3f
00000350: 3c13 d523 3a48 43c0 baf4 1a60 e321 46c0
00000360: a076 fb92 8a11 2840 606b 99a4 7d58 18c0
00000370: 60ee c3fc a697 1ac0 4081 978d dc21 0f40
00000380: 947d bd0a 0224 4640 c0f5 15c5 afec f2bf
00000390: 2c86 13a2 9e77 40c0 2079 2b2c 3572 f53f
000003a0: 1014 d671 5756 27c0 601c 6b3d 2140 0940
000003b0: bff1 8806 17a2 5b40 fa8a 23e3 c79d 2bc0
000003c0: 4087 7114 b6a8 fa3f 405c 62d3 54bc 0ac0
000003d0: e0e4 d476 483e 21c0 0055 754e 18ec e8bf
000003e0: 8039 e557 c4ee 08c0 009c 70f8 7d69 cb3f
000003f0: 88d5 3858 f327 36c0 0040 4858 3c46 c7bf
00000400: 30a2 75e6 dd8a 3740 f0ad a97a add2 18c0
00000410: 1071 2b8c 271a 3240 c0e6 3708 2425 09c0
00000420: fcbb 858d 9d6e 6140 d0aa fe4e 583f 27c0
00000430: 2c86 13a2 9e77 4040 2079 2b2c 3572 f5bf
00000440: 5086 5716 7553 3e40 789a 528f f68d 12c0
00000450: 60ee c3fc a697 1a40 4081 978d dc21 0fc0
00000460: 004a 4fc9 dc71 d63f 8046 008a fcc0 07c0
00000470: 0080 4ae7 167f f33f 00ba 3836 40de f43f
00000480: 1823 89e3 6fbe 5340 a0ab e094 971c 18c0
00000490: 4ce8 efa4 44c1 4540 806b 0bf4 9628 0dc0
000004a0: 0061 84fc 8afc f23f 20b2 8efc 6da4 14c0
000004b0: 3858 68ca 7cad 4cc0 90d8 b240 012e 0d40
000004c0: a9fc ea47 db36 56c0 c002 98e8 23a7 d33f
000004d0: 30ad 0cce 0c29 2ec0 4045 4e5d 6273 0040
000004e0: 00d9 2846 ff8a f2bf 40ab 2714 0c99 e83f
000004f0: 2cfd a993 c84e 31c0 60d4 9b52 c44f 0340
00000500: 2070 8206 4ce2 1e40 800c 0ba1 d61a 05c0
00000510: 4846 8a96 79bf 3340 888b 4d36 6a6f 10c0
00000520: 4ce8 efa4 44c1 45c0 806b 0bf4 9628 0d40
00000530: 409d 0406 94e8 3140 004f b93d 652d f7bf
00000540: fc40 c2a8 bdca 3940 f800 4906 5e92 11c0
00000550: 4056 e2a2 f1a2 3b40 c0f3 a1bc ce53 fdbf
00000560: 58cb 8a35 fe3d 4140 c0e2 c611 667f 09c0
00000570: e0b3 3c4f 6377 4640 ec88 34d7 3bd1 22c0
00000580: 80b7 c1e4 0cbb 1bc0 60a0 266b 588e 0040
00000590: 8027 c9fa aef0 2bc0 c073 f7dd d69c 0f40
000005a0: f0ff b647 1c52 2e40 e0d7 b3cc 7822 ffbf
000005b0: 80a6 c686 eb54 00c0 00ae 78d0 4ac6 0ac0
000005c0: 0080 4ae7 167f f3bf 00ba 3836 40de f4bf
000005d0: 4042 33ae 67d0 2540 a087 365c 8b92 f1bf
000005e0: 4064 1b9f d460 4a40 b0f8 bc8a 2eba 10c0
000005f0: 204f 1bf5 b10c 2640 009e 8f06 3a1c 07c0
00000600: fc40 c2a8 bdca 39c0 f800 4906 5e92 1140
00000610: cc6c dbc8 0aab 48c0 f013 79a6 8ef1 1840
00000620: 6095 f554 fc9c 15c0 008c ec3a e133 ed3f
00000630: 204f 1bf5 b10c 26c0 009e 8f06 3a1c 0740
5.08431585763941 2.4629033672642393 13.964934839381783 -1.5339710097931842 6.943853981744013 1.1801590475136123 3.8825491675312946 2.7734830808005597
10.124458794443228 -5.272252050952119 39.06605593161794 -5.520659115366158 -75.81335633449359 11.57833491133782 -44.281312315487554 1.1827848147071194
-4.682253160846045 -7.707985103783443 -71.92668394246897 11.816964948483061 -1.0878179219567556 -0.19677242627757607 54.42378775780213 -8.062567333265825
-13.964934839381783 1.5339710097931842 -16.44447383628153 -7.753118385461391 -52.75648869359475 4.181818168434049 8.324471188992163 -4.931407165805254
10.055180662203156 0.434804172139863 49.33626661981688 -6.235895730152137 15.080175818488527 -2.0563399590979827 1.1589348545654161 -0.768682517399931
24.470667188186013 -7.890845478144158 13.970084988646477 -3.951581701387539 -12.288504888815112 0.5601452148452921 -5.08431585763941 -2.4629033672642393
-35.85829169367338 1.5611363748385827 46.58740405803465 -2.4789280817937396 -39.06605593161794 5.520659115366158 -18.637466976469 3.858414810597125
12.007255208797687 0.2719853855654364 9.934497153714744 -1.619403736191785 -44.93271818603512 9.408659672892519 8.81118410671263 -4.369009586297423
17.30774805927392 -2.413948674564878 22.15605689418365 0.18183092413573831 -8.81118410671263 4.369009586297423 -18.102165947538253 3.14313513203237
14.898236981265015 -1.5297540626816613 15.905966255152123 -1.7782217707154047 -8.324471188992163 4.931407165805254 -23.542448428839805 6.205739895445262
-0.35069961222794177 2.969231680043606 -15.16037201031574 1.9459159847442535 5.403306319703319 -0.9125829840526194 -9.934497153714744 1.619403736191785
28.54029957688425 -3.7021042235065096 1.0878179219567556 0.19677242627757607 6.932666372607741 -2.0695045825159895 3.1165854327038574 -0.21415686255315336
-10.055180662203156 -0.434804172139863 -28.54029957688425 3.7021042235065096 8.62164660786442 0.7788201839818214 6.406095536253758 -0.6828436548028947
-15.905966255152123 1.7782217707154047 -38.564274291077226 -44.26475144687852 12.034260361858571 -6.086416789878825 -6.648097943743409 3.8915339528904553
44.281312315487554 -1.1827848147071194 -32.93452859834028 1.3403827405341602 -11.66863589990865 3.156313400107635 110.53265536664456 -13.808165643776636
1.6661892698834464 -3.341958667220325 -8.62164660786442 -0.7788201839818214 -3.1165854327038574 0.21415686255315336 -22.15605689418365 -0.18183092413573831
23.542448428839805 -6.205739895445262 18.102165947538253 -3.14313513203237 139.45673252220138 -11.623720615947065 32.93452859834028 -1.3403827405341602
30.32600536000092 -4.638635863701545 6.648097943743409 -3.8915339528904553 0.35069961222794177 -2.969231680043606 1.2185277018361376 1.3042604558974062
78.97557915108007 -6.027921987736505 43.50990735735158 -3.644819170568951 1.186655985255186 -5.160575815400563 -57.35537080855323 3.647463326890893
-88.85713384578652 0.3070764323638677 -15.080175818488527 2.0563399590979827 -1.1589348545654161 0.768682517399931 -17.30774805927392 2.413948674564878
7.720993138991645 -2.638104684972461 19.747949036367828 -4.108803604586576 -43.50990735735158 3.644819170568951 17.90850865948346 -1.4485828791702602
25.791956469941383 -4.392936800199315 27.636499576814685 -1.8329608314954697 34.484320347567234 -3.187206400758754 44.93271818603512 -9.408659672892519
-6.932666372607741 2.0695045825159895 -13.970084988646477 3.951581701387539 15.16037201031574 -1.9459159847442535 -2.041464856087998 -3.3468223845318334
-1.2185277018361376 -1.3042604558974062 10.907041019208123 -1.0982774355002007 52.75648869359475 -4.181818168434049 11.024795207580212 -2.888782550103997
-25.791956469941383 4.392936800199315 -49.33626661981688 6.235895730152137 -5.403306319703319 0.9125829840526194 -11.024795207580212 2.888782550103997
