GeologicalScience/VolcanicEruption/code/volcanoinference/distance_learning/cross-valid-results/epsilon_sensitivity_study/contrastive_batch32_epochs400_param_distancesepsilon_0.30.npy (npy, 1728 bytes, 1 tensors)

array f8 [100, 2]
000000 c0 61 6c e5 56 56 14 40 90 dd 3c ae 06 b4 03 40
       5.08431585763941 2.4629033672642393
000010 48 1a 60 ad 3e 36 4b c0 6c 59 54 d3 08 20 20 40
       -54.42378775780213 8.062567333265825
000020 e0 88 ac ee bb e6 16 40 00 5c 65 22 1c c5 bf bf
       5.7253262799078755 -0.12410140838379391
000030 fc 3f de 99 e1 c7 32 40 80 82 1e 66 50 e6 f3 3f
       18.78078614879631 1.2437290181188985
000040 f0 e6 80 a7 10 af 43 c0 30 1c 81 20 95 8b 23 c0
       -39.36769574922607 -9.772622123489867
000050 c0 00 51 85 74 88 43 40 a0 72 c3 a9 27 15 16 c0
       39.06605593161794 -5.520659115366158
000060 38 3d 6f 80 71 e1 3e c0 30 82 00 b1 7e 5b 01 40
       -30.880638148458473 2.1696752384453006
000070 94 7d bd 0a 02 24 46 c0 c0 f5 15 c5 af ec f2 3f
       -44.281312315487554 1.1827848147071194
000080 60 51 88 be 02 32 1f c0 80 b3 47 1c ae f9 1d c0
       -7.7988385935499025 -7.49382824123029
000090 fc 31 c9 27 bf 10 41 c0 4a 5c 01 03 15 b9 4e 40
       -34.13083360027301 61.44595372740203
0000a0 40 87 71 14 b6 a8 fa bf 40 5c 62 d3 54 bc 0a 40
       -1.6661892698834464 3.341958667220325
0000b0 48 1a 60 ad 3e 36 4b 40 6c 59 54 d3 08 20 20 c0
       54.42378775780213 -8.062567333265825
0000c0 40 2b ae fe 31 63 3f c0 c0 f1 ac 6e 1b 68 0a c0
       -31.387481610795703 -3.3008335730102942
0000d0 98 84 69 96 01 18 30 c0 00 37 27 de d7 71 25 c0
       -16.09377422405359 -10.722350065504997
0000e0 58 7a bc 9f 77 89 39 c0 00 dc 4a 8a 1d 7e c8 bf
       -25.53698156692039 -0.19134873631057303
0000f0 a0 f1 4d 25 0b cd 27 c0 40 84 64 e1 40 15 1a c0
       -11.90047566009963 -6.520755311737105
000100 c0 0f 0a 91 c9 c1 20 c0 a0 fe 86 cb 26 5c 15 c0
       -8.378490955808843 -5.339991741289538
000110 cc 6c db c8 0a ab 48 40 f0 13 79 a6 8e f1 18 c0
       49.33626661981688 -6.235895730152137
000120 68 bb 43 6f c6 66 43 c0 80 47 95 cf 2e ab e1 3f
       -38.802930744240086 0.5521463446004731
000130 00 d9 28 46 ff 8a f2 3f 40 ab 27 14 0c 99 e8 bf
       1.1589348545654161 -0.768682517399931
000140 ec c7 f2 d6 82 f5 45 c0 00 47 fd 99 84 4a fb 3f
       -43.9180554089979 1.7056928649148517
000150 80 27 c9 fa ae f0 2b 40 c0 73 f7 dd d6 9c 0f c0
       13.970084988646477 -3.951581701387539
000160 e0 64 ac e9 b6 93 28 c0 80 af 58 a8 b5 ec e1 3f
       -12.288504888815112 0.5601452148452921
000170 60 e3 ce 3b f4 55 26 c0 08 43 73 aa b2 f3 1b 40
       -11.1678789796876 6.987986243519806
000180 24 2a 48 25 c6 f5 34 c0 00 10 c6 a8 57 11 a0 3f
       -20.960054712408365 0.031382312156921444
000190 60 e3 ce 3b f4 55 26 40 08 43 73 aa b2 f3 1b c0
       11.1678789796876 -6.987986243519806
0001a0 c0 00 51 85 74 88 43 c0 a0 72 c3 a9 27 15 16 40
       -39.06605593161794 5.520659115366158
0001b0 00 3e 2c e6 d5 74 d2 bf 70 31 60 d5 2c 76 12 40
       -0.28838107564749293 4.615405401226198
0001c0 80 a6 5b 51 2c 42 2f c0 90 ec d0 0a ee d6 00 40
       -15.629244368016998 2.104946217060906
0001d0 48 89 47 29 7c f8 48 c0 60 f6 ab f2 03 36 2a c0
       -49.941289100580036 -13.10549887036467
0001e0 38 3d 6f 80 71 e1 3e 40 30 82 00 b1 7e 5b 01 c0
       30.880638148458473 -2.1696752384453006
0001f0 20 8c 9c 68 29 19 23 40 80 92 39 eb 7e cd 02 40
       9.549144047841821 2.350339734739748
000200 94 5b 7e 1e 24 c5 43 c0 84 ad 65 4e 91 af 21 40
       -39.54016476793109 8.84290547362503
000210 00 68 96 f8 83 f1 06 40 60 9c 68 62 7f 2e 16 40
       2.8679274960422845 5.545407807955684
000220 40 bb f2 85 53 9f 21 c0 50 3b 24 a6 dd 79 11 40
       -8.81118410671263 4.369009586297423
000230 90 59 bd fa de de 32 c0 d8 2a d8 52 c6 03 21 40
       -18.870589896419517 8.507372464072816
000240 60 53 cf 99 95 c9 25 c0 70 e1 e0 59 cc e7 06 40
       -10.893719488676368 2.863182737517654
000250 e0 50 1a cf da cf 2f 40 40 20 e4 ab 98 73 fc bf
       15.905966255152123 -1.7782217707154047
000260 00 f6 f5 2c a2 e1 17 c0 c0 ff 26 fe cc 85 ff 3f
       -5.970345213424935 1.9701661994767932
000270 38 2b 18 5f 35 57 3e 40 c0 c4 1f e4 2c c7 0c 40
       30.34065813388881 3.5972535917468065
000280 00 4a 4f c9 dc 71 d6 bf 80 46 00 8a fc c0 07 40
       -0.35069961222794177 2.969231680043606
000290 40 32 e1 dd df 23 16 c0 a8 a8 c3 b2 07 19 1a 40
       -5.5350336712550074 6.524443429176394
0002a0 60 95 f5 54 fc 9c 15 40 00 8c ec 3a e1 33 ed bf
       5.403306319703319 -0.9125829840526194
0002b0 a0 3b f3 a8 29 dc 3e 40 10 2d 13 8a b1 65 12 c0
       30.86001068056396 -4.599310071392452
0002c0 b0 c2 b4 12 51 8a 3c 40 60 c0 b2 d1 e8 9d 0d c0
       28.54029957688425 -3.7021042235065096
0002d0 40 e9 ec c3 b3 67 f1 3f 00 f2 ce bf d6 2f c9 3f
       1.0878179219567556 0.19677242627757607
0002e0 80 b7 c1 e4 0c bb 1b 40 60 a0 26 6b 58 8e 00 c0
       6.932666372607741 -2.0695045825159895
0002f0 80 39 e5 57 c4 ee 08 40 00 9c 70 f8 7d 69 cb bf
       3.1165854327038574 -0.21415686255315336
000300 80 11 c7 a3 40 1c 24 c0 00 53 e0 e0 d4 d3 db bf
       -10.055180662203156 -0.434804172139863
000310 b0 c2 b4 12 51 8a 3c c0 60 c0 b2 d1 e8 9d 0d 40
       -28.54029957688425 3.7021042235065096
000320 e0 e4 d4 76 48 3e 21 40 00 55 75 4e 18 ec e8 3f
       8.62164660786442 0.7788201839818214
000330 c0 0b 1d 82 d7 9f 19 40 00 1b b5 ef da d9 e5 bf
       6.406095536253758 -0.6828436548028947
000340 e0 50 1a cf da cf 2f c0 40 20 e4 ab 98 73 fc 3f
       -15.905966255152123 1.7782217707154047
000350 fc 31 c9 27 bf 10 41 40 4a 5c 01 03 15 b9 4e c0
       34.13083360027301 -61.44595372740203
000360 00 f6 f5 2c a2 e1 17 40 c0 ff 26 fe cc 85 ff bf
       5.970345213424935 -1.9701661994767932
000370 60 ee c3 fc a6 97 1a c0 40 81 97 8d dc 21 0f 40
       -6.648097943743409 3.8915339528904553
000380 94 7d bd 0a 02 24 46 40 c0 f5 15 c5 af ec f2 bf
       44.281312315487554 -1.1827848147071194
000390 94 5b 7e 1e 24 c5 43 40 84 ad 65 4e 91 af 21 c0
       39.54016476793109 -8.84290547362503
0003a0 40 32 e1 dd df 23 16 40 a8 a8 c3 b2 07 19 1a c0
       5.5350336712550074 -6.524443429176394
0003b0 50 06 56 05 0e c0 34 40 d0 c9 8b d4 f6 5f f3 bf
       20.750213941099275 -1.2109287550525671
0003c0 40 87 71 14 b6 a8 fa 3f 40 5c 62 d3 54 bc 0a c0
       1.6661892698834464 -3.341958667220325
0003d0 00 dc bf 37 f3 20 1a c0 80 a1 dc 51 02 b0 15 40
       -6.532177802167098 5.421883849230994
0003e0 80 39 e5 57 c4 ee 08 c0 00 9c 70 f8 7d 69 cb 3f
       -3.1165854327038574 0.21415686255315336
0003f0 00 7d 4a 35 ad 74 0e c0 00 26 b2 3e b5 67 e2 3f
       -3.8069709933621425 0.5751596664933345
000400 68 bb 43 6f c6 66 43 40 80 47 95 cf 2e ab e1 bf
       38.802930744240086 -0.5521463446004731
000410 c0 0b 1d 82 d7 9f 19 c0 00 1b b5 ef da d9 e5 3f
       -6.406095536253758 0.6828436548028947
000420 d4 12 10 5b 1a c0 48 40 c4 fb 2c ee d6 a9 22 c0
       49.50080431256143 -9.33171791361918
000430 50 06 56 05 0e c0 34 c0 d0 c9 8b d4 f6 5f f3 3f
       -20.750213941099275 1.2109287550525671
000440 c8 ac 82 9f 45 fa 46 40 c0 10 bb 94 6d f9 1a c0
       45.95524972801792 -6.743582080762451
000450 60 ee c3 fc a6 97 1a 40 40 81 97 8d dc 21 0f c0
       6.648097943743409 -3.8915339528904553
000460 00 4a 1a 9f 73 d3 1a c0 a0 6d 39 9c 73 02 0d c0
       -6.7064957485004015 -3.626197071554728
000470 00 80 4a e7 16 7f f3 3f 00 ba 38 36 40 de f4 3f
       1.2185277018361376 1.3042604558974062
000480 e0 c3 ed 4f 16 38 3a 40 c0 cb 8e 28 a4 89 fd bf
       26.219090457485322 -1.8461038193024564
000490 58 9b ca 02 25 bd 39 c0 a8 e6 50 4c 66 97 23 40
       -25.738845991577676 9.795702347636805
0004a0 00 61 84 fc 8a fc f2 3f 20 b2 8e fc 6d a4 14 c0
       1.186655985255186 -5.160575815400563
0004b0 c0 1f 15 57 7d 7e 04 c0 c0 f6 65 1a b9 50 0b c0
       -2.5617625048944035 -3.414415556179705
0004c0 38 18 d1 10 69 d9 29 40 b5 9e c2 46 0a 80 4f c0
       12.924629712604755 -63.000313611058495
0004d0 70 10 7c cb 42 37 20 c0 d8 7c 80 31 df d7 20 40
       -8.107931479353482 8.4216247052522
0004e0 00 d9 28 46 ff 8a f2 bf 40 ab 27 14 0c 99 e8 3f
       -1.1589348545654161 0.768682517399931
0004f0 2c fd a9 93 c8 4e 31 c0 60 d4 9b 52 c4 4f 03 40
       -17.30774805927392 2.413948674564878
000500 40 fd e5 6d 16 e8 26 c0 70 94 ea d0 4d 2e 10 40
       -11.453296121907101 4.045218719785325
000510 58 7a bc 9f 77 89 39 40 00 dc 4a 8a 1d 7e c8 3f
       25.53698156692039 0.19134873631057303
000520 00 46 b0 77 6c 20 12 40 28 a2 5c 86 a6 97 10 40
       4.531663770803334 4.148096179393669
000530 40 9d 04 06 94 e8 31 40 00 4f b9 3d 65 2d f7 bf
       17.90850865948346 -1.4485828791702602
000540 60 53 cf 99 95 c9 25 40 70 e1 e0 59 cc e7 06 c0
       10.893719488676368 -2.863182737517654
000550 80 a6 5b 51 2c 42 2f 40 90 ec d0 0a ee d6 00 c0
       15.629244368016998 -2.104946217060906
000560 40 2b ae fe 31 63 3f 40 c0 f1 ac 6e 1b 68 0a 40
       31.387481610795703 3.3008335730102942
000570 88 21 79 fc 7c ed 35 40 20 ee 83 7e 77 6d f6 bf
       21.927688388417238 -1.4017252866750667
000580 40 fd e5 6d 16 e8 26 40 70 94 ea d0 4d 2e 10 c0
       11.453296121907101 -4.045218719785325
000590 80 27 c9 fa ae f0 2b c0 c0 73 f7 dd d6 9c 0f 40
       -13.970084988646477 3.951581701387539
0005a0 c0 1f 15 57 7d 7e 04 40 c0 f6 65 1a b9 50 0b 40
       2.5617625048944035 3.414415556179705
0005b0 f0 c2 f5 b7 67 5d 29 40 80 02 2e 3b 08 75 ff 3f
       12.682431935072117 1.966072302981189
0005c0 00 80 4a e7 16 7f f3 bf 00 ba 38 36 40 de f4 bf
       -1.2185277018361376 -1.3042604558974062
0005d0 08 12 5b 04 1f 6f 41 c0 08 d0 74 31 4a a5 1b c0
       -34.86813406416701 -6.911415837053944
0005e0 e0 c3 ed 4f 16 38 3a c0 c0 cb 8e 28 a4 89 fd 3f
       -26.219090457485322 1.8461038193024564
0005f0 20 4f 1b f5 b1 0c 26 40 00 9e 8f 06 3a 1c 07 c0
       11.024795207580212 -2.888782550103997
000600 98 2e b5 b7 e5 cb 2d c0 00 41 62 65 df 79 f8 3f
       -14.898236981265015 1.5297540626816613
000610 cc 6c db c8 0a ab 48 c0 f0 13 79 a6 8e f1 18 40
       -49.33626661981688 6.235895730152137
000620 60 95 f5 54 fc 9c 15 c0 00 8c ec 3a e1 33 ed 3f
       -5.403306319703319 0.9125829840526194
000630 20 4f 1b f5 b1 0c 26 c0 00 9e 8f 06 3a 1c 07 40
       -11.024795207580212 2.888782550103997
