GeologicalScience/VolcanicEruption/code/volcanoinference/distance_learning/cross-valid-results/epsilon_sensitivity_study/contrastive_batch32_epochs400_param_distancesepsilon_0.28.npy (npy, 1728 bytes, 1 tensors)

array f8 [100, 2]
000000 c0 61 6c e5 56 56 14 40 90 dd 3c ae 06 b4 03 40
       5.08431585763941 2.4629033672642393
000010 48 1a 60 ad 3e 36 4b c0 6c 59 54 d3 08 20 20 40
       -54.42378775780213 8.062567333265825
000020 a8 9a 93 38 9e 2c 33 c0 b0 1a 70 21 b9 bb 1a 40
       -19.174289260898746 6.683323404757786
000030 80 45 1d f0 75 0f 0f 40 c0 61 c0 e5 17 30 06 40
       3.8825491675312946 2.7734830808005597
000040 a0 3b f3 a8 29 dc 3e c0 10 2d 13 8a b1 65 12 40
       -30.86001068056396 4.599310071392452
000050 c0 00 51 85 74 88 43 40 a0 72 c3 a9 27 15 16 c0
       39.06605593161794 -5.520659115366158
000060 5c 99 64 c3 80 b8 4a 40 b3 bf 97 ff c1 58 40 c0
       53.44142954265655 -32.693420361610514
000070 94 7d bd 0a 02 24 46 c0 c0 f5 15 c5 af ec f2 3f
       -44.281312315487554 1.1827848147071194
000080 00 0a 0a ed 45 14 d6 3f 80 3c b6 ce 73 fd 08 40
       0.3449873747669301 3.1237560414661516
000090 80 0b 18 dd 87 7b 43 c0 7c ed 25 05 be 45 36 40
       -38.965083729496655 22.272430726775823
0000a0 40 87 71 14 b6 a8 fa bf 40 5c 62 d3 54 bc 0a 40
       -1.6661892698834464 3.341958667220325
0000b0 48 1a 60 ad 3e 36 4b 40 6c 59 54 d3 08 20 20 c0
       54.42378775780213 -8.062567333265825
0000c0 00 8f 44 31 40 73 f7 bf 00 68 9a af 00 b8 bd bf
       -1.4656373905681335 -0.1160889080732943
0000d0 10 9d a3 5b 28 4f 1d c0 e8 df 05 f1 c1 1f 27 40
       -7.327302390919854 11.562026531188124
0000e0 00 00 95 e3 f6 32 b9 bf 40 ad 41 f6 b0 76 ed bf
       -0.09843390518381057 -0.9207386789034118
0000f0 a0 d8 37 6c 13 10 2b 40 00 a0 f7 38 bf 63 c3 bf
       13.531398183648264 -0.15148153573613854
000100 80 11 c7 a3 40 1c 24 40 00 53 e0 e0 d4 d3 db 3f
       10.055180662203156 0.434804172139863
000110 40 dc 58 20 2f 13 27 c0 28 ac 21 36 99 be 0a 40
       -11.537468920561992 3.343065665152171
000120 40 a9 23 f0 5d 85 2e c0 00 05 b7 a0 47 9d 16 c0
       -15.260482315400282 -5.653593550844789
000130 98 96 7e 3a c2 83 51 40 10 54 3e a2 b8 46 2c c0
       70.05872976648459 -14.138127393825954
000140 88 21 79 fc 7c ed 35 c0 20 ee 83 7e 77 6d f6 3f
       -21.927688388417238 1.4017252866750667
000150 c0 8a 54 4b 94 80 34 40 b0 2d 6c e0 36 bf 22 c0
       20.502262790813575 -9.373465550618533
000160 00 8c e8 7e 0a 51 f6 bf 90 b5 ca ef 9e 6c 02 c0
       -1.394785400138744 -2.303037522672362
000170 c0 61 6c e5 56 56 14 c0 90 dd 3c ae 06 b4 03 c0
       -5.08431585763941 -2.4629033672642393
000180 04 32 fd 36 52 3c 48 c0 f0 7b e1 59 59 2f 26 40
       -48.47125899661117 11.092478569769781
000190 60 e3 ce 3b f4 55 26 40 08 43 73 aa b2 f3 1b c0
       11.1678789796876 -6.987986243519806
0001a0 c0 00 51 85 74 88 43 c0 a0 72 c3 a9 27 15 16 40
       -39.06605593161794 5.520659115366158
0001b0 b0 ce a2 70 39 2f 27 40 90 d4 46 f5 c3 25 16 c0
       11.592235107301661 -5.536880333374157
0001c0 18 ff 61 ea 0a 58 34 c0 30 76 5e 63 ab b2 00 40
       -20.34391655819408 2.0872409594728865
0001d0 80 d1 ee bd f9 3f 12 c0 a0 80 7b bd e0 7c 19 40
       -4.562476127339664 6.371951065695754
0001e0 00 8f 44 31 40 73 f7 3f 00 68 9a af 00 b8 bd 3f
       1.4656373905681335 0.1160889080732943
0001f0 a0 c8 7d ce f4 92 30 c0 00 4d d3 01 75 26 0a 40
       -16.57404795237437 3.2687778608902818
000200 40 56 e2 a2 f1 a2 3b c0 c0 f3 a1 bc ce 53 fd 3f
       -27.636499576814685 1.8329608314954697
000210 e0 36 28 09 31 a3 32 40 60 55 8f 95 08 de 0e c0
       18.637466976469 -3.858414810597125
000220 40 26 77 91 9e 62 39 c0 d0 e1 0d 27 18 8d 1e 40
       -25.385232059087002 7.637787447187705
000230 80 cc f1 4a 26 bc 03 40 30 36 39 ad 8f 25 25 c0
       2.466869912628283 -10.573361790880057
000240 60 53 cf 99 95 c9 25 c0 70 e1 e0 59 cc e7 06 40
       -10.893719488676368 2.863182737517654
000250 a0 c8 7d ce f4 92 30 40 00 4d d3 01 75 26 0a c0
       16.57404795237437 -3.2687778608902818
000260 00 f6 f5 2c a2 e1 17 c0 c0 ff 26 fe cc 85 ff 3f
       -5.970345213424935 1.9701661994767932
000270 80 29 f4 69 59 37 07 c0 90 27 8c 3c 35 c1 13 c0
       -2.9020260121953356 -4.938679643682818
000280 00 0a 0a ed 45 14 d6 bf 80 3c b6 ce 73 fd 08 c0
       -0.3449873747669301 -3.1237560414661516
000290 d0 e9 7c fd 8b 71 37 c0 68 fc 31 02 61 e4 1f 40
       -23.443542330738467 7.973026308346654
0002a0 50 0d dd 65 94 1f 2e c0 d0 00 a2 b1 3a 39 21 40
       -15.061679061159026 8.611775923753527
0002b0 a0 3b f3 a8 29 dc 3e 40 10 2d 13 8a b1 65 12 c0
       30.86001068056396 -4.599310071392452
0002c0 80 29 f4 69 59 37 07 40 90 27 8c 3c 35 c1 13 40
       2.9020260121953356 4.938679643682818
0002d0 40 e9 ec c3 b3 67 f1 3f 00 f2 ce bf d6 2f c9 3f
       1.0878179219567556 0.19677242627757607
0002e0 80 6c 23 70 ce 62 32 40 a0 e4 7d 06 7a 75 18 c0
       18.385962494514843 -6.114723302301314
0002f0 80 39 e5 57 c4 ee 08 40 00 9c 70 f8 7d 69 cb bf
       3.1165854327038574 -0.21415686255315336
000300 80 11 c7 a3 40 1c 24 c0 00 53 e0 e0 d4 d3 db bf
       -10.055180662203156 -0.434804172139863
000310 b0 c2 b4 12 51 8a 3c c0 60 c0 b2 d1 e8 9d 0d 40
       -28.54029957688425 3.7021042235065096
000320 60 91 81 d2 b4 25 20 c0 a0 60 68 11 7d 27 23 40
       -8.073645189587012 9.57712606810702
000330 80 d4 8a ab e4 d3 14 c0 10 d6 09 d3 a4 1e 13 c0
       -5.206926994656101 -4.7799256300691155
000340 00 06 14 de ec 60 e5 3f c0 79 c2 57 51 d9 f7 bf
       0.6680816972222487 -1.4905560901748771
000350 20 89 d8 75 2c 29 15 40 68 f3 29 28 0f 39 46 c0
       5.2902086652195806 -44.44577505157832
000360 00 f6 f5 2c a2 e1 17 40 c0 ff 26 fe cc 85 ff bf
       5.970345213424935 -1.9701661994767932
000370 60 ee c3 fc a6 97 1a c0 40 81 97 8d dc 21 0f 40
       -6.648097943743409 3.8915339528904553
000380 94 7d bd 0a 02 24 46 40 c0 f5 15 c5 af ec f2 bf
       44.281312315487554 -1.1827848147071194
000390 2c 86 13 a2 9e 77 40 c0 20 79 2b 2c 35 72 f5 3f
       -32.93452859834028 1.3403827405341602
0003a0 20 ea ed 62 be 59 21 40 60 4c 19 b4 eb 1a f1 3f
       8.67528065828543 1.0690724406347485
0003b0 bf f1 88 06 17 a2 5b 40 fa 8a 23 e3 c7 9d 2b c0
       110.53265536664456 -13.808165643776636
0003c0 40 87 71 14 b6 a8 fa 3f 40 5c 62 d3 54 bc 0a c0
       1.6661892698834464 -3.341958667220325
0003d0 c0 8a 54 4b 94 80 34 c0 b0 2d 6c e0 36 bf 22 40
       -20.502262790813575 9.373465550618533
0003e0 80 39 e5 57 c4 ee 08 c0 00 9c 70 f8 7d 69 cb 3f
       -3.1165854327038574 0.21415686255315336
0003f0 60 91 81 d2 b4 25 20 40 a0 60 68 11 7d 27 23 c0
       8.073645189587012 -9.57712606810702
000400 80 85 dd 0c d7 19 1b 40 50 00 42 ab ad 7a 18 40
       6.775234414120291 6.119803119567294
000410 c0 0b 1d 82 d7 9f 19 c0 00 1b b5 ef da d9 e5 3f
       -6.406095536253758 0.6828436548028947
000420 fc bb 85 8d 9d 6e 61 40 d0 aa fe 4e 58 3f 27 c0
       139.45673252220138 -11.623720615947065
000430 2c 86 13 a2 9e 77 40 40 20 79 2b 2c 35 72 f5 bf
       32.93452859834028 -1.3403827405341602
000440 48 ee 9c 5c 33 fb 4c 40 68 17 7b 3e ea e2 19 c0
       57.962504936815606 -6.4715966951970145
000450 60 ee c3 fc a6 97 1a 40 40 81 97 8d dc 21 0f c0
       6.648097943743409 -3.8915339528904553
000460 00 4a 4f c9 dc 71 d6 3f 80 46 00 8a fc c0 07 c0
       0.35069961222794177 -2.969231680043606
000470 00 80 4a e7 16 7f f3 3f 00 ba 38 36 40 de f4 3f
       1.2185277018361376 1.3042604558974062
000480 14 96 3c 61 f0 4b 52 40 04 47 c0 5b f9 a7 24 c0
       73.18654662052751 -10.328074328633654
000490 50 8a 55 b3 0f c3 37 40 80 5c 7d c4 eb b1 dd 3f
       23.76195832098375 0.46398443401762535
0004a0 80 4c 08 b7 67 f6 04 c0 60 6d b8 54 77 57 12 c0
       -2.6203150081069566 -4.585416148907228
0004b0 c0 1f 15 57 7d 7e 04 c0 c0 f6 65 1a b9 50 0b c0
       -2.5617625048944035 -3.414415556179705
0004c0 b2 02 36 29 20 cc 4a c0 30 94 f4 1f 51 76 12 c0
       -53.594731475231484 -4.615543841650876
0004d0 58 a9 d7 3c d5 03 33 c0 cc 4d 07 9d 30 0a 23 40
       -19.014972498561605 9.5199021407524
0004e0 c0 99 a9 23 3b 54 4a c0 58 2e 85 a9 04 69 14 40
       -52.65805478841094 5.1025568473374605
0004f0 bf f1 88 06 17 a2 5b c0 fa 8a 23 e3 c7 9d 2b 40
       -110.53265536664456 13.808165643776636
000500 80 6c 23 70 ce 62 32 c0 a0 e4 7d 06 7a 75 18 40
       -18.385962494514843 6.114723302301314
000510 48 46 8a 96 79 bf 33 40 88 8b 4d 36 6a 6f 10 c0
       19.747949036367828 -4.108803604586576
000520 48 46 8a 96 79 bf 33 c0 88 8b 4d 36 6a 6f 10 40
       -19.747949036367828 4.108803604586576
000530 d0 e9 7c fd 8b 71 37 40 68 fc 31 02 61 e4 1f c0
       23.443542330738467 -7.973026308346654
000540 60 53 cf 99 95 c9 25 40 70 e1 e0 59 cc e7 06 c0
       10.893719488676368 -2.863182737517654
000550 80 a6 5b 51 2c 42 2f 40 90 ec d0 0a ee d6 00 c0
       15.629244368016998 -2.104946217060906
000560 d0 40 74 06 2c 6c 31 40 78 c4 36 03 d7 56 13 40
       17.42254677141392 4.8348045828034785
000570 50 6e 6c b1 88 fd 35 c0 80 63 e5 6d 34 74 d3 3f
       -21.990367020580663 0.30396757823978504
000580 40 fd e5 6d 16 e8 26 40 70 94 ea d0 4d 2e 10 c0
       11.453296121907101 -4.045218719785325
000590 80 27 c9 fa ae f0 2b c0 c0 73 f7 dd d6 9c 0f 40
       -13.970084988646477 3.951581701387539
0005a0 04 32 fd 36 52 3c 48 40 f0 7b e1 59 59 2f 26 c0
       48.47125899661117 -11.092478569769781
0005b0 f0 c2 f5 b7 67 5d 29 40 80 02 2e 3b 08 75 ff 3f
       12.682431935072117 1.966072302981189
0005c0 00 80 4a e7 16 7f f3 bf 00 ba 38 36 40 de f4 bf
       -1.2185277018361376 -1.3042604558974062
0005d0 58 a9 d7 3c d5 03 33 40 cc 4d 07 9d 30 0a 23 c0
       19.014972498561605 -9.5199021407524
0005e0 c0 99 a9 23 3b 54 4a 40 58 2e 85 a9 04 69 14 c0
       52.65805478841094 -5.1025568473374605
0005f0 20 4f 1b f5 b1 0c 26 40 00 9e 8f 06 3a 1c 07 c0
       11.024795207580212 -2.888782550103997
000600 18 1d d8 67 c4 01 2b c0 10 d6 7b a2 8e a9 0e 40
       -13.50345158112627 3.8327915853540233
000610 18 ff 61 ea 0a 58 34 40 30 76 5e 63 ab b2 00 c0
       20.34391655819408 -2.0872409594728865
000620 50 a2 73 c5 1b 53 28 c0 40 d7 df 65 a9 da f4 bf
       -12.162321253171427 -1.3033842067211054
000630 20 4f 1b f5 b1 0c 26 c0 00 9e 8f 06 3a 1c 07 40
       -11.024795207580212 2.888782550103997
