GeologicalScience/VolcanicEruption/code/volcanoinference/distance_learning/cross-valid-results/epsilon_sensitivity_study/contrastive_batch32_epochs400_param_distancesepsilon_0.68.npy (npy, 1728 bytes, 1 tensors)

array f8 [100, 2]
0	0x40145656e56c61c0	5.08431585763941
1	0x4003b406ae3cdd90	2.4629033672642393
2	0xc04b363ead601a48	-54.42378775780213
3	0x40202008d354596c	8.062567333265825
4	0x4016e6bbeeac88e0	5.7253262799078755
5	0xbfbfc51c22655c00	-0.12410140838379391
6	0x400f0f75f01d4580	3.8825491675312946
7	0x40063017e5c061c0	2.7734830808005597
8	0x40333ddb7ab9afcc	19.241630239804906
9	0x402c15f60dbecdd8	14.042892865697397
10	0x40438874855100c0	39.06605593161794
11	0xc0161527a9c372a0	-5.520659115366158
12	0xc0306237dc5a1fe8	-16.383664867404065
13	0xc01749665e131a98	-5.821679563442238
14	0x40362d0ea9ad0f40	22.176004986525413
15	0x4003240bf0a0cc30	2.3926008986541305
16	0x3fd61445ed0a0a00	0.3449873747669301
17	0x4008fd73ceb63c80	3.1237560414661516
18	0xc04110bf27c931fc	-34.13083360027301
19	0x404eb91503015c4a	61.44595372740203
20	0xbff167b3c3ece940	-1.0878179219567556
21	0xbfc92fd6bfcef200	-0.19677242627757607
22	0x404b363ead601a48	54.42378775780213
23	0xc0202008d354596c	-8.062567333265825
24	0x4008c653633b5b80	3.096838736771531
25	0xc019f3c0c039ea40	-6.488039973769048
26	0xc021cbfbdcb499b8	-8.89840593056293
27	0x4043d09ee0f93ac9	39.6298485962812
28	0xc04e0fdcde109cc8	-60.123927839385544
29	0xc0218752203fee30	-8.76429844646836
30	0xc027cd0b254df1a0	-11.90047566009963
31	0xc01a1540e1648440	-6.520755311737105
32	0x40241c40a3c71180	10.055180662203156
33	0x3fdbd3d4e0e05300	0.434804172139863
34	0x404512d9dca85244	42.14727361887756
35	0x3fe9560cd7182ac0	0.7917541695654435
36	0xc0430e3dbfee3758	-38.111259452167985
37	0x40301f7261b196c4	16.122839074951813
38	0xc047fad17ce0baf0	-47.959518060428195
39	0xc0236bc93da51f04	-9.71051972046508
40	0xc045f582d6f2c7ec	-43.9180554089979
41	0x3ffb4a8499fd4700	1.7056928649148517
42	0x4038082bc4897fa0	24.031917842453936
43	0x3ff03a1db2f2b1c0	1.0141884794385163
44	0xc03436eb1366bcf8	-20.21452447183853
45	0xc01dd19b84953f10	-7.45469481621673
46	0xc0145656e56c61c0	-5.08431585763941
47	0xc003b406ae3cdd90	-2.4629033672642393
48	0xc043ded3df933510	-39.740840861204674
49	0xbff365c5a8d85200	-1.212346705961977
50	0x400272e03a3e8600	2.306091742547096
51	0xbff4bd00b8f11500	-1.2961432670866202
52	0xc0438874855100c0	-39.06605593161794
53	0x40161527a9c372a0	5.520659115366158
54	0x4002a7ccfa42c4c0	2.3319339324594637
55	0x402266d2150c4f68	9.200821550133426
56	0xc0324cf55dda2878	-18.300618997346163
57	0xc01697246c9d05c8	-5.647599885066889
58	0xc008c653633b5b80	-3.096838736771531
59	0x4019f3c0c039ea40	6.488039973769048
60	0x3ff7734031448f00	1.4656373905681335
61	0x3fbdb800af9a6800	0.1160889080732943
62	0xbfe560ecde140600	-0.6680816972222487
63	0x3ff7d95157c279c0	1.4905560901748771
64	0xc02803b6f4690600	-12.007255208797687
65	0xbfd1683563ff9580	-0.2719853855654364
66	0x403627f35838d588	22.15605689418365
67	0x3fc7463c58484000	0.18183092413573831
68	0xc022f56253d3fba0	-9.47926580393488
69	0x40177031fc14d9c0	5.8595656764723
70	0xc028655d44c45960	-12.197977208107375
71	0xc0223b17d378bf98	-9.115416153421208
72	0xc00f0f75f01d4580	-3.8825491675312946
73	0xc0063017e5c061c0	-2.7734830808005597
74	0x4039629e91772640	25.385232059087002
75	0xc01e8d18270de1d0	-7.637787447187705
76	0xc00c3cbbc9a7a700	-3.5296550516403613
77	0xc024c67a96ca83e8	-10.38765403005705
78	0xc030c468233e40d0	-16.767214014719514
79	0x4028a6ad92f5d720	12.325543015012556
80	0xbfd61445ed0a0a00	-0.3449873747669301
81	0xc008fd73ceb63c80	-3.1237560414661516
82	0xc037718bfd7ce9d0	-23.443542330738467
83	0x401fe4610231fc68	7.973026308346654
84	0xc01b093b35f1af40	-6.759014933468109
85	0xc001ba4d01ab0ea0	-2.215967190773725
86	0x40306237dc5a1fe8	16.383664867404065
87	0x401749665e131a98	5.821679563442238
88	0x403c8a5112b4c2b0	28.54029957688425
89	0xc00d9de8d1b2c060	-3.7021042235065096
90	0x3ff167b3c3ece940	1.0878179219567556
91	0x3fc92fd6bfcef200	0.19677242627757607
92	0x401bbb0ce4c1b780	6.932666372607741
93	0xc0008e586b26a060	-2.0695045825159895
94	0x4008eec457e53980	3.1165854327038574
95	0xbfcb697df8709c00	-0.21415686255315336
96	0xc0241c40a3c71180	-10.055180662203156
97	0xbfdbd3d4e0e05300	-0.434804172139863
98	0xc03c8a5112b4c2b0	-28.54029957688425
99	0x400d9de8d1b2c060	3.7021042235065096
100	0xc02025b4d2819160	-8.073645189587012
101	0x4023277d116860a0	9.57712606810702
102	0xc0265ac36c406540	-11.177272208081035
103	0xc0067a6327002c40	-2.8097594305923224
104	0x4022f56253d3fba0	9.47926580393488
105	0xc0177031fc14d9c0	-5.8595656764723
106	0x404110bf27c931fc	34.13083360027301
107	0xc04eb91503015c4a	-61.44595372740203
108	0x40265ac36c406540	11.177272208081035
109	0x40067a6327002c40	2.8097594305923224
110	0xc01a97a6fcc3ee60	-6.648097943743409
111	0x400f21dc8d978140	3.8915339528904553
112	0xc00272e03a3e8600	-2.306091742547096
113	0x3ff4bd00b8f11500	1.2961432670866202
114	0xc04512d9dca85244	-42.14727361887756
115	0xbfe9560cd7182ac0	-0.7917541695654435
116	0xc027565771d61410	-11.66863589990865
117	0x400940213d6b1c60	3.156313400107635
118	0x405065a878e5dce4	65.58840773055596
119	0xc0231f5cf6e8576a	-9.561256137716288
120	0x3fe28204a1093c00	0.5783713479266908
121	0xc00c4f523f5f4b60	-3.5387310934979013
122	0xc01a20f337bfdc00	-6.532177802167098
123	0x4015b00251dca180	5.421883849230994
124	0xc008eec457e53980	-3.1165854327038574
125	0x3fcb697df8709c00	0.21415686255315336
126	0x402025b4d2819160	8.073645189587012
127	0xc023277d116860a0	-9.57712606810702
128	0x4034a3f2b9371d00	20.64042241664447
129	0xc02649f15b9aeac0	-11.14441953912808
130	0xc028f6ab0cb45040	-12.481773755083964
131	0xc0189347a48f8df0	-6.1438279831522635
132	0xc00f8099c23f6300	-3.9377932715982524
133	0xc008e64ab64dea10	-3.1124471895721015
134	0x4040779ea213862c	32.93452859834028
135	0xbff572352c2b7920	-1.3403827405341602
136	0x40399c8054a35a78	25.611333169823837
137	0xc012a017e30bd5a8	-4.6563411212895645
138	0x401a97a6fcc3ee60	6.648097943743409
139	0xc00f21dc8d978140	-3.8915339528904553
140	0x3fd671dcc94f4a00	0.35069961222794177
141	0xc007c0fc8a004680	-2.969231680043606
142	0x3ff37f16e74a8000	1.2185277018361376
143	0x3ff4de403638ba00	1.3042604558974062
144	0x403a38164fedc3e0	26.219090457485322
145	0xbffd89a4288ecbc0	-1.8461038193024564
146	0x404899aa2e1737d4	49.20050598272033
147	0xbfd0fc6762e09000	-0.2654055085752134
148	0x3ff2fc8afc846100	1.186655985255186
149	0xc014a46dfc8eb220	-5.160575815400563
150	0x4026e458d3c70ec0	11.44599019818213
151	0xc0254912a0333e0c	-10.642720228438542
152	0x4021cbfbdcb499b8	8.89840593056293
153	0xc043d09ee0f93ac9	-39.6298485962812
154	0xc04a9880f37162a4	-53.19143527065651
155	0x40322ddead5b5f6c	18.179179034049795
156	0xc04899aa2e1737d4	-49.20050598272033
157	0x3fd0fc6762e09000	0.2654055085752134
158	0xc05ba2170688f1bf	-110.53265536664456
159	0x402b9dc7e3238afa	13.808165643776636
160	0x4028655d44c45960	12.197977208107375
161	0x40223b17d378bf98	9.115416153421208
162	0xc0362d0ea9ad0f40	-22.176004986525413
163	0xc003240bf0a0cc30	-2.3926008986541305
164	0xc04b2addd97782c0	-54.334895308832984
165	0xc011db491ddff9f8	-4.46414610557121
166	0xc04b51226a64da40	-54.633862780804066
167	0x402692c94868923a	11.286691916241683
168	0x401a3388b82244c0	6.550326230136477
169	0xc0326f928871a72a	-18.435829665896712
170	0xc05065a878e5dce4	-65.58840773055596
171	0x40231f5cf6e8576a	9.561256137716288
172	0xc0428aa9612b2ffc	-37.08329405411493
173	0x40361ac80634b23c	22.104614627709665
174	0x4040377a54a9e320	32.43342073722147
175	0xc01f08ce5fca5ca0	-7.75859975502604
176	0xc01bbb0ce4c1b780	-6.932666372607741
177	0x40008e586b26a060	2.0695045825159895
178	0x401a20f337bfdc00	6.532177802167098
179	0xc015b00251dca180	-5.421883849230994
180	0x40324cf55dda2878	18.300618997346163
181	0x401697246c9d05c8	5.647599885066889
182	0xc00054eb86c6a680	-2.041464856087998
183	0xc00ac64ad078ae00	-3.3468223845318334
184	0xbff37f16e74a8000	-1.2185277018361376
185	0xbff4de403638ba00	-1.3042604558974062
186	0x404b2addd97782c0	54.334895308832984
187	0x4011db491ddff9f8	4.46414610557121
188	0xc03a38164fedc3e0	-26.219090457485322
189	0x3ffd89a4288ecbc0	1.8461038193024564
190	0x40260cb1f51b4f20	11.024795207580212
191	0xc0071c3a068f9e00	-2.888782550103997
192	0xc02dcbe5b7b52e98	-14.898236981265015
193	0x3ff879df65624100	1.5297540626816613
194	0xc0399c8054a35a78	-25.611333169823837
195	0x4012a017e30bd5a8	4.6563411212895645
196	0xc0159cfc54f59560	-5.403306319703319
197	0x3fed33e13aec8c00	0.9125829840526194
198	0xc0260cb1f51b4f20	-11.024795207580212
199	0x40071c3a068f9e00	2.888782550103997
