GeologicalScience/VolcanicEruption/code/volcanoinference/distance_learning/cross-valid-results/epsilon_sensitivity_study/sdml_param_distancesepsilon_0.14.npy (npy, 1728 bytes, 1 tensors)

array f8 [100, 2]
000000 90 7b fe 76 12 9f 5b 40 b8 6e e7 80 28 64 30 c0
       110.48550200321029 -16.391243034841608
000010 f0 73 90 72 c4 fe 50 40 36 6b 48 73 52 83 33 c0
       67.98074020487525 -19.51297684209859
000020 d4 87 06 c1 05 c8 40 c0 98 ac a8 29 43 76 2f 40
       -33.562675598324546 15.730981160965072
000030 fe e3 8a 38 2b cf 5b c0 c4 ad b8 99 62 c8 30 40
       -111.23701299251113 16.782754523837653
000040 a0 d4 09 c7 a5 42 24 40 30 d8 1b b5 00 bb 26 c0
       10.13017103190424 -11.365239772461877
000050 c0 00 51 85 74 88 43 40 a0 72 c3 a9 27 15 16 c0
       39.06605593161794 -5.520659115366158
000060 3e 29 ba 07 0e f4 52 c0 78 a9 74 83 1b 28 27 40
       -75.81335633449359 11.57833491133782
000070 fe e3 8a 38 2b cf 5b 40 c4 ad b8 99 62 c8 30 c0
       111.23701299251113 -16.782754523837653
000080 00 0a 0a ed 45 14 d6 3f 80 3c b6 ce 73 fd 08 40
       0.3449873747669301 3.1237560414661516
000090 fc 31 c9 27 bf 10 41 c0 4a 5c 01 03 15 b9 4e 40
       -34.13083360027301 61.44595372740203
0000a0 40 e9 ec c3 b3 67 f1 bf 00 f2 ce bf d6 2f c9 bf
       -1.0878179219567556 -0.19677242627757607
0000b0 84 75 f9 d3 13 bb 50 40 08 b4 a3 7a dd 6c 23 c0
       66.92308520661578 -9.712627251132304
0000c0 00 8f 44 31 40 73 f7 bf 00 68 9a af 00 b8 bd bf
       -1.4656373905681335 -0.1160889080732943
0000d0 40 27 c7 b0 ab 1b 3a c0 98 0f 42 e4 f7 a2 24 40
       -26.108088539716164 10.318297513069226
0000e0 3c 06 f7 f4 94 65 4b 40 a8 67 8c 2d 5d 3f 1c c0
       54.79360830365883 -7.061878883070598
0000f0 40 2f a3 96 ff ef 33 40 00 03 f3 bd ca b2 ea bf
       19.937493719902022 -0.8343251905390332
000100 80 11 c7 a3 40 1c 24 40 00 53 e0 e0 d4 d3 db 3f
       10.055180662203156 0.434804172139863
000110 20 7f 13 3d 95 b9 37 40 20 f9 b4 0d db 45 f9 bf
       23.724933449993046 -1.5795546088625727
000120 98 cc 2d 8a 68 5b 59 40 d0 66 7c 8a b5 ce 36 c0
       101.42825560066774 -22.8074575952258
000130 c4 a4 cb 50 6c 21 5a 40 d2 07 43 d1 96 00 32 c0
       104.52223606001922 -18.0023012913369
000140 0a 9f f0 89 82 ac 55 c0 40 c8 57 a5 8e 55 24 40
       -86.69546745775384 10.167103926625828
000150 d0 71 f9 64 5a f6 2e c0 a0 15 d0 d7 56 27 13 40
       -15.481158404779222 4.788417217326611
000160 8a 2c 9c 67 a7 95 57 c0 c0 c8 36 7a 9a 32 2c 40
       -94.33834257365575 14.098834819018862
000170 fc 5f 7f ef b8 15 56 40 e8 f9 50 a7 0d aa 25 c0
       88.33941256941756 -10.832135418543615
000180 c4 a4 cb 50 6c 21 5a c0 d2 07 43 d1 96 00 32 40
       -104.52223606001922 18.0023012913369
000190 00 86 3e 3a e0 72 02 40 00 15 f1 b8 00 bd f4 bf
       2.306091742547096 -1.2961432670866202
0001a0 c0 00 51 85 74 88 43 c0 a0 72 c3 a9 27 15 16 40
       -39.06605593161794 5.520659115366158
0001b0 40 f5 84 78 12 26 0c 40 b0 ec 89 2d 36 29 10 40
       3.5185899177146496 4.0402457347328635
0001c0 18 ff 61 ea 0a 58 34 c0 30 76 5e 63 ab b2 00 40
       -20.34391655819408 2.0872409594728865
0001d0 b0 f3 ec 3e 32 1b 46 40 e8 16 92 c7 fc 3b 2e c0
       44.21247088022153 -15.117162930091084
0001e0 84 75 f9 d3 13 bb 50 c0 08 b4 a3 7a dd 6c 23 40
       -66.92308520661578 9.712627251132304
0001f0 c8 80 71 42 c0 7c 33 40 f8 a1 18 04 85 ff 24 c0
       19.487308647833544 -10.499061706549568
000200 74 72 9e e1 64 4e 57 c0 e2 95 7c ce d6 c9 26 40
       -93.22490730737064 11.394216969211758
000210 38 9e 79 c1 cd 3a 3e 40 a0 3f 07 20 64 ca 22 c0
       30.22970208377066 -9.395295143971282
000220 c0 32 e7 5a fe 0e 1a c0 00 9f 13 f5 a3 d3 eb bf
       -6.514642162667485 -0.8695850168851109
000230 c0 32 e7 5a fe 0e 1a 40 00 9f 13 f5 a3 d3 eb 3f
       6.514642162667485 0.8695850168851109
000240 ee ec 75 2a 27 2d 5d c0 40 8b 05 d8 32 e0 2f 40
       -116.70551549450076 15.937887907673598
000250 90 59 bd fa de de 32 40 d8 2a d8 52 c6 03 21 c0
       18.870589896419517 -8.507372464072816
000260 00 02 06 5e cf cc eb bf 80 b6 f8 5e bc 5f 00 c0
       -0.8687512241741047 -2.0467460078860427
000270 60 94 49 e4 f0 fd 54 40 d0 d8 57 4d e6 dd 36 c0
       83.96782786546237 -22.86679538149548
000280 00 0a 0a ed 45 14 d6 bf 80 3c b6 ce 73 fd 08 c0
       -0.3449873747669301 -3.1237560414661516
000290 f0 ff b6 47 1c 52 2e c0 e0 d7 b3 cc 78 22 ff 3f
       -15.16037201031574 1.9459159847442535
0002a0 00 bd 74 36 f2 6e 2d c0 f0 8f 4f a5 97 78 27 40
       -14.716691686392096 11.735531965219678
0002b0 0c 27 16 d2 e6 aa 44 40 98 df 77 86 7c ae 29 c0
       41.33516908723513 -12.840793802388177
0002c0 b0 c2 b4 12 51 8a 3c 40 60 c0 b2 d1 e8 9d 0d c0
       28.54029957688425 -3.7021042235065096
0002d0 40 e9 ec c3 b3 67 f1 3f 00 f2 ce bf d6 2f c9 3f
       1.0878179219567556 0.19677242627757607
0002e0 00 02 06 5e cf cc eb 3f 80 b6 f8 5e bc 5f 00 40
       0.8687512241741047 2.0467460078860427
0002f0 c8 80 71 42 c0 7c 33 c0 f8 a1 18 04 85 ff 24 40
       -19.487308647833544 10.499061706549568
000300 80 11 c7 a3 40 1c 24 c0 00 53 e0 e0 d4 d3 db bf
       -10.055180662203156 -0.434804172139863
000310 b0 c2 b4 12 51 8a 3c c0 60 c0 b2 d1 e8 9d 0d 40
       -28.54029957688425 3.7021042235065096
000320 e0 e4 d4 76 48 3e 21 40 00 55 75 4e 18 ec e8 3f
       8.62164660786442 0.7788201839818214
000330 c0 0b 1d 82 d7 9f 19 40 00 1b b5 ef da d9 e5 bf
       6.406095536253758 -0.6828436548028947
000340 00 06 14 de ec 60 e5 3f c0 79 c2 57 51 d9 f7 bf
       0.6680816972222487 -1.4905560901748771
000350 c6 3d fd 68 7a 06 5e c0 04 9c e2 89 5f 72 4e c0
       -120.10122132044407 -60.893540607117785
000360 a0 76 fb 92 8a 11 28 40 60 6b 99 a4 7d 58 18 c0
       12.034260361858571 -6.086416789878825
000370 88 08 26 d9 c2 49 33 40 60 5a a6 7f 4d 74 15 c0
       19.288129398141365 -5.363576883819945
000380 00 86 3e 3a e0 72 02 c0 00 15 f1 b8 00 bd f4 3f
       -2.306091742547096 1.2961432670866202
000390 2c 86 13 a2 9e 77 40 c0 20 79 2b 2c 35 72 f5 3f
       -32.93452859834028 1.3403827405341602
0003a0 40 9d 04 06 94 e8 31 c0 00 4f b9 3d 65 2d f7 3f
       -17.90850865948346 1.4485828791702602
0003b0 bf f1 88 06 17 a2 5b 40 fa 8a 23 e3 c7 9d 2b c0
       110.53265536664456 -13.808165643776636
0003c0 b0 84 53 51 9d 07 2e c0 d0 09 2c 21 cd 96 2a 40
       -15.01487211365233 13.294533764482281
0003d0 e0 e4 d4 76 48 3e 21 c0 00 55 75 4e 18 ec e8 bf
       -8.62164660786442 -0.7788201839818214
0003e0 28 c8 5e 34 a0 45 37 c0 a0 b3 f2 26 55 68 28 40
       -23.27197577775965 12.203774659277599
0003f0 40 f5 84 78 12 26 0c c0 b0 ec 89 2d 36 29 10 c0
       -3.5185899177146496 -4.0402457347328635
000400 e0 14 25 06 bc b6 62 40 7c 47 fe 7f 1b 38 3d c0
       149.7104521488427 -29.219169616298572
000410 c0 0b 1d 82 d7 9f 19 c0 00 1b b5 ef da d9 e5 3f
       -6.406095536253758 0.6828436548028947
000420 0e aa 55 bd 94 8c 60 40 78 86 30 c8 5e 93 29 c0
       132.39315668803505 -12.7878325041995
000430 2b 70 33 85 13 72 56 40 c0 11 92 08 c9 31 29 c0
       89.78244142554529 -12.597236888724069
000440 20 7f 13 3d 95 b9 37 c0 20 f9 b4 0d db 45 f9 3f
       -23.724933449993046 1.5795546088625727
000450 20 24 89 37 b7 0c 42 40 10 c8 cb 46 58 43 29 c0
       36.09934133716911 -12.631532871604605
000460 f0 73 90 72 c4 fe 50 c0 36 6b 48 73 52 83 33 40
       -67.98074020487525 19.51297684209859
000470 e0 88 ac ee bb e6 16 c0 00 5c 65 22 1c c5 bf 3f
       -5.7253262799078755 0.12410140838379391
000480 e0 c3 ed 4f 16 38 3a 40 c0 cb 8e 28 a4 89 fd bf
       26.219090457485322 -1.8461038193024564
000490 ee ec 75 2a 27 2d 5d 40 40 8b 05 d8 32 e0 2f c0
       116.70551549450076 -15.937887907673598
0004a0 60 14 07 0d 15 b3 26 40 a0 13 da 61 f1 12 21 c0
       11.34976998053952 -8.536997850294767
0004b0 a0 1b 08 09 9b b0 25 c0 20 16 a4 83 cc e6 04 40
       -10.84493282531713 2.6126947674226955
0004c0 fe 6f 17 eb 10 96 41 c0 20 a1 48 83 31 f4 01 c0
       -35.17239130634697 -2.2442350632228596
0004d0 88 eb 8d ee af e4 3c 40 a0 7d de 46 2a e7 11 c0
       28.89330950703473 -4.475747210817104
0004e0 c0 99 a9 23 3b 54 4a c0 58 2e 85 a9 04 69 14 40
       -52.65805478841094 5.1025568473374605
0004f0 bf f1 88 06 17 a2 5b c0 fa 8a 23 e3 c7 9d 2b 40
       -110.53265536664456 13.808165643776636
000500 f0 b9 70 80 d0 7c 37 c0 e8 ff c1 ba 65 43 24 40
       -23.487556483765673 10.13163550966415
000510 8a 2c 9c 67 a7 95 57 40 c0 c8 36 7a 9a 32 2c c0
       94.33834257365575 -14.098834819018862
000520 9b 9e f4 8e 01 06 56 40 80 f8 ae 07 49 a5 2b c0
       88.0938451184142 -13.822822799786309
000530 a0 1b 08 09 9b b0 25 40 20 16 a4 83 cc e6 04 c0
       10.84493282531713 -2.6126947674226955
000540 b8 1c 88 49 a4 26 4f c0 04 78 8a 04 1a dc 22 40
       -62.30188864847281 9.429885999586993
000550 80 a6 5b 51 2c 42 2f 40 90 ec d0 0a ee d6 00 c0
       15.629244368016998 -2.104946217060906
000560 88 eb 8d ee af e4 3c c0 a0 7d de 46 2a e7 11 40
       -28.89330950703473 4.475747210817104
000570 3e 29 ba 07 0e f4 52 40 78 a9 74 83 1b 28 27 c0
       75.81335633449359 -11.57833491133782
000580 a0 76 fb 92 8a 11 28 c0 60 6b 99 a4 7d 58 18 40
       -12.034260361858571 6.086416789878825
000590 20 24 89 37 b7 0c 42 c0 10 c8 cb 46 58 43 29 40
       -36.09934133716911 12.631532871604605
0005a0 3c 06 f7 f4 94 65 4b c0 a8 67 8c 2d 5d 3f 1c 40
       -54.79360830365883 7.061878883070598
0005b0 80 f2 15 e4 ea 0c 00 40 a0 44 6c 38 37 31 20 40
       2.0063073939512037 8.096124423233334
0005c0 00 80 4a e7 16 7f f3 bf 00 ba 38 36 40 de f4 bf
       -1.2185277018361376 -1.3042604558974062
0005d0 6c 75 76 4c 2c 55 50 40 60 2a db 3e 5a 52 22 c0
       65.33082877701025 -9.160844768766026
0005e0 c0 99 a9 23 3b 54 4a 40 58 2e 85 a9 04 69 14 c0
       52.65805478841094 -5.1025568473374605
0005f0 5c 82 7e 04 b3 b4 3b 40 30 44 d4 6b 78 86 33 c0
       27.70585659111599 -19.525274981806604
000600 9b 9e f4 8e 01 06 56 c0 80 f8 ae 07 49 a5 2b 40
       -88.0938451184142 13.822822799786309
000610 18 ff 61 ea 0a 58 34 40 30 76 5e 63 ab b2 00 c0
       20.34391655819408 -2.0872409594728865
000620 00 01 9d a3 7f 78 34 c0 50 6a 7e db 14 3c 2f 40
       -20.470697618323356 15.617346629315904
000630 b0 f3 ec 3e 32 1b 46 c0 e8 16 92 c7 fc 3b 2e 40
       -44.21247088022153 15.117162930091084
