GeologicalScience/VolcanicEruption/code/volcanoinference/distance_learning/cross-valid-results/epsilon_sensitivity_study/sdml_param_distancesepsilon_0.84.npy (npy, 1728 bytes, 1 tensors)

array f8 [100, 2]
0	0x405300135c3915e4	76.00118165564305
1	0xc02a68777d5d24c0	-13.204036634082854
2	0x404459a399cfa7d0	40.70030520095281
3	0xc03699c98364d77a	-22.600731098289067
4	0xc0332c9e38939aa8	-19.174289260898746
5	0x401abbb921701ab0	6.683323404757786
6	0x4031f8d4681b9558	17.97199106858656
7	0xc0417efeaa08e68c	-34.992146734567626
8	0xc0407b15b73d4578	-32.961600212972314
9	0xc024e932cf7c6de0	-10.455465778292762
10	0x40438874855100c0	39.06605593161794
11	0xc0161527a9c372a0	-5.520659115366158
12	0xc04aebc08d1e1af8	-53.84181369752872
13	0xc03e9a66cf93ccfe	-30.603131269058387
14	0x40573cef62f4354a	92.95211099480107
15	0xc04239c67226c674	-36.45136858838387
16	0xc031bcac3dc54f10	-17.737003193541625
17	0x40156c1b618659b0	5.355573200059027
18	0xc0671d6d86b48a96	-184.91961989652617
19	0x4026d37d1f2039b8	11.413063976939938
20	0xbffaa8b614718740	-1.6661892698834464
21	0x400abc54d3625c40	3.341958667220325
22	0x40428028aa25f9e0	37.00124098638821
23	0xc029cb7454efbba8	-12.897371916069304
24	0x40245298d9cf3920	10.161322409196657
25	0xc031cc4890325af4	-17.7979822276056
26	0xc04e264437578540	-60.29895679257834
27	0xc01e49d336d65550	-7.572094780761589
28	0x40469e9ba133a5c8	45.23912444135527
29	0xc04384854ebb1e13	-39.035318223348575
30	0xc0552101af9a4740	-84.51572790209048
31	0x402def0a35c5b448	14.9668747714842
32	0x40241c40a3c71180	10.055180662203156
33	0x3fdbd3d4e0e05300	0.434804172139863
34	0xc0216cfe05a2c9b0	-8.712875534173548
35	0xc0327a24f5516f4c	-18.477126438504726
36	0xc032299a255059d0	-18.162508327595617
37	0xc0252f3e6ea19648	-10.592273194527607
38	0x4042a1ae8f3db948	37.26313963426452
39	0xc04b5d297f67cfa5	-54.727828908623714
40	0x40576372815f0408	93.55386385229951
41	0xc044498cfb9d4a22	-40.574614955712846
42	0x403480944b548ac0	20.502262790813575
43	0xc022bf36e06c2db0	-9.373465550618533
44	0xc048d0944860d8a0	-49.62952522972887
45	0xc014acfc29569458	-5.168930669698135
46	0x405615b8ef7f5ffc	88.33941256941756
47	0xc025aa0da750f9e8	-10.832135418543615
48	0xc0341a47f5c3bc54	-20.102660522734666
49	0xc043c5f22485cee0	-39.54645210774993
50	0x4036d9cc87ca9a10	22.850777136767704
51	0xc035c6c449df5804	-21.776432625796602
52	0xc0438874855100c0	-39.06605593161794
53	0x40161527a9c372a0	5.520659115366158
54	0xc050e53250aed8d2	-67.58119599413774
55	0x402383e166efd780	9.757579056527675
56	0xc03bdae80560e960	-27.85510285964972
57	0xc042cf7e369d31d7	-37.621039225344866
58	0x401f54e5bc486680	7.83290762130639
59	0xc030ac970888f8f8	-16.674179585877
60	0x4042e004f963fa18	37.75015179998098
61	0xc03299af5255f7dc	-18.60033144568284
62	0xc036363340732310	-22.211719539746866
63	0xbff69a130ad061c0	-1.4126158163472695
64	0xc03097234b36a438	-16.590382290687756
65	0xc0490c63eb21ddea	-50.0967992701879
66	0x40436cf8fe720854	38.85134869163508
67	0xc0213ba29b1fea50	-8.61647495998946
68	0xc03f05dd036c80b0	-31.022903646459497
69	0x4007a6b1c6e045c0	2.9563937699501537
70	0xc037a6b9d9552b50	-23.651273330014476
71	0xc01447e1d606eac0	-5.070197433635883
72	0xc0296059d4e8cb60	-12.688185361306466
73	0xc03c4d39c65221cc	-28.30166282181908
74	0x40341e7255a6eb20	20.118932107211663
75	0xc034628f036c3c24	-20.38499471085028
76	0x40393cfaf6d3d878	25.238204409332383
77	0xc0259961c33fe310	-10.799573995159818
78	0x4049366992aecb3c	50.425096831654145
79	0xc035100f42756e80	-21.062732843084177
80	0xc036de231429f2c8	-22.867722759476948
81	0xc02fdc67bd5554b0	-15.930478970209464
82	0xc02e789f42f08620	-15.235590068684417
83	0xc041f18c22268d97	-35.887089032006024
84	0xc0145f0db0d54d70	-5.092825663584662
85	0xc0163b50ea86b570	-5.55792585799405
86	0xc0360a015c2a7e90	-22.039083252310377
87	0xc02c70dee8a6d438	-14.22045065914618
88	0x4054b1d0c09f5a14	82.77836623727518
89	0xc038dd328505587c	-24.86405211811551
90	0xc03f675d86f02f58	-31.403770860327626
91	0x3ff8f4bdc1e68e00	1.5597512792818407
92	0x401bbb0ce4c1b780	6.932666372607741
93	0xc0008e586b26a060	-2.0695045825159895
94	0xc044d979c17251ec	-41.69902818758041
95	0x40222c42a2be95c0	9.086445890202299
96	0x4050e53250aed8d2	67.58119599413774
97	0xc02383e166efd780	-9.757579056527675
98	0x404d2a2ed5d80a00	58.32955430077345
99	0xc02c73b7c7fcedc0	-14.226011514306151
100	0xc0564ea1933c14d8	-89.22861176364256
101	0x402db824ba8c3f30	14.859655217761969
102	0xc03a9e57f88b2b30	-26.61852982900308
103	0xbff356d3ac385480	-1.2086979606004036
104	0x403745a0345ec828	23.27197577775965
105	0xc028685526f2b3a0	-12.203774659277599
106	0xc0313a10838e9358	-17.226814482029425
107	0xc04fac38e01f4cfc	-63.34548570183139
108	0xc02ee1ec84d5f120	-15.441257620922045
109	0x3ff99df2a1c80400	1.6010614699919188
110	0x403349c2d9260888	19.288129398141365
111	0xc015744d7fa65a60	-5.363576883819945
112	0x4031a48553444420	17.642659382025272
113	0xc0396b418d735098	-25.4189690023928
114	0xc05970075ad3f9e6	-101.75044890118406
115	0xc037edb05f80d1f6	-23.928472489309534
116	0xc02366af53ffed00	-9.70055639742941
117	0xc04534ad187f02ac	-42.41153246118242
118	0xc0407e25dd663f2c	-32.985530543255976
119	0xc03c893f6b360ecd	-28.536123943994244
120	0x3ffaa8b614718740	1.6661892698834464
121	0xc00abc54d3625c40	-3.341958667220325
122	0xc0436cf8fe720854	-38.85134869163508
123	0x40213ba29b1fea50	8.61647495998946
124	0xc04902e29c620014	-50.02254061494037
125	0x4012152c6236da50	4.520677122686337
126	0xc03349c2d9260888	-19.288129398141365
127	0x4015744d7fa65a60	5.363576883819945
128	0x4061e644134ddb4a	143.19580998617522
129	0xc03e16b89fa6e474	-30.088754633183683
130	0xc0199fd7821d0bc0	-6.406095536253758
131	0x3fe5d9daefb51b00	0.6828436548028947
132	0x4049929a8ee2d704	51.14534174038093
133	0xc04cd0a2a91c8a2c	-57.62996400731603
134	0xc05ae79b416c1484	-107.61885104708387
135	0xc038b77a3bc6df4c	-24.71670888524322
136	0x4047063a9b9bc840	46.04866356951288
137	0xc045623aebe4719b	-42.767423140091715
138	0x4038bfe3e88ebe10	24.749571356629588
139	0xc01060cdc9e368e0	-4.094535021309838
140	0x4021c603cbd6f370	8.88674771307862
141	0xc034759f4c091c08	-20.45946192953491
142	0xc016e6bbeeac88e0	-5.7253262799078755
143	0x3fbfc51c22655c00	0.12410140838379391
144	0x40534f4eeb919bfc	77.23919190616283
145	0xc04b2af7c15f634b	-54.33568589360819
146	0x4052767d93d51582	73.85141464051233
147	0xc04916f463bf9f8a	-50.17933318001367
148	0x4047532ce23e2744	46.64980724367936
149	0xc02cbdd9b73dc388	-14.37080166462853
150	0x403ee65039895718	30.89966163256676
151	0xc0483f69ef53b69a	-48.495420375705365
152	0x3ff5736cab704d40	1.3406798073600186
153	0xc050f5ea5af3c912	-67.8424289112775
154	0xc03fba2af2608e28	-31.727217815945693
155	0xc0384e6516cd8d1c	-24.306229996856118
156	0xc0560793c2af19d0	-88.11839358424845
157	0xc021453553f53b38	-8.635172485051598
158	0xc05244de5eb3247f	-73.07607238287345
159	0xc040d9b596dc52ba	-33.70085416563002
160	0xc04c83e0761cba7c	-57.030287517573896
161	0x4027df13d086d488	11.935698048075452
162	0x405ac21ca8268584	107.03299907457227
163	0xc04b1570b5ef4a31	-54.16750215705941
164	0x404b9edd1cd9a128	55.24112282396737
165	0xc04aabc4a6be1ed6	-53.3419388225863
166	0xc0528bb7222070cc	-74.18305257003811
167	0xc043024a0a241e50	-38.01788450969309
168	0xbffcb621d8cbc000	-1.7944658726300986
169	0xc03f2a33518e3dfa	-31.164845559336733
170	0xc05c69dd015a9220	-113.65411409230046
171	0xc030eb24a4181a70	-16.918527847179973
172	0x4050bbc73f433b84	66.93403607907936
173	0xc036228b2c203530	-22.134936101783012
174	0x405cded1c07d4c6a	115.48155224071675
175	0xc044fcf8b7916993	-41.97634024238791
176	0xc01bbb0ce4c1b780	-6.932666372607741
177	0x40008e586b26a060	2.0695045825159895
178	0xc0245383ad768840	-10.163113995284334
179	0x400b02e98e4aea40	3.3764220348942047
180	0xbfb3417d9cc31800	-0.07521805836867657
181	0xc042ea9fe88c2c56	-37.83300501675028
182	0xc021f87bb5f13e10	-8.985318837832011
183	0xc0121ba10540f010	-4.526981432045446
184	0xc03a1e3ea2b364e0	-26.11814324264276
185	0x4016033d846b81a0	5.503164357244174
186	0x4054f47149418090	83.8194144382162
187	0xc040964be9bfb963	-33.17419168340236
188	0x4048eaae57483300	49.83344546342232
189	0xc047aa1ce08916a9	-47.329006258905174
190	0x403a9e37c83fb3c8	26.618038669159233
191	0xc033b8d81953e214	-19.72204740808418
192	0xc030e90946d6d9d4	-16.910297801450568
193	0xc0407373743f9ff2	-32.90196087938956
194	0xc05f0ccb8ef1fc52	-124.19992421752366
195	0xc0368dee37578ce4	-22.554416140436743
196	0xc0159cfc54f59560	-5.403306319703319
197	0x3fed33e13aec8c00	0.9125829840526194
198	0xc02b89c290ca9ca0	-13.769062542660606
199	0xc027da7744a8df68	-11.926691194166509
