GeologicalScience/VolcanicEruption/code/volcanoinference/distance_learning/cross-valid-results/epsilon_sensitivity_study/sdml_param_distancesepsilon_0.80.npy (npy, 1728 bytes, 1 tensors)

array f8 [100, 2]
-6.775234414120291 -6.119803119567294 40.70030520095281 -22.600731098289067 -19.174289260898746 6.683323404757786 -48.56512188653113 -37.73936563119453
-32.961600212972314 -10.455465778292762 39.06605593161794 -5.520659115366158 -2.679630396319311 -18.780995941977288 92.95211099480107 -36.45136858838387
-17.737003193541625 5.355573200059027 -193.29811085233501 6.0730722356504 -1.6661892698834464 3.341958667220325 37.00124098638821 -12.897371916069304
10.161322409196657 -17.7979822276056 -60.29895679257834 -7.572094780761589 45.23912444135527 -39.035318223348575 -84.51572790209048 14.9668747714842
58.9989096798719 -5.464360073790687 25.919114063209122 -44.165954144254485 99.9158951728194 -41.29012912697688 55.97575900503938 -44.742827738317395
93.55386385229951 -40.574614955712846 20.502262790813575 -9.373465550618533 -20.597612924112696 -31.474285361376552 88.33941256941756 -10.832135418543615
-85.55866891383164 -1.4208456802604843 157.36357295953718 -32.06084645320989 -39.06605593161794 5.520659115366158 -67.58119599413774 9.757579056527675
-4.583127081890069 -49.824813884622465 7.83290762130639 -16.674179585877 37.75015179998098 -18.60033144568284 2.2965419440451456 -5.238594603182534
-16.590382290687756 -50.0967992701879 18.637466976469 -3.858414810597125 -31.022903646459497 2.9563937699501537 -23.651273330014476 -5.070197433635883
-72.949933844876 -31.139383161376557 23.3789246651358 -15.73391187042104 32.182058391076396 -9.619414947646206 68.52657024454032 -21.26573391150356
-61.02012636397828 -4.340897823086465 -15.235590068684417 -35.887089032006024 -5.092825663584662 -5.55792585799405 20.50891118384618 -25.424450388065807
84.51572790209048 -14.9668747714842 -31.403770860327626 1.5597512792818407 6.932666372607741 -2.0695045825159895 -14.723896791160115 -5.3128946875130225
67.58119599413774 -9.757579056527675 55.975428325206224 -11.26477054797769 -89.22861176364256 14.859655217761969 -26.61852982900308 -1.2086979606004036
23.27197577775965 -12.203774659277599 -120.10122132044407 -60.893540607117785 -15.441257620922045 1.6010614699919188 19.288129398141365 -5.363576883819945
102.15838728411575 -40.385843773877 -73.2339323286736 -46.753264930348045 -9.70055639742941 -42.41153246118242 25.743233177568413 -59.01708512459936
1.6661892698834464 -3.341958667220325 -20.21388171516608 4.758060149392335 -50.02254061494037 4.520677122686337 -19.288129398141365 5.363576883819945
20.64042241664447 -11.14441953912808 -11.61302253090986 -4.097081975266221 51.14534174038093 -57.62996400731603 -107.61885104708387 -24.71670888524322
46.04866356951288 -42.767423140091715 24.749571356629588 -4.094535021309838 8.88674771307862 -20.45946192953491 -5.7253262799078755 0.12410140838379391
146.3821547576767 -22.621143065738302 73.85141464051233 -50.17933318001367 -18.10147341288618 0.2030010684193826 30.89966163256676 -48.495420375705365
1.3406798073600186 -67.8424289112775 106.503470127235 -32.74073543285226 -88.11839358424845 -8.635172485051598 -73.07607238287345 -33.70085416563002
-37.74215811943253 6.572121164255506 107.03299907457227 -54.16750215705941 60.50742277584271 -40.594731558923726 1.693310099386565 -44.72970035723779
-20.50708524340496 -41.14984672964305 -33.76949633415734 -42.62915734892792 66.93403607907936 -22.134936101783012 92.62103458600782 -40.858392559864676
-45.576991395666795 7.890479328290127 -29.4512433934257 8.73999891871415 11.687537090340726 -34.0024382458171 -2.041464856087998 -3.3468223845318334
-6.943853981744013 -1.1801590475136123 83.8194144382162 -33.17419168340236 49.83344546342232 -47.329006258905174 26.618038669159233 -19.72204740808418
-16.910297801450568 -32.90196087938956 -124.19992421752366 -22.554416140436743 -5.403306319703319 0.9125829840526194 -13.769062542660606 -11.926691194166509
00000000: 8085 dd0c d719 1bc0 5000 42ab ad7a 18c0
00000010: d0a7 cf99 a359 4440 7ad7 6483 c999 36c0
00000020: a89a 9338 9e2c 33c0 b01a 7021 b9bb 1a40
00000030: d873 fae9 5548 48c0 2ae2 7288 a3de 42c0
00000040: 7845 3db7 157b 40c0 e06d 7ccf 32e9 24c0
00000050: c000 5185 7488 4340 a072 c3a9 2715 16c0
00000060: c078 ac0f e26f 05c0 e619 9d59 efc7 32c0
00000070: 4a35 f462 ef3c 5740 74c6 2672 c639 42c0
00000080: 104f c53d acbc 31c0 b059 8661 1b6c 1540
00000090: 922b c51f 8a29 68c0 d074 b972 d34a 1840
000000a0: 4087 7114 b6a8 fabf 405c 62d3 54bc 0a40
000000b0: e0f9 25aa 2880 4240 a8bb ef54 74cb 29c0
000000c0: 2039 cfd9 9852 2440 f45a 3290 48cc 31c0
000000d0: 4085 5737 4426 4ec0 5055 d636 d349 1ec0
000000e0: c8a5 33a1 9b9e 4640 131e bb4e 8584 43c0
000000f0: 4047 9aaf 0121 55c0 48b4 c535 0aef 2d40
00000100: 945a bb45 dc7f 4d40 20ff 0935 81db 15c0
00000110: e0c6 2a0f 4beb 3940 b61a 43fc 3d15 46c0
00000120: b674 c906 9efa 5840 cafd 83f3 22a5 44c0
00000130: f8b5 cbab e5fc 4b40 4351 b5fa 145f 46c0
00000140: 0804 5f81 7263 5740 224a 9dfb 8c49 44c0
00000150: c08a 544b 9480 3440 b02d 6ce0 36bf 22c0
00000160: 20bb 1c29 fd98 34c0 7615 f4c3 6a79 3fc0
00000170: fc5f 7fef b815 5640 e8f9 50a7 0daa 25c0
00000180: b88c 423b c163 55c0 401b 16ae c8bb f6bf
00000190: 825d c263 a2ab 6340 9a4e 0bd1 c907 40c0
000001a0: c000 5185 7488 43c0 a072 c3a9 2715 1640
000001b0: d2d8 ae50 32e5 50c0 80d7 ef66 e183 2340
000001c0: e084 0844 1f55 12c0 bfde 5980 93e9 48c0
000001d0: 8066 48bc e554 1f40 f8f8 8808 97ac 30c0
000001e0: 18fa 63f9 04e0 4240 dcf7 5552 af99 32c0
000001f0: 8087 fc61 515f 0240 30af c624 52f4 14c0
00000200: 38a4 364b 2397 30c0 eadd 21eb 630c 49c0
00000210: e036 2809 31a3 3240 6055 8f95 08de 0ec0
00000220: b080 6c03 dd05 3fc0 c045 e0c6 b1a6 0740
00000230: 502b 55d9 b9a6 37c0 c0ea 06d6 e147 14c0
00000240: c846 53b7 cb3c 52c0 b4b9 679d ae23 3fc0
00000250: f067 f434 0161 3740 8835 f34b c377 2fc0
00000260: 58d1 79b0 4d17 4040 8896 bdf4 233d 23c0
00000270: 3cd6 ae53 b321 5140 9058 3b23 0744 35c0
00000280: 7c89 2d80 9382 4ec0 60bc a551 145d 11c0
00000290: 2086 f042 9f78 2ec0 978d 2622 8cf1 41c0
000002a0: 704d d5b0 0d5f 14c0 70b5 86ea 503b 16c0
000002b0: 2030 db00 4882 3440 6484 d7c7 a86c 39c0
000002c0: 4047 9aaf 0121 5540 48b4 c535 0aef 2dc0
000002d0: 582f f086 5d67 3fc0 008e e6c1 bdf4 f83f
000002e0: 80b7 c1e4 0cbb 1b40 60a0 266b 588e 00c0
000002f0: 906c a799 a272 2dc0 a0d7 0777 6740 15c0
00000300: d2d8 ae50 32e5 5040 80d7 ef66 e183 23c0
00000310: 282d dad5 dafc 4b40 3004 5901 9087 26c0
00000320: d814 3c93 a14e 56c0 303f 8cba 24b8 2d40
00000330: 302b 8bf8 579e 3ac0 8054 38ac d356 f3bf
00000340: 28c8 5e34 a045 3740 a0b3 f226 5568 28c0
00000350: c63d fd68 7a06 5ec0 049c e289 5f72 4ec0
00000360: 20f1 d584 ece1 2ec0 0004 c8a1 f29d f93f
00000370: 8808 26d9 c249 3340 605a a67f 4d74 15c0
00000380: 4858 6b04 238a 5940 5e15 2b54 6331 44c0
00000390: 5648 4dbf f84e 52c0 c788 38fc 6a60 47c0
000003a0: 00ed ff53 af66 23c0 ac02 7f18 ad34 45c0
000003b0: 60f5 8e87 44be 3940 80b3 69d8 2f82 4dc0
000003c0: 4087 7114 b6a8 fa3f 405c 62d3 54bc 0ac0
000003d0: c8d9 bbf3 c036 34c0 f029 78eb 4008 1340
000003e0: 1400 629c e202 49c0 50da 3662 2c15 1240
000003f0: 8808 26d9 c249 33c0 605a a67f 4d74 1540
00000400: 001d 37b9 f2a3 3440 c0ea 9a5b f149 26c0
00000410: 20f0 d316 de39 27c0 b032 1375 6963 10c0
00000420: 04d7 e28e 9a92 4940 2c8a 1ca9 a2d0 4cc0
00000430: 8414 6c41 9be7 5ac0 4cdf c63b 7ab7 38c0
00000440: 40c8 9b9b 3a06 4740 9b71 e4eb 3a62 45c0
00000450: 10be 8ee8 e3bf 3840 e068 e3c9 cd60 10c0
00000460: 70f3 d6cb 03c6 2140 081c 094c 9f75 34c0
00000470: e088 acee bbe6 16c0 005c 6522 1cc5 bf3f
00000480: 6e47 9d9c 3a4c 6240 b27b 613b 039f 36c0
00000490: 8215 d593 7d76 5240 8a9f bf63 f416 49c0
000004a0: 78c2 5d29 fa19 32c0 0008 f562 f0fb c93f
000004b0: 1857 8939 50e6 3e40 9ab6 53ef 693f 48c0
000004c0: 404d 70ab 6c73 f53f 12c9 f35a eaf5 50c0
000004d0: 30bf c4da 38a0 5a40 608b 2d6b d05e 40c0
000004e0: d019 afc2 9307 56c0 383b f553 3545 21c0
000004f0: 7f24 b35e de44 52c0 ba52 dc96 b5d9 40c0
00000500: 38b6 8909 ffde 42c0 b04e 6721 da49 1a40
00000510: 8485 26a8 1cc2 5a40 314a efb5 7015 4bc0
00000520: b8be c13a f340 4e40 febc e929 204c 44c0
00000530: 00a1 ad54 cc17 fb3f a01b 41d2 665d 46c0
00000540: 60b5 a856 d081 34c0 5f9d 792d 2e93 44c0
00000550: 80cc 1adb 7ee2 40c0 7cd7 5e3a 8850 45c0
00000560: 843b 433f c7bb 5040 3035 202c 8b22 36c0
00000570: aa25 d907 bf27 5740 cfdf b1ce df6d 44c0
00000580: 2c3b a3da dac9 46c0 a014 23d0 d98f 1f40
00000590: a84c e1af 8473 3dc0 c0e7 6523 e17a 2140
000005a0: d099 8bdc 0460 2740 a405 7de5 4f00 41c0
000005b0: 80a6 c686 eb54 00c0 00ae 78d0 4ac6 0ac0
000005c0: e028 7fa8 81c6 1bc0 4064 1274 eee1 f2bf
000005d0: 9080 4149 71f4 5440 63b9 bfe9 4b96 40c0
000005e0: 0033 4857 aeea 4840 a916 89e0 1caa 47c0
000005f0: c8b3 3fc8 379e 3a40 14e2 5319 d8b8 33c0
00000600: d4d9 d646 09e9 30c0 f29f 3f74 7373 40c0
00000610: 52fc f18e cb0c 5fc0 e48c 5737 ee8d 36c0
00000620: 6095 f554 fc9c 15c0 008c ec3a e133 ed3f
00000630: a09c ca90 c289 2bc0 68df a844 77da 27c0
