GeologicalScience/VolcanicEruption/code/volcanoinference/distance_learning/cross-valid-results/epsilon_sensitivity_study/sdml_param_distancesepsilon_0.62.npy (npy, 1728 bytes, 1 tensors)

array f8 [100, 2]
0	0x4062e8f5d730d25a	151.280009837489
1	0xc0369c2621b230c0	-22.609956842425845
2	0xc05615b8ef7f5ffc	-88.33941256941756
3	0x4025aa0da750f9e8	10.832135418543615
4	0xc01ee24c06827020	-7.720993138991645
5	0x40051ad6a10b0c80	2.638104684972461
6	0xc063ba619fddcb7c	-157.82441705054578
7	0x403342fda1991e70	19.261682605631393
8	0xc03edc29a8f33ba0	-30.86001068056396
9	0x401265b18a132d10	4.599310071392452
10	0x40438874855100c0	39.06605593161794
11	0xc0161527a9c372a0	-5.520659115366158
12	0xc052f40e07ba293e	-75.81335633449359
13	0x4027281b8374a978	11.57833491133782
14	0x405bcf2b388ae3fe	111.23701299251113
15	0xc030c86299b8adc4	-16.782754523837653
16	0xc01ad94d0cde9e00	-6.712207985961413
17	0x4003bbfcbc7d1560	2.46679064995503
18	0xc04110bf27c931fc	-34.13083360027301
19	0x404eb91503015c4a	61.44595372740203
20	0xbff167b3c3ece940	-1.0878179219567556
21	0xbfc92fd6bfcef200	-0.19677242627757607
22	0x405118e0d4be87c0	68.38872259718391
23	0xc023316d79447f38	-9.59653834305901
24	0xbff7734031448f00	-1.4656373905681335
25	0xbfbdb800af9a6800	-0.1160889080732943
26	0xc05d36f3df4915f0	-116.85863477837825
27	0x403384b9ad676fae	19.518458211663237
28	0x40517d0e0372631c	69.95398031397457
29	0xc02203fdb05caed0	-9.007794867814852
30	0x40454624ae82d758	42.54799443615656
31	0xc0266872a7083490	-11.203999728919626
32	0x40564ea1933c14d8	89.22861176364256
33	0xc02db824ba8c3f30	-14.859655217761969
34	0x4037b9953d137f20	23.724933449993046
35	0xbff945db0db4f920	-1.5795546088625727
36	0x402e290cce0cad30	15.080175818488527
37	0xc00073625d4e4540	-2.0563399590979827
38	0x3ff41e2eb4622900	1.2573687597492267
39	0x3fc3769388680800	0.15205616150348078
40	0xc035ed7cfc792188	-21.927688388417238
41	0x3ff66d777e83ee20	1.4017252866750667
42	0x400e74ad354a7d00	3.8069709933621425
43	0xbfe267b53eb22600	-0.5751596664933345
44	0xc052a5c901f99af8	-74.59039353728792
45	0x4023fae55f1002fc	9.990031214432285
46	0x405615b8ef7f5ffc	88.33941256941756
47	0xc025aa0da750f9e8	-10.832135418543615
48	0xc05a216c50cba4c4	-104.52223606001922
49	0x40320096d14307d2	18.0023012913369
50	0x4063ba619fddcb7c	157.82441705054578
51	0xc03342fda1991e70	-19.261682605631393
52	0xc0438874855100c0	-39.06605593161794
53	0x40161527a9c372a0	5.520659115366158
54	0xc032a331092836e0	-18.637466976469
55	0x400ede08958f5560	3.858414810597125
56	0xc02f422c515ba680	-15.629244368016998
57	0x4000d6ee0ad0ec90	2.104946217060906
58	0x4023de766932d1e0	9.934497153714744
59	0xbff9e913e45f6c40	-1.619403736191785
60	0xc028ffa3ea4b4300	-12.49929744881365
61	0x3ffa66a53a7ad4e0	1.6500599178664785
62	0xc03092f4ce7dc8a0	-16.57404795237437
63	0x400a267501d34d00	3.2687778608902818
64	0x40314ec893a9fd2c	17.30774805927392
65	0xc0034fc4529bd460	-2.413948674564878
66	0x4032a331092836e0	18.637466976469
67	0xc00ede08958f5560	-3.858414810597125
68	0xc039629e91772640	-25.385232059087002
69	0x401e8d18270de1d0	7.637787447187705
70	0x403130d61631efd8	17.190766703788398
71	0xc0150ab7e36a94c0	-5.260467103367034
72	0xc025c99599cf5360	-10.893719488676368
73	0x4006e7cc59e0e170	2.863182737517654
74	0x403092f4ce7dc8a0	16.57404795237437
75	0xc00a267501d34d00	-3.2687778608902818
76	0xc035695ecda87610	-21.41160283434698
77	0x400c91dfcff781e0	3.571227669468712
78	0x40593218ee4ef7a4	100.7827716609159
79	0xc02ec0542f20c718	-15.375642273665605
80	0xc055704150f6d36e	-85.75398658851711
81	0x4031a5bc43bac2e8	17.647403939338716
82	0xc0517d0e0372631c	-69.95398031397457
83	0x402203fdb05caed0	9.007794867814852
84	0x40159cfc54f59560	5.403306319703319
85	0xbfed33e13aec8c00	-0.9125829840526194
86	0x40447e0318838878	40.98446947500719
87	0xc023be3d63f7cdf8	-9.87156212234457
88	0x403c8a5112b4c2b0	28.54029957688425
89	0xc00d9de8d1b2c060	-3.7021042235065096
90	0xc04d307fde808e74	-58.37890225674792
91	0x402feb0e167f5350	15.959091856997162
92	0x401bbb0ce4c1b780	6.932666372607741
93	0xc0008e586b26a060	-2.0695045825159895
94	0x4008eec457e53980	3.1165854327038574
95	0xbfcb697df8709c00	-0.21415686255315336
96	0x4050e53250aed8d2	67.58119599413774
97	0xc02383e166efd780	-9.757579056527675
98	0xc03c8a5112b4c2b0	-28.54029957688425
99	0x400d9de8d1b2c060	3.7021042235065096
100	0xc0564ea1933c14d8	-89.22861176364256
101	0x402db824ba8c3f30	14.859655217761969
102	0xc05883041d214254	-98.04712608573874
103	0x402e3c9932a992c8	15.118356307220338
104	0x4045820945f95dfc	43.01590799976472
105	0xc02a3712d28f1840	-13.107565479247683
106	0x404110bf27c931fc	34.13083360027301
107	0xc04eb91503015c4a	-61.44595372740203
108	0x4017e1a22cf5f600	5.970345213424935
109	0xbfff85ccfe26ffc0	-1.9701661994767932
110	0x404c83e0761cba7c	57.030287517573896
111	0xc027df13d086d488	-11.935698048075452
112	0x406370961ef4d164	155.51832530799868
113	0xc031f72d960a0d20	-17.965539338544772
114	0xc040779ea213862c	-32.93452859834028
115	0x3ff572352c2b7920	1.3403827405341602
116	0xc031e89406049d40	-17.90850865948346
117	0x3ff72d653db94f00	1.4485828791702602
118	0x405ba2170688f1bf	110.53265536664456
119	0xc02b9dc7e3238afa	-13.808165643776636
120	0xc029f847142f1000	-12.984917288536963
121	0x4008f543b01ca120	3.1197580107438085
122	0xc0436cf8fe720854	-38.85134869163508
123	0x40213ba29b1fea50	8.61647495998946
124	0xc008eec457e53980	-3.1165854327038574
125	0x3fcb697df8709c00	0.21415686255315336
126	0xc00e74ad354a7d00	-3.8069709933621425
127	0x3fe267b53eb22600	0.5751596664933345
128	0x406505eeec085bd0	168.18541528351352
129	0xc03bdafb116f9cc4	-27.855393495320428
130	0x4041a57ed12eb074	35.29293265132665
131	0xc020cea4f3c34410	-8.403602235399404
132	0x40608c94bd55aa0e	132.39315668803505
133	0xc029935ec8308678	-12.7878325041995
134	0x405672138533702b	89.78244142554529
135	0xc02931c9089211c0	-12.597236888724069
136	0xc037b9953d137f20	-23.724933449993046
137	0x3ff945db0db4f920	1.5795546088625727
138	0x4038bfe3e88ebe10	24.749571356629588
139	0xc01060cdc9e368e0	-4.094535021309838
140	0xc0447e0318838878	-40.98446947500719
141	0x4023be3d63f7cdf8	9.87156212234457
142	0xc038e64d343ebce0	-24.89961554080662
143	0x401b3acd91f9b020	6.80742481314158
144	0x403a38164fedc3e0	26.219090457485322
145	0xbffd89a4288ecbc0	-1.8461038193024564
146	0x405a73f4773c0282	105.81179600582439
147	0xc02a263fc18d52e4	-13.074705170155944
148	0xc038bfe3e88ebe10	-24.749571356629588
149	0x401060cdc9e368e0	4.094535021309838
150	0xc025b09b09081ba0	-10.84493282531713
151	0x4004e6cc83a41620	2.6126947674226955
152	0xc0419610eb176ffe	-35.17239130634697
153	0xc001f4318348a120	-2.2442350632228596
154	0x403ce4afee8deb88	28.89330950703473
155	0xc011e72a46de7da0	-4.475747210817104
156	0xc04a543b23a999c0	-52.65805478841094
157	0x40146904a9852e58	5.1025568473374605
158	0xc05672138533702b	-89.78244142554529
159	0x402931c9089211c0	12.597236888724069
160	0x401ee24c06827020	7.720993138991645
161	0xc0051ad6a10b0c80	-2.638104684972461
162	0x405795a7679c2c8a	94.33834257365575
163	0xc02c329a7a36c8c0	-14.098834819018862
164	0x404f26a449881cb8	62.30188864847281
165	0xc022dc1a048a7804	-9.429885999586993
166	0x4031e89406049d40	17.90850865948346
167	0xbff72d653db94f00	-1.4485828791702602
168	0x4025c99599cf5360	10.893719488676368
169	0xc006e7cc59e0e170	-2.863182737517654
170	0x402f422c515ba680	15.629244368016998
171	0xc000d6ee0ad0ec90	-2.104946217060906
172	0xc03ce4afee8deb88	-28.89330950703473
173	0x4011e72a46de7da0	4.475747210817104
174	0x4052f40e07ba293e	75.81335633449359
175	0xc027281b8374a978	-11.57833491133782
176	0xc01bbb0ce4c1b780	-6.932666372607741
177	0x40008e586b26a060	2.0695045825159895
178	0xc0245383ad768840	-10.163113995284334
179	0x400b02e98e4aea40	3.3764220348942047
180	0xc05ae334ca09353e	-107.55009699725358
181	0x40267cc5dc24b02c	11.243697051504647
182	0xc04418d0ae84fa80	-40.19386846058933
183	0x40207c4ae0644b00	8.242758762591166
184	0xc0408680edf1e960	-33.0508096152505
185	0x401e4a69b9fed1d0	7.572668939760163
186	0x4025d067ae334240	10.907041019208123
187	0xbff1928b5c3687a0	-1.0982774355002007
188	0xc03a38164fedc3e0	-26.219090457485322
189	0x3ffd89a4288ecbc0	1.8461038193024564
190	0x40260cb1f51b4f20	11.024795207580212
191	0xc0071c3a068f9e00	-2.888782550103997
192	0xc039cabda8c240fc	-25.791956469941383
193	0x4011925e064900f8	4.392936800199315
194	0x4012dbd306d0af60	4.714672190177083
195	0x3f922153b93b3000	0.017705257588019663
196	0xc0159cfc54f59560	-5.403306319703319
197	0x3fed33e13aec8c00	0.9125829840526194
198	0xc0260cb1f51b4f20	-11.024795207580212
199	0x40071c3a068f9e00	2.888782550103997
