GeologicalScience/VolcanicEruption/code/volcanoinference/distance_learning/cross-valid-results/epsilon_sensitivity_study/sdml_param_distancesepsilon_0.52.npy (npy, 1728 bytes, 1 tensors)

array f8 [100, 2]
000000 5a d2 30 d7 f5 e8 62 40 c0 30 b2 21 26 9c 36 c0
       151.280009837489 -22.609956842425845
000010 6c 75 76 4c 2c 55 50 c0 60 2a db 3e 5a 52 22 40
       -65.33082877701025 9.160844768766026
000020 20 70 82 06 4c e2 1e c0 80 0c 0b a1 d6 1a 05 40
       -7.720993138991645 2.638104684972461
000030 64 da 6c c2 ad 35 31 40 c6 6d d1 cf c1 4f 3d 40
       17.209682609153234 29.311551083211974
000040 5a d2 30 d7 f5 e8 62 c0 c0 30 b2 21 26 9c 36 40
       -151.280009837489 22.609956842425845
000050 92 2b c5 1f 8a 29 68 40 d0 74 b9 72 d3 4a 18 c0
       193.29811085233501 -6.0730722356504
000060 d2 44 15 34 70 73 58 c0 94 d4 e3 26 bd c3 27 40
       -97.80372335507425 11.882302489577604
000070 f4 65 61 0e 30 4b 47 c0 60 85 03 3f d8 d4 03 40
       -46.58740405803465 2.4789280817937396
000080 00 9e de 0c 4d d9 1a c0 60 15 7d bc fc bb 03 40
       -6.712207985961413 2.46679064995503
000090 92 2b c5 1f 8a 29 68 c0 d0 74 b9 72 d3 4a 18 40
       -193.29811085233501 6.0730722356504
0000a0 be f5 9f 7c bd bb 4d c0 88 17 80 bb 4e 86 2f 40
       -59.466720178704676 15.762319430719586
0000b0 c0 87 be d4 e0 18 51 40 38 7f 44 79 6d 31 23 c0
       68.38872259718391 -9.59653834305901
0000c0 c0 87 be d4 e0 18 51 c0 38 7f 44 79 6d 31 23 40
       -68.38872259718391 9.59653834305901
0000d0 f0 15 49 df f3 36 5d c0 ae 6f 67 ad b9 84 33 40
       -116.85863477837825 19.518458211663237
0000e0 00 29 62 b4 2e 1e f4 bf 00 08 68 88 93 76 c3 bf
       -1.2573687597492267 -0.15205616150348078
0000f0 28 2d da d5 da fc 4b c0 30 04 59 01 90 87 26 40
       -55.975428325206224 11.26477054797769
000100 d8 14 3c 93 a1 4e 56 40 30 3f 8c ba 24 b8 2d c0
       89.22861176364256 -14.859655217761969
000110 d0 f1 50 a5 a0 80 4e 40 10 51 97 a2 cf c8 22 c0
       61.00490251972553 -9.392209130259772
000120 30 ad 0c ce 0c 29 2e 40 40 45 4e 5d 62 73 00 c0
       15.080175818488527 -2.0563399590979827
000130 00 29 62 b4 2e 1e f4 3f 00 08 68 88 93 76 c3 3f
       1.2573687597492267 0.15205616150348078
000140 0a 9f f0 89 82 ac 55 c0 40 c8 57 a5 8e 55 24 40
       -86.69546745775384 10.167103926625828
000150 00 7d 4a 35 ad 74 0e 40 00 26 b2 3e b5 67 e2 bf
       3.8069709933621425 -0.5751596664933345
000160 18 1d d8 67 c4 01 2b 40 10 d6 7b a2 8e a9 0e c0
       13.50345158112627 -3.8327915853540233
000170 fc 5f 7f ef b8 15 56 40 e8 f9 50 a7 0d aa 25 c0
       88.33941256941756 -10.832135418543615
000180 90 35 05 e7 41 60 47 c0 18 8d 9a b5 80 b2 11 40
       -46.75201118234975 4.424319112356237
000190 f4 65 61 0e 30 4b 47 40 60 85 03 3f d8 d4 03 c0
       46.58740405803465 -2.4789280817937396
0001a0 c0 00 51 85 74 88 43 c0 a0 72 c3 a9 27 15 16 40
       -39.06605593161794 5.520659115366158
0001b0 c8 d9 bb f3 c0 36 34 40 f0 29 78 eb 40 08 13 c0
       20.21388171516608 -4.758060149392335
0001c0 28 34 c8 c2 6c 88 3b c0 30 aa 85 f9 d2 3a 22 40
       -27.5329095591334 9.114890859190467
0001d0 f0 3c d0 b2 a0 75 49 40 80 bb 83 e0 5f fb 26 c0
       50.91896662872193 -11.490965858536356
0001e0 cc dd bf c9 20 75 53 c0 fc 84 2a e6 2e 9f 25 40
       -77.8301262258239 10.810904686632504
0001f0 a0 c8 7d ce f4 92 30 c0 00 4d d3 01 75 26 0a 40
       -16.57404795237437 3.2687778608902818
000200 40 56 e2 a2 f1 a2 3b c0 c0 f3 a1 bc ce 53 fd 3f
       -27.636499576814685 1.8329608314954697
000210 e0 36 28 09 31 a3 32 40 60 55 8f 95 08 de 0e c0
       18.637466976469 -3.858414810597125
000220 58 52 8c 94 12 c7 3a 40 08 6f ef 14 8d ed 22 c0
       26.777627262361733 -9.463966993549107
000230 d8 ef 31 16 d6 30 31 40 c0 94 6a e3 b7 0a 15 c0
       17.190766703788398 -5.260467103367034
000240 60 53 cf 99 95 c9 25 c0 70 e1 e0 59 cc e7 06 40
       -10.893719488676368 2.863182737517654
000250 a4 f7 4e ee 18 32 59 c0 18 c7 20 2f 54 c0 2e 40
       -100.7827716609159 15.375642273665605
000260 00 f6 f5 2c a2 e1 17 c0 c0 ff 26 fe cc 85 ff 3f
       -5.970345213424935 1.9701661994767932
000270 a4 f7 4e ee 18 32 59 40 18 c7 20 2f 54 c0 2e c0
       100.7827716609159 -15.375642273665605
000280 6e d3 f6 50 41 70 55 c0 e8 c2 ba 43 bc a5 31 40
       -85.75398658851711 17.647403939338716
000290 00 b8 f1 f1 7c 32 29 c0 58 f1 5f c0 fa 70 15 40
       -12.598609505421337 5.3603315409239585
0002a0 60 95 f5 54 fc 9c 15 40 00 8c ec 3a e1 33 ed bf
       5.403306319703319 -0.9125829840526194
0002b0 78 88 83 18 03 7e 44 40 f8 cd f7 63 3d be 23 c0
       40.98446947500719 -9.87156212234457
0002c0 b0 c2 b4 12 51 8a 3c 40 60 c0 b2 d1 e8 9d 0d c0
       28.54029957688425 -3.7021042235065096
0002d0 fc ec 3c ee 84 fc 49 c0 a0 01 84 67 70 8d 2e 40
       -51.97280672049416 15.276248202194267
0002e0 80 b7 c1 e4 0c bb 1b 40 60 a0 26 6b 58 8e 00 c0
       6.932666372607741 -2.0695045825159895
0002f0 d8 ef 31 16 d6 30 31 c0 c0 94 6a e3 b7 0a 15 40
       -17.190766703788398 5.260467103367034
000300 a8 32 c3 7e 19 cb 53 40 c8 41 93 61 c3 96 2e c0
       79.1734311014394 -15.294459389901832
000310 b0 c2 b4 12 51 8a 3c c0 60 c0 b2 d1 e8 9d 0d 40
       -28.54029957688425 3.7021042235065096
000320 a8 32 c3 7e 19 cb 53 c0 c8 41 93 61 c3 96 2e 40
       -79.1734311014394 15.294459389901832
000330 c0 0b 1d 82 d7 9f 19 40 00 1b b5 ef da d9 e5 bf
       6.406095536253758 -0.6828436548028947
000340 fc 5d f9 45 09 82 45 40 40 18 8f d2 12 37 2a c0
       43.01590799976472 -13.107565479247683
000350 c6 3d fd 68 7a 06 5e c0 04 9c e2 89 5f 72 4e c0
       -120.10122132044407 -60.893540607117785
000360 00 f6 f5 2c a2 e1 17 40 c0 ff 26 fe cc 85 ff bf
       5.970345213424935 -1.9701661994767932
000370 d0 71 f9 64 5a f6 2e 40 a0 15 d0 d7 56 27 13 c0
       15.481158404779222 -4.788417217326611
000380 0a 9f f0 89 82 ac 55 40 40 c8 57 a5 8e 55 24 c0
       86.69546745775384 -10.167103926625828
000390 28 34 c8 c2 6c 88 3b 40 30 aa 85 f9 d2 3a 22 c0
       27.5329095591334 -9.114890859190467
0003a0 40 9d 04 06 94 e8 31 c0 00 4f b9 3d 65 2d f7 3f
       -17.90850865948346 1.4485828791702602
0003b0 40 dc 58 20 2f 13 27 40 28 ac 21 36 99 be 0a c0
       11.537468920561992 -3.343065665152171
0003c0 00 10 2f 14 47 f8 29 c0 20 a1 1c b0 43 f5 08 40
       -12.984917288536963 3.1197580107438085
0003d0 c8 d9 bb f3 c0 36 34 c0 f0 29 78 eb 40 08 13 40
       -20.21388171516608 4.758060149392335
0003e0 00 10 2f 14 47 f8 29 40 20 a1 1c b0 43 f5 08 c0
       12.984917288536963 -3.1197580107438085
0003f0 00 7d 4a 35 ad 74 0e c0 00 26 b2 3e b5 67 e2 3f
       -3.8069709933621425 0.5751596664933345
000400 d0 5b 08 ec ee 05 65 40 c4 9c 6f 11 fb da 3b c0
       168.18541528351352 -27.855393495320428
000410 fc ec 3c ee 84 fc 49 40 a0 01 84 67 70 8d 2e c0
       51.97280672049416 -15.276248202194267
000420 00 63 3f c2 99 80 0f c0 10 ea 4d b6 4a e6 08 c0
       -3.9377932715982524 -3.1124471895721015
000430 b4 a0 46 8e cf 0f 44 40 c8 7b 33 c6 6e bc 20 c0
       40.1235215992796 -8.36803264025174
000440 60 db c2 08 94 23 3b c0 e0 ae cb d3 34 51 15 c0
       -27.138977572987073 -5.3293030827587415
000450 10 be 8e e8 e3 bf 38 40 e0 68 e3 c9 cd 60 10 c0
       24.749571356629588 -4.094535021309838
000460 78 88 83 18 03 7e 44 c0 f8 cd f7 63 3d be 23 40
       -40.98446947500719 9.87156212234457
000470 80 7c 97 fa 83 e4 2a c0 60 37 1e 82 ff 18 06 40
       -13.44631941889952 2.762206093356255
000480 47 58 71 7d 3a 77 60 40 68 d2 20 a4 7a 6b 15 c0
       131.72588989389098 -5.354960026267328
000490 38 17 17 55 a9 f6 62 40 20 4c c6 d6 0f 35 07 c0
       151.70817045698072 -2.9009091166749528
0004a0 60 0c 4e 17 fd cb 4a 40 00 77 bb e8 9b 61 2a c0
       53.593661225423375 -13.190642617114918
0004b0 00 40 b1 49 8a 0f bc 3f b0 80 d2 e4 3e 5a 11 40
       0.10961212443476143 4.33813054594809
0004c0 64 da 6c c2 ad 35 31 c0 c6 6d d1 cf c1 4f 3d c0
       -17.209682609153234 -29.311551083211974
0004d0 50 4e 9a 4c 6d a9 5c 40 50 62 72 d5 86 1f 36 c0
       114.64729609555184 -22.12315115015582
0004e0 b8 22 da 45 16 ba 4c 40 40 6d 22 03 55 d0 05 c0
       57.45380471373704 -2.7267246479874814
0004f0 2a 5a 53 68 88 6c 4c c0 9c a2 0c 63 82 83 26 40
       -56.84791282720501 11.256854148189909
000500 20 70 82 06 4c e2 1e 40 80 0c 0b a1 d6 1a 05 c0
       7.720993138991645 -2.638104684972461
000510 28 4e 7a 9e 31 38 3b c0 90 4f 0f 77 1f 7e 11 40
       -27.21950712667436 4.373166904744622
000520 9b 9e f4 8e 01 06 56 40 80 f8 ae 07 49 a5 2b c0
       88.0938451184142 -13.822822799786309
000530 40 9d 04 06 94 e8 31 40 00 4f b9 3d 65 2d f7 bf
       17.90850865948346 -1.4485828791702602
000540 90 35 05 e7 41 60 47 40 18 8d 9a b5 80 b2 11 c0
       46.75201118234975 -4.424319112356237
000550 00 40 b1 49 8a 0f bc bf b0 80 d2 e4 3e 5a 11 c0
       -0.10961212443476143 -4.33813054594809
000560 6e d3 f6 50 41 70 55 40 e8 c2 ba 43 bc a5 31 c0
       85.75398658851711 -17.647403939338716
000570 f0 15 49 df f3 36 5d 40 ae 6f 67 ad b9 84 33 c0
       116.85863477837825 -19.518458211663237
000580 80 b7 c1 e4 0c bb 1b c0 60 a0 26 6b 58 8e 00 40
       -6.932666372607741 2.0695045825159895
000590 40 88 76 ad 83 53 24 c0 40 ea 4a 8e e9 02 0b 40
       -10.163113995284334 3.3764220348942047
0005a0 b0 d3 42 b3 fb 90 20 c0 70 06 05 cf c2 1b 18 40
       -8.283170320422727 6.0271103236024
0005b0 80 fa 84 ae d0 18 44 c0 00 4b 64 e0 4a 7c 20 40
       -40.19386846058933 8.242758762591166
0005c0 60 0c 4e 17 fd cb 4a c0 00 77 bb e8 9b 61 2a 40
       -53.593661225423375 13.190642617114918
0005d0 cc dd bf c9 20 75 53 40 fc 84 2a e6 2e 9f 25 c0
       77.8301262258239 -10.810904686632504
0005e0 28 4e 7a 9e 31 38 3b 40 90 4f 0f 77 1f 7e 11 c0
       27.21950712667436 -4.373166904744622
0005f0 20 4f 1b f5 b1 0c 26 40 00 9e 8f 06 3a 1c 07 c0
       11.024795207580212 -2.888782550103997
000600 18 1d d8 67 c4 01 2b c0 10 d6 7b a2 8e a9 0e 40
       -13.50345158112627 3.8327915853540233
000610 b4 a0 46 8e cf 0f 44 c0 c8 7b 33 c6 6e bc 20 40
       -40.1235215992796 8.36803264025174
000620 90 c0 1f 1d 25 e0 47 c0 c8 91 45 bb 26 0f 29 40
       -47.75113262224579 12.529592373125425
000630 20 4f 1b f5 b1 0c 26 c0 00 9e 8f 06 3a 1c 07 40
       -11.024795207580212 2.888782550103997
