GeologicalScience/VolcanicEruption/code/volcanoinference/distance_learning/cross-valid-results/epsilon_sensitivity_study/sdml_param_distancesepsilon_0.40.npy (npy, 1728 bytes, 1 tensors)

array f8 [100, 2]
00000000: 5ad2 30d7 f5e8 6240 c030 b221 269c 36c0
00000010: 0043 4bea a3ff 2840 e0d4 7a3a a566 fabf
00000020: e088 acee bbe6 1640 005c 6522 1cc5 bfbf
00000030: 64d1 f41e 9670 63c0 200d 0a96 2df7 3140
00000040: 4852 c66e b265 44c0 2008 2b83 f6df 1840
00000050: c000 5185 7488 4340 a072 c3a9 2715 16c0
00000060: 3e29 ba07 0ef4 52c0 78a9 7483 1b28 2740
00000070: f465 610e 304b 47c0 6085 033f d8d4 0340
00000080: 009e de0c 4dd9 1ac0 6015 7dbc fcbb 0340
00000090: fc31 c927 bf10 41c0 4a5c 0103 15b9 4e40
000000a0: 40e9 ecc3 b367 f1bf 00f2 cebf d62f c9bf
000000b0: b0a5 9e31 33f5 40c0 f081 f24f 1328 0640
000000c0: e0d4 73f0 0bee 2bc0 602e 812f 258b f83f
000000d0: 64d9 1daf cb85 44c0 c86b b4ae afc2 1f40
000000e0: 0029 62b4 2e1e f4bf 0008 6888 9376 c3bf
000000f0: 282d dad5 dafc 4bc0 3004 5901 9087 2640
00000100: d814 3c93 a14e 5640 303f 8cba 24b8 2dc0
00000110: b882 b529 8506 4b40 c0d8 bf52 6ddf 18c0
00000120: 30ad 0cce 0c29 2e40 4045 4e5d 6273 00c0
00000130: 0029 62b4 2e1e f43f 0008 6888 9376 c33f
00000140: 8821 79fc 7ced 35c0 20ee 837e 776d f63f
00000150: 007d 4a35 ad74 0e40 0026 b23e b567 e2bf
00000160: 181d d867 c401 2b40 10d6 7ba2 8ea9 0ec0
00000170: b0a5 9e31 33f5 4040 f081 f24f 1328 06c0
00000180: 0872 0f25 cba7 40c0 f400 4b40 0a4b 2240
00000190: f465 610e 304b 4740 6085 033f d8d4 03c0
000001a0: c000 5185 7488 43c0 a072 c3a9 2715 1640
000001b0: c8d9 bbf3 c036 3440 f029 78eb 4008 13c0
000001c0: 80a6 5b51 2c42 2fc0 90ec d00a eed6 0040
000001d0: e0d1 3269 76de 2340 406c 5fe4 13e9 f9bf
000001e0: 0043 4bea a3ff 28c0 e0d4 7a3a a566 fa3f
000001f0: a0c8 7dce f492 30c0 004d d301 7526 0a40
00000200: 3a37 c05e 1088 5ac0 7a95 7871 a4e6 44c0
00000210: e036 2809 31a3 3240 6055 8f95 08de 0ec0
00000220: 4026 7791 9e62 39c0 d0e1 0d27 188d 1e40
00000230: 1071 2b8c 271a 32c0 c0e6 3708 2425 0940
00000240: 6053 cf99 95c9 25c0 70e1 e059 cce7 0640
00000250: a0c8 7dce f492 3040 004d d301 7526 0ac0
00000260: 1076 a8cd 5e69 35c0 e081 f7cf df91 0c40
00000270: a4f7 4eee 1832 5940 18c7 202f 54c0 2ec0
00000280: 6ed3 f650 4170 55c0 e8c2 ba43 bca5 3140
00000290: 0872 0f25 cba7 4040 f400 4b40 0a4b 22c0
000002a0: 6095 f554 fc9c 1540 008c ec3a e133 edbf
000002b0: e0d1 3269 76de 23c0 406c 5fe4 13e9 f93f
000002c0: b0c2 b412 518a 3c40 60c0 b2d1 e89d 0dc0
000002d0: 40e9 ecc3 b367 f13f 00f2 cebf d62f c93f
000002e0: 80b7 c1e4 0cbb 1b40 60a0 266b 588e 00c0
000002f0: 8039 e557 c4ee 0840 009c 70f8 7d69 cbbf
00000300: 8011 c7a3 401c 24c0 0053 e0e0 d4d3 dbbf
00000310: b0c2 b412 518a 3cc0 60c0 b2d1 e89d 0d40
00000320: d814 3c93 a14e 56c0 303f 8cba 24b8 2d40
00000330: c00b 1d82 d79f 1940 001b b5ef dad9 e5bf
00000340: 0006 14de ec60 e53f c079 c257 51d9 f7bf
00000350: fc31 c927 bf10 4140 4a5c 0103 15b9 4ec0
00000360: 00f6 f52c a2e1 1740 c0ff 26fe cc85 ffbf
00000370: 8808 26d9 c249 3340 605a a67f 4d74 15c0
00000380: 64d1 f41e 9670 6340 200d 0a96 2df7 31c0
00000390: 2a5a 5368 886c 4c40 9ca2 0c63 8283 26c0
000003a0: 409d 0406 94e8 31c0 004f b93d 652d f73f
000003b0: 7472 9ee1 644e 5740 e295 7cce d6c9 26c0
000003c0: 0010 2f14 47f8 29c0 20a1 1cb0 43f5 0840
000003d0: c8d9 bbf3 c036 34c0 f029 78eb 4008 1340
000003e0: 8039 e557 c4ee 08c0 009c 70f8 7d69 cb3f
000003f0: 007d 4a35 ad74 0ec0 0026 b23e b567 e23f
00000400: eeb1 4f64 59ce 6240 5806 0e39 f47f 36c0
00000410: c00b 1d82 d79f 19c0 001b b5ef dad9 e53f
00000420: 8ec5 748c bc1f 6240 923f 3014 ee25 32c0
00000430: 2b70 3385 1372 5640 c011 9208 c931 29c0
00000440: 207f 133d 95b9 37c0 20f9 b40d db45 f93f
00000450: 10be 8ee8 e3bf 3840 e068 e3c9 cd60 10c0
00000460: 7888 8318 037e 44c0 f8cd f763 3dbe 2340
00000470: e088 acee bbe6 16c0 005c 6522 1cc5 bf3f
00000480: e0c3 ed4f 1638 3a40 c0cb 8e28 a489 fdbf
00000490: 4ce8 efa4 44c1 4540 806b 0bf4 9628 0dc0
000004a0: 10be 8ee8 e3bf 38c0 e068 e3c9 cd60 1040
000004b0: a01b 0809 9bb0 25c0 2016 a483 cce6 0440
000004c0: fe6f 17eb 1096 41c0 20a1 4883 31f4 01c0
000004d0: 88eb 8dee afe4 3c40 a07d de46 2ae7 11c0
000004e0: 0000 95e3 f632 b93f 40ad 41f6 b076 ed3f
000004f0: 2b70 3385 1372 56c0 c011 9208 c931 2940
00000500: 2070 8206 4ce2 1e40 800c 0ba1 d61a 05c0
00000510: 4846 8a96 79bf 3340 888b 4d36 6a6f 10c0
00000520: b81c 8849 a426 4f40 0478 8a04 1adc 22c0
00000530: 409d 0406 94e8 3140 004f b93d 652d f7bf
00000540: 6053 cf99 95c9 2540 70e1 e059 cce7 06c0
00000550: 80a6 5b51 2c42 2f40 90ec d00a eed6 00c0
00000560: 88eb 8dee afe4 3cc0 a07d de46 2ae7 1140
00000570: 3e29 ba07 0ef4 5240 78a9 7483 1b28 27c0
00000580: 80b7 c1e4 0cbb 1bc0 60a0 266b 588e 0040
00000590: 4088 76ad 8353 24c0 40ea 4a8e e902 0b40
000005a0: f0ff b647 1c52 2e40 e0d7 b3cc 7822 ffbf
000005b0: 80fa 84ae d018 44c0 004b 64e0 4a7c 2040
000005c0: 0080 4ae7 167f f3bf 00ba 3836 40de f4bf
000005d0: 4042 33ae 67d0 2540 a087 365c 8b92 f1bf
000005e0: e0c3 ed4f 1638 3ac0 c0cb 8e28 a489 fd3f
000005f0: 204f 1bf5 b10c 2640 009e 8f06 3a1c 07c0
00000600: fc40 c2a8 bdca 39c0 f800 4906 5e92 1140
00000610: 60af d006 d3db 1240 0030 3bb9 5321 923f
00000620: 6095 f554 fc9c 15c0 008c ec3a e133 ed3f
00000630: 204f 1bf5 b10c 26c0 009e 8f06 3a1c 0740
151.280009837489 -22.609956842425845 12.49929744881365 -1.6500599178664785 5.7253262799078755 -0.12410140838379391 -155.51832530799868 17.965539338544772
-40.794507834278704 6.218713807584237 39.06605593161794 -5.520659115366158 -75.81335633449359 11.57833491133782 -46.58740405803465 2.4789280817937396
-6.712207985961413 2.46679064995503 -34.13083360027301 61.44595372740203 -1.0878179219567556 -0.19677242627757607 -33.91562481161543 2.7695680852777897
-13.964934839381783 1.5339710097931842 -41.045278443884655 7.940123300325418 -1.2573687597492267 -0.15205616150348078 -55.975428325206224 11.26477054797769
89.22861176364256 -14.859655217761969 54.050938809993966 -6.2181904725641175 15.080175818488527 -2.0563399590979827 1.2573687597492267 0.15205616150348078
-21.927688388417238 1.4017252866750667 3.8069709933621425 -0.5751596664933345 13.50345158112627 -3.8327915853540233 33.91562481161543 -2.7695680852777897
-33.31088698629543 9.146562585025528 46.58740405803465 -2.4789280817937396 -39.06605593161794 5.520659115366158 20.21388171516608 -4.758060149392335
-15.629244368016998 2.104946217060906 9.934497153714744 -1.619403736191785 -12.49929744881365 1.6500599178664785 -16.57404795237437 3.2687778608902818
-106.12599915286128 -41.80189340961347 18.637466976469 -3.858414810597125 -25.385232059087002 7.637787447187705 -18.102165947538253 3.14313513203237
-10.893719488676368 2.863182737517654 16.57404795237437 -3.2687778608902818 -21.41160283434698 3.571227669468712 100.7827716609159 -15.375642273665605
-85.75398658851711 17.647403939338716 33.31088698629543 -9.146562585025528 5.403306319703319 -0.9125829840526194 -9.934497153714744 1.619403736191785
28.54029957688425 -3.7021042235065096 1.0878179219567556 0.19677242627757607 6.932666372607741 -2.0695045825159895 3.1165854327038574 -0.21415686255315336
-10.055180662203156 -0.434804172139863 -28.54029957688425 3.7021042235065096 -89.22861176364256 14.859655217761969 6.406095536253758 -0.6828436548028947
0.6680816972222487 -1.4905560901748771 34.13083360027301 -61.44595372740203 5.970345213424935 -1.9701661994767932 19.288129398141365 -5.363576883819945
155.51832530799868 -17.965539338544772 56.84791282720501 -11.256854148189909 -17.90850865948346 1.4485828791702602 93.22490730737064 -11.394216969211758
-12.984917288536963 3.1197580107438085 -20.21388171516608 4.758060149392335 -3.1165854327038574 0.21415686255315336 -3.8069709933621425 0.5751596664933345
150.4484120899719 -22.4998202952614 -6.406095536253758 0.6828436548028947 144.99176619345639 -18.14816404512346 89.78244142554529 -12.597236888724069
-23.724933449993046 1.5795546088625727 24.749571356629588 -4.094535021309838 -40.98446947500719 9.87156212234457 -5.7253262799078755 0.12410140838379391
26.219090457485322 -1.8461038193024564 43.50990735735158 -3.644819170568951 -24.749571356629588 4.094535021309838 -10.84493282531713 2.6126947674226955
-35.17239130634697 -2.2442350632228596 28.89330950703473 -4.475747210817104 0.09843390518381057 0.9207386789034118 -89.78244142554529 12.597236888724069
7.720993138991645 -2.638104684972461 19.747949036367828 -4.108803604586576 62.30188864847281 -9.429885999586993 17.90850865948346 -1.4485828791702602
10.893719488676368 -2.863182737517654 15.629244368016998 -2.104946217060906 -28.89330950703473 4.475747210817104 75.81335633449359 -11.57833491133782
-6.932666372607741 2.0695045825159895 -10.163113995284334 3.3764220348942047 15.16037201031574 -1.9459159847442535 -40.19386846058933 8.242758762591166
-1.2185277018361376 -1.3042604558974062 10.907041019208123 -1.0982774355002007 -26.219090457485322 1.8461038193024564 11.024795207580212 -2.888782550103997
-25.791956469941383 4.392936800199315 4.714672190177083 0.017705257588019663 -5.403306319703319 0.9125829840526194 -11.024795207580212 2.888782550103997
