GeologicalScience/VolcanicEruption/code/volcanoinference/distance_learning/cross-valid-results/epsilon_sensitivity_study/sdml_param_distancesepsilon_0.68.npy (npy, 1728 bytes, 1 tensors)

array f8 [100, 2]
0	0x405300135c3915e4	76.00118165564305
1	0xc02a68777d5d24c0	-13.204036634082854
2	0x404ea31a713d9ea0	61.274244456374845
3	0xc03723a0e6cf98ea	-23.139173913653316
4	0xc03f3563821155f8	-31.208549622757317
5	0x40298a1b6304c308	12.769740194636611
6	0xc044a0af5f340a30	-41.2553519252873
7	0xc01a52617ecaf2f0	-6.580450039994261
8	0x4039311d167370f8	25.191850093063266
9	0xc033fa1db35eec80	-19.977015696215403
10	0x40438874855100c0	39.06605593161794
11	0xc0161527a9c372a0	-5.520659115366158
12	0x40389b44b01e0608	24.606516845064135
13	0xc035c94654977e02	-21.786229407296567
14	0x4058988cfa17cff6	98.38360454869675
15	0xc04ae07f2ccbfdb4	-53.75388107262134
16	0x402e1f9465dd0d50	15.061679061159026
17	0xc021393ab1a200d0	-8.611775923753527
18	0xc04110bf27c931fc	-34.13083360027301
19	0x404eb91503015c4a	61.44595372740203
20	0xbff167b3c3ece940	-1.0878179219567556
21	0xbfc92fd6bfcef200	-0.19677242627757607
22	0x405a2b1650ab7290	104.67323700659676
23	0xc03c501e0fa7d1e0	-28.312958696815144
24	0x405145531819e03e	69.0831966641135
25	0xc0405785c21c148c	-32.68376947756869
26	0x40101ada6838fd00	4.026223782041825
27	0xc0375ed6cb92c7d8	-23.370465014777295
28	0x403e1a01496c0ba0	30.101582135084413
29	0xc0454f87dd8e895b	-42.62133378467362
30	0xc0552101af9a4740	-84.51572790209048
31	0x402def0a35c5b448	14.9668747714842
32	0x40241c40a3c71180	10.055180662203156
33	0x3fdbd3d4e0e05300	0.434804172139863
34	0x404b068529b582b8	54.050938809993966
35	0xc018df6d52bfd8c0	-6.2181904725641175
36	0x40595b688a2dcc98	101.42825560066774
37	0xc036ceb58a7c66d0	-22.8074575952258
38	0xc0518c4dbcc6e638	-70.19224471496352
39	0xc035bab9d416c686	-21.729398017464085
40	0xc045f582d6f2c7ec	-43.9180554089979
41	0x3ffb4a8499fd4700	1.7056928649148517
42	0x400e74ad354a7d00	3.8069709933621425
43	0xbfe267b53eb22600	-0.5751596664933345
44	0xc043bbee11ed0a58	-39.46820282053221
45	0xc036f7879a88000a	-22.966912897303736
46	0x403af18161f4fd00	26.943380472480385
47	0xc022450b6e298c04	-9.134852831432006
48	0xc035c4d3570ad4c8	-21.768849792618113
49	0xc0421a2cd74fa91c	-36.2044934405296
50	0x4036d9cc87ca9a10	22.850777136767704
51	0xc035c6c449df5804	-21.776432625796602
52	0xc0438874855100c0	-39.06605593161794
53	0x40161527a9c372a0	5.520659115366158
54	0x403436c0f3bbd9c8	20.21388171516608
55	0xc0130840eb7829f0	-4.758060149392335
56	0xc02f422c515ba680	-15.629244368016998
57	0x4000d6ee0ad0ec90	2.104946217060906
58	0x4049765be088c770	50.924678866182944
59	0xc031957dfb58ae20	-17.583953580046114
60	0x4051a32018def27a	70.54883405468163
61	0xc04048a9c1c44758	-32.567680569495394
62	0x4042a0a3dc666436	37.25500063895781
63	0xc0312cc88e6d11e0	-17.174935247066855
64	0xc0521e616048f0e0	-72.47469336627137
65	0x40245dd7f3eb1ca8	10.183288214159191
66	0x4032a331092836e0	18.637466976469
67	0xc00ede08958f5560	-3.858414810597125
68	0x40255a2cfef04650	10.676124541120913
69	0xc018852c620d08a0	-6.130052120252145
70	0xc061e644134ddb4a	-143.19580998617522
71	0x403e16b89fa6e474	30.088754633183683
72	0x402c2dcb542fd950	14.089441901055267
73	0xc042e2002864eca8	-37.765629815368186
74	0x404207da8877a4b4	36.061356600207915
75	0xc02b8922448d7538	-13.76783956743985
76	0xbfebcccf5e060200	-0.8687512241741047
77	0xc0005fbc5ef8b680	-2.0467460078860427
78	0x40596346c9f371c4	101.55119560979716
79	0xc034bd68bff57c20	-20.73987960570605
80	0x402d6ef23674bd00	14.716691686392096
81	0xc0277897a54f8ff0	-11.735531965219678
82	0xc02e789f42f08620	-15.235590068684417
83	0xc041f18c22268d97	-35.887089032006024
84	0xc051a32018def27a	-70.54883405468163
85	0x404048a9c1c44758	32.567680569495394
86	0x40447ebe463c12f8	40.9901817124682
87	0xc02fedd97a256eb8	-15.964549843854329
88	0x40552101af9a4740	84.51572790209048
89	0xc02def0a35c5b448	-14.9668747714842
90	0x3ff167b3c3ece940	1.0878179219567556
91	0x3fc92fd6bfcef200	0.19677242627757607
92	0x403262ce70236c80	18.385962494514843
93	0xc018757a067de4a0	-6.114723302301314
94	0x4008eec457e53980	3.1165854327038574
95	0xbfcb697df8709c00	-0.21415686255315336
96	0xc0241c40a3c71180	-10.055180662203156
97	0xbfdbd3d4e0e05300	-0.434804172139863
98	0xc03c8a5112b4c2b0	-28.54029957688425
99	0x400d9de8d1b2c060	3.7021042235065096
100	0xc03e3acdc1799e38	-30.22970208377066
101	0x4022ca6420073fa0	9.395295143971282
102	0x403af9a23610ed90	26.975131396420295
103	0xc02ccc765e428190	-14.399340577715321
104	0x40426ae9f1bf4d04	36.8352644142233
105	0xc032dcbd5168d760	-18.86226376351931
106	0x404110bf27c931fc	34.13083360027301
107	0xc04eb91503015c4a	-61.44595372740203
108	0x4028118a92fb76a0	12.034260361858571
109	0xc018587da4996b60	-6.086416789878825
110	0x403349c2d9260888	19.288129398141365
111	0xc015744d7fa65a60	-5.363576883819945
112	0x405e54f50e6fa9f8	121.3274570551365
113	0xc041ed8f2af05520	-35.85593163237559
114	0x404c6c8868535a2a	56.84791282720501
115	0xc0268382630ca29c	-11.256854148189909
116	0x403d3d48cd462d00	29.23939211810375
117	0xc049493b128bdfb4	-50.57211524801042
118	0x4034c00e05560650	20.750213941099275
119	0xbff35ff6d48bc9d0	-1.2109287550525671
120	0xc0576d8be466501a	-93.7116633414411
121	0x403f9951b697ecb4	31.59890309533212
122	0xc03436c0f3bbd9c8	-20.21388171516608
123	0x40130840eb7829f0	4.758060149392335
124	0xc008eec457e53980	-3.1165854327038574
125	0x3fcb697df8709c00	0.21415686255315336
126	0xc03349c2d9260888	-19.288129398141365
127	0x4015744d7fa65a60	5.363576883819945
128	0x4061e644134ddb4a	143.19580998617522
129	0xc03e16b89fa6e474	-30.088754633183683
130	0xc0199fd7821d0bc0	-6.406095536253758
131	0x3fe5d9daefb51b00	0.6828436548028947
132	0x40618dd56834c191	140.43230066589288
133	0xc04e1528b8804e74	-60.16530519738163
134	0xc034c00e05560650	-20.750213941099275
135	0x3ff35ff6d48bc9d0	1.2109287550525671
136	0x403e537516578650	30.32600536000092
137	0xc0128df68f529a78	-4.638635863701545
138	0x40420cb737892420	36.09934133716911
139	0xc029435846cbc810	-12.631532871604605
140	0x3fd671dcc94f4a00	0.35069961222794177
141	0xc007c0fc8a004680	-2.969231680043606
142	0x3ff37f16e74a8000	1.2185277018361376
143	0x3ff4de403638ba00	1.3042604558974062
144	0x40585db47309a7fc	97.46413875525462
145	0xc04a5f87fecd0525	-52.74633774767634
146	0x404dbb4482ed7084	59.46302830308653
147	0xc04490dabd8377ba	-41.131675423806385
148	0x40348af852b84600	20.542851610172875
149	0xc01678ce17781c30	-5.617973677354755
150	0x40302ed71e4ef898	16.182969946174666
151	0xc042614405ffd29e	-36.75988841048569
152	0xc0419610eb176ffe	-35.17239130634697
153	0xc001f4318348a120	-2.2442350632228596
154	0x405f115ab85b9119	124.27116211835927
155	0xc043b553715debd2	-39.41660897336955
156	0x404962704aeca5a0	50.76905190043476
157	0xc04bb56345874e9e	-55.41709202868263
158	0xc05672138533702b	-89.78244142554529
159	0x402931c9089211c0	12.597236888724069
160	0xc03262ce70236c80	-18.385962494514843
161	0x4018757a067de4a0	6.114723302301314
162	0x40459411b1672eec	43.15678994692084
163	0xc0484972b496303d	-48.57381303151531
164	0xc0506a46f54be1d8	-65.66058094416019
165	0xc03194d0327f9dfc	-17.581301838070416
166	0xc0383de435f2b0a0	-24.24176346945808
167	0xc038e9921af24170	-24.91238563932842
168	0x4021c368c3d6ce50	8.881658668490815
169	0xc042a5bf3508c011	-37.29489767958888
170	0xc04b068529b582b8	-54.050938809993966
171	0x4018df6d52bfd8c0	6.2181904725641175
172	0x40576d8be466501a	93.7116633414411
173	0xc03f9951b697ecb4	-31.59890309533212
174	0xc04bf3f78a54dcd8	-55.905991832196094
175	0x40089699ddaf2e60	3.073535663517575
176	0xc01bbb0ce4c1b780	-6.932666372607741
177	0x40008e586b26a060	2.0695045825159895
178	0xc03d7384afe14ca8	-29.4512433934257
179	0x40217ae12365e7c0	8.73999891871415
180	0xbfb3417d9cc31800	-0.07521805836867657
181	0xc042ea9fe88c2c56	-37.83300501675028
182	0xc0369c49c6627f70	-22.610500716254535
183	0x4024bd45fb290460	10.369674538380593
184	0xbff37f16e74a8000	-1.2185277018361376
185	0xbff4de403638ba00	-1.3042604558974062
186	0x4047f44295b2ca70	47.908282005596334
187	0xc02bfdc5c0768c9c	-13.995649351569504
188	0x4051cfaedf0e3704	71.2450482977693
189	0xc049733add888ec7	-50.900233928373886
190	0x40260cb1f51b4f20	11.024795207580212
191	0xc0071c3a068f9e00	-2.888782550103997
192	0xc030e90946d6d9d4	-16.910297801450568
193	0xc0407373743f9ff2	-32.90196087938956
194	0x404270def6117be4	36.88180423597058
195	0xc03e5ba381325b1c	-30.35796363334076
196	0xc034787fa39d0100	-20.470697618323356
197	0x402f3c14db7e6a50	15.617346629315904
198	0xc0260cb1f51b4f20	-11.024795207580212
199	0x40071c3a068f9e00	2.888782550103997
