GeologicalScience/VolcanicEruption/code/volcanoinference/distance_learning/cross-valid-results/epsilon_sensitivity_study/triplet_batch16_epochs800_param_distancesepsilon_0.54.npy (npy, 1728 bytes, 1 tensors)

array f8 [100, 2]
00000000: 0065 3192 9155 18c0 e8d8 c800 dbe6 2240
00000010: 481a 60ad 3e36 4bc0 6c59 54d3 0820 2040
00000020: 2070 8206 4ce2 1ec0 800c 0ba1 d61a 0540
00000030: 00cb 704e c553 2340 7c9a f44f 4812 32c0
00000040: c0af 169f 91a6 0240 f8d8 9fe1 ebdb 32c0
00000050: c000 5185 7488 4340 a072 c3a9 2715 16c0
00000060: e81f 5adc 3762 30c0 981a 135e 6649 17c0
00000070: 947d bd0a 0224 46c0 c0f5 15c5 afec f23f
00000080: f88a 692e 1139 2240 0453 6d61 7b68 3940
00000090: fc31 c927 bf10 41c0 4a5c 0103 15b9 4e40
000000a0: 380a be16 e282 2fc0 6c12 9b75 c58d 4440
000000b0: 481a 60ad 3e36 4b40 6c59 54d3 0820 20c0
000000c0: 58d8 c650 fd32 47c0 1c54 d5d5 cb95 2240
000000d0: 8061 f2b2 8708 f6bf 7863 bbc1 3775 36c0
000000e0: 4064 1b9f d460 4ac0 b0f8 bc8a 2eba 1040
000000f0: c07d de84 9c2c 2ac0 8048 5793 4bc3 f5bf
00000100: 8011 c7a3 401c 2440 0053 e0e0 d4d3 db3f
00000110: 40fb d5db 86af 12c0 682d 7c33 603e 1cc0
00000120: 30ad 0cce 0c29 2e40 4045 4e5d 6273 00c0
00000130: 40fb d5db 86af 1240 682d 7c33 603e 1c40
00000140: ecc7 f2d6 82f5 45c0 0047 fd99 844a fb3f
00000150: 8027 c9fa aef0 2b40 c073 f7dd d69c 0fc0
00000160: e064 ace9 b693 28c0 80af 58a8 b5ec e13f
00000170: a0f3 24f9 16b8 27c0 8c37 3081 582a 21c0
00000180: 4007 a2e8 8a36 23c0 62aa 208c 5773 41c0
00000190: 0065 3192 9155 1840 e8d8 c800 dbe6 22c0
000001a0: c000 5185 7488 43c0 a072 c3a9 2715 1640
000001b0: e036 2809 31a3 32c0 6055 8f95 08de 0e40
000001c0: 0009 ef65 4b7a 2fc0 d014 d4be 8fdd 01c0
000001d0: 80d1 eebd f93f 12c0 a080 7bbd e07c 1940
000001e0: 80d1 eebd f93f 1240 a080 7bbd e07c 19c0
000001f0: 0006 14de ec60 e5bf c079 c257 51d9 f73f
00000200: 4056 e2a2 f1a2 3bc0 c0f3 a1bc ce53 fd3f
00000210: e036 2809 31a3 3240 6055 8f95 08de 0ec0
00000220: 4026 7791 9e62 39c0 d0e1 0d27 188d 1e40
00000230: 6059 c444 5d65 28c0 98bf 78d3 173b 22c0
00000240: 380a be16 e282 2f40 6c12 9b75 c58d 44c0
00000250: 4026 7791 9e62 3940 d0e1 0d27 188d 1ec0
00000260: 00f6 f52c a2e1 17c0 c0ff 26fe cc85 ff3f
00000270: 382b 185f 3557 3e40 c0c4 1fe4 2cc7 0c40
00000280: a83a 01ff 6e88 2140 748b 96e7 cc48 3640
00000290: 8055 5edd 5dfa 28c0 0439 99d2 9c65 2340
000002a0: 8061 f2b2 8708 f63f 7863 bbc1 3775 3640
000002b0: e0d1 3269 76de 23c0 406c 5fe4 13e9 f93f
000002c0: d059 5025 9a29 3240 4896 a16e 3e2f 2540
000002d0: 70f3 d6cb 03c6 21c0 081c 094c 9f75 3440
000002e0: 80b7 c1e4 0cbb 1b40 60a0 266b 588e 00c0
000002f0: 8039 e557 c4ee 0840 009c 70f8 7d69 cbbf
00000300: 8011 c7a3 401c 24c0 0053 e0e0 d4d3 dbbf
00000310: 803d 76e5 65a3 39c0 e0c3 b2d2 1448 2140
00000320: 80db d36b 3bb7 0040 204c ab5b 85cd 1840
00000330: c094 4b97 7e4d 18c0 5031 8602 834e 1bc0
00000340: a0fb d353 62f5 2240 c0d9 14fc 3170 17c0
00000350: fc31 c927 bf10 4140 4a5c 0103 15b9 4ec0
00000360: 00f6 f52c a2e1 1740 c0ff 26fe cc85 ffbf
00000370: 60ee c3fc a697 1ac0 4081 978d dc21 0f40
00000380: 947d bd0a 0224 4640 c0f5 15c5 afec f2bf
00000390: 2a5a 5368 886c 4c40 9ca2 0c63 8283 26c0
000003a0: d0f1 50a5 a080 4ec0 1051 97a2 cfc8 2240
000003b0: 5489 bea4 a5d7 4a40 78a1 5b00 1669 04c0
000003c0: b035 e4ca f69a 20c0 78c4 0cf2 cda7 2540
000003d0: e0e4 d476 483e 21c0 0055 754e 18ec e8bf
000003e0: 8039 e557 c4ee 08c0 009c 70f8 7d69 cb3f
000003f0: 0061 84fc 8afc f2bf 20b2 8efc 6da4 1440
00000400: a0f3 24f9 16b8 2740 8c37 3081 582a 2140
00000410: 4050 b40c abf6 28c0 f08d 8fa4 4793 18c0
00000420: 0063 3fc2 9980 0fc0 10ea 4db6 4ae6 08c0
00000430: b4a0 468e cf0f 4440 c87b 33c6 6ebc 20c0
00000440: 48ee 9c5c 33fb 4c40 6817 7b3e eae2 19c0
00000450: 60ee c3fc a697 1a40 4081 978d dc21 0fc0
00000460: 00cb 704e c553 23c0 7c9a f44f 4812 3240
00000470: 0080 4ae7 167f f33f 00ba 3836 40de f43f
00000480: d83d d025 23b8 5340 48e1 a8b3 6dcb 1bc0
00000490: d069 1ed2 64a6 25c0 dcd7 f24b ca37 20c0
000004a0: c07d de84 9c2c 2a40 8048 5793 4bc3 f53f
000004b0: 0009 ef65 4b7a 2f40 d014 d4be 8fdd 0140
000004c0: bc8f b9fc f987 3640 a6e8 4375 6519 3cc0
000004d0: 382b 185f 3557 3ec0 c0c4 1fe4 2cc7 0cc0
000004e0: d83d d025 23b8 53c0 48e1 a8b3 6dcb 1b40
000004f0: 2a5a 5368 886c 4cc0 9ca2 0c63 8283 2640
00000500: 2070 8206 4ce2 1e40 800c 0ba1 d61a 05c0
00000510: 4846 8a96 79bf 3340 888b 4d36 6a6f 10c0
00000520: 4846 8a96 79bf 33c0 888b 4d36 6a6f 1040
00000530: 40da 646a 2251 4bc0 3a92 6848 c992 2640
00000540: 38e0 079c c08f 3940 75ef f811 7215 46c0
00000550: 8055 5edd 5dfa 2840 0439 99d2 9c65 23c0
00000560: 70ca b295 42f4 47c0 9c8c 76c0 c5fd 2b40
00000570: 8821 79fc 7ced 3540 20ee 837e 776d f6bf
00000580: 80b7 c1e4 0cbb 1bc0 60a0 266b 588e 0040
00000590: 8027 c9fa aef0 2bc0 c073 f7dd d69c 0f40
000005a0: 7828 da5d f54c 3240 c805 9d6c 2497 1640
000005b0: f0c2 f5b7 675d 2940 8002 2e3b 0875 ff3f
000005c0: 0080 4ae7 167f f3bf 00ba 3836 40de f4bf
000005d0: d069 1ed2 64a6 2540 dcd7 f24b ca37 2040
000005e0: 4064 1b9f d460 4a40 b0f8 bc8a 2eba 10c0
000005f0: 204f 1bf5 b10c 2640 009e 8f06 3a1c 07c0
00000600: f88a 692e 1139 22c0 0453 6d61 7b68 39c0
00000610: b4a0 468e cf0f 44c0 c87b 33c6 6ebc 2040
00000620: 4007 a2e8 8a36 2340 62aa 208c 5773 4140
00000630: 204f 1bf5 b10c 26c0 009e 8f06 3a1c 0740
-6.08356312204819 9.450889610784046 -54.42378775780213 8.062567333265825 -7.720993138991645 2.638104684972461 9.663614703434632 -18.071415898530617
2.3313324383543375 -18.859068013692166 39.06605593161794 -5.520659115366158 -16.383664867404065 -5.821679563442238 -44.281312315487554 1.1827848147071194
9.111459207900666 25.408132638159273 -34.13083360027301 61.44595372740203 -15.755631170938713 41.10758848258851 54.42378775780213 -8.062567333265825
-46.39835557660325 9.292570764819224 -1.3770825376614937 -22.457882030724676 -52.75648869359475 4.181818168434049 -13.087131645354816 -1.3601794963365421
10.055180662203156 0.434804172139863 -4.671412882743255 -7.060913853124795 15.080175818488527 -2.0563399590979827 4.671412882743255 7.060913853124795
-43.9180554089979 1.7056928649148517 13.970084988646477 -3.951581701387539 -12.288504888815112 0.5601452148452921 -11.859550271759701 -8.582706486831533
-9.606528539446685 -34.9011092338085 6.08356312204819 -9.450889610784046 -39.06605593161794 5.520659115366158 -18.637466976469 3.858414810597125
-15.73885649245176 -2.2331843288871838 -4.562476127339664 6.371951065695754 4.562476127339664 -6.371951065695754 -0.6680816972222487 1.4905560901748771
-27.636499576814685 1.8329608314954697 18.637466976469 -3.858414810597125 -25.385232059087002 7.637787447187705 -12.197977208107375 -9.115416153421208
15.755631170938713 -41.10758848258851 25.385232059087002 -7.637787447187705 -5.970345213424935 1.9701661994767932 30.34065813388881 3.5972535917468065
8.766471833133735 22.28437659669312 -12.488997380986575 9.698462086872048 1.3770825376614937 22.457882030724676 -9.934497153714744 1.619403736191785
18.162508327595617 10.592273194527607 -8.88674771307862 20.45946192953491 6.932666372607741 -2.0695045825159895 3.1165854327038574 -0.21415686255315336
-10.055180662203156 -0.434804172139863 -25.638273564688916 8.640783867189327 2.0894688056973223 6.200704033212816 -6.075678218830205 -6.826671637955158
9.47926580393488 -5.8595656764723 34.13083360027301 -61.44595372740203 5.970345213424935 -1.9701661994767932 -6.648097943743409 3.8915339528904553
44.281312315487554 -1.1827848147071194 56.84791282720501 -11.256854148189909 -61.00490251972553 9.392209130259772 53.684742539439554 -2.5513114955867273
-8.302664127690917 10.827743114527252 -8.62164660786442 -0.7788201839818214 -3.1165854327038574 0.21415686255315336 -1.186655985255186 5.160575815400563
11.859550271759701 8.582706486831533 -12.481773755083964 -6.1438279831522635 -3.9377932715982524 -3.1124471895721015 40.1235215992796 -8.36803264025174
57.962504936815606 -6.4715966951970145 6.648097943743409 -3.8915339528904553 -9.663614703434632 18.071415898530617 1.2185277018361376 1.3042604558974062
78.87714524589626 -6.948660666639917 -10.824987951481404 -8.108965276140161 13.087131645354816 1.3601794963365421 15.73885649245176 2.2331843288871838
22.53115825205144 -28.099204377249997 -30.34065813388881 -3.5972535917468065 -78.87714524589626 6.948660666639917 -56.84791282720501 11.256854148189909
7.720993138991645 -2.638104684972461 19.747949036367828 -4.108803604586576 -19.747949036367828 4.108803604586576 -54.633862780804066 11.286691916241683
25.561532737658325 -44.16754364638374 12.488997380986575 -9.698462086872048 -47.908282005596334 13.995649351569504 21.927688388417238 -1.4017252866750667
-6.932666372607741 2.0695045825159895 -13.970084988646477 3.951581701387539 18.300618997346163 5.647599885066889 12.682431935072117 1.966072302981189
-1.2185277018361376 -1.3042604558974062 10.824987951481404 8.108965276140161 52.75648869359475 -4.181818168434049 11.024795207580212 -2.888782550103997
-9.111459207900666 -25.408132638159273 -40.1235215992796 8.36803264025174 9.606528539446685 34.9011092338085 -11.024795207580212 2.888782550103997
