GeologicalScience/VolcanicEruption/code/volcanoinference/distance_learning/cross-valid-results/epsilon_sensitivity_study/triplet_batch16_epochs800_param_distancesepsilon_0.50.npy (npy, 1728 bytes, 1 tensors)

array f8 [100, 2]
00000000: b80a a88d 8b03 4040 40a9 3485 13b0 1ac0
00000010: d040 7406 2c6c 31c0 78c4 3603 d756 13c0
00000020: 2070 8206 4ce2 1ec0 800c 0ba1 d61a 0540
00000030: 0004 903b 700b 1cc0 98a1 d01f f28b 1640
00000040: 8016 6a02 fd57 0b40 d892 fc85 01cc 21c0
00000050: c00f 0a91 c9c1 2040 a0fe 86cb 265c 1540
00000060: 885e e66c f1e4 3140 56db 07bd c651 33c0
00000070: 947d bd0a 0224 46c0 c0f5 15c5 afec f23f
00000080: 000a 0aed 4514 d63f 803c b6ce 73fd 0840
00000090: fc31 c927 bf10 41c0 4a5c 0103 15b9 4e40
000000a0: 40e9 ecc3 b367 f1bf 00f2 cebf d62f c9bf
000000b0: ecc7 f2d6 82f5 4540 0047 fd99 844a fbbf
000000c0: 58d8 c650 fd32 47c0 1c54 d5d5 cb95 2240
000000d0: 109d a35b 284f 1dc0 e8df 05f1 c11f 2740
000000e0: 4064 1b9f d460 4ac0 b0f8 bc8a 2eba 1040
000000f0: c07d de84 9c2c 2ac0 8048 5793 4bc3 f5bf
00000100: 8011 c7a3 401c 2440 0053 e0e0 d4d3 db3f
00000110: 4452 a8dc d912 4540 c02a 18d7 0c56 e93f
00000120: b80a a88d 8b03 40c0 40a9 3485 13b0 1a40
00000130: 9cd8 65c0 486b 5040 70e9 6423 7ea6 02c0
00000140: ecc7 f2d6 82f5 45c0 0047 fd99 844a fb3f
00000150: 8027 c9fa aef0 2b40 c073 f7dd d69c 0fc0
00000160: b056 8c29 f803 2cc0 b880 33b3 c8e9 1c40
00000170: a0f3 24f9 16b8 27c0 8c37 3081 582a 21c0
00000180: bc8f b9fc f987 36c0 a6e8 4375 6519 3c40
00000190: 0065 3192 9155 1840 e8d8 c800 dbe6 22c0
000001a0: c000 5185 7488 43c0 a072 c3a9 2715 1640
000001b0: 40f5 8478 1226 0c40 b0ec 892d 3629 1040
000001c0: c8ac 829f 45fa 46c0 c010 bb94 6df9 1a40
000001d0: 80d1 eebd f93f 12c0 a080 7bbd e07c 1940
000001e0: a03a 2a48 73fe 2c40 b05b 93b6 25f7 1fc0
000001f0: 0006 14de ec60 e5bf c079 c257 51d9 f73f
00000200: 4056 e2a2 f1a2 3bc0 c0f3 a1bc ce53 fd3f
00000210: e036 2809 31a3 3240 6055 8f95 08de 0ec0
00000220: 4026 7791 9e62 39c0 d0e1 0d27 188d 1e40
00000230: 1071 2b8c 271a 32c0 c0e6 3708 2425 0940
00000240: 6053 cf99 95c9 25c0 70e1 e059 cce7 0640
00000250: 4026 7791 9e62 3940 d0e1 0d27 188d 1ec0
00000260: 00f6 f52c a2e1 17c0 c0ff 26fe cc85 ff3f
00000270: 40a9 23f0 5d85 2e40 0005 b7a0 479d 1640
00000280: 004a 4fc9 dc71 d6bf 8046 008a fcc0 0740
00000290: 00b8 f1f1 7c32 29c0 58f1 5fc0 fa70 1540
000002a0: 500d dd65 941f 2ec0 d000 a2b1 3a39 2140
000002b0: a03a 2a48 73fe 2cc0 b05b 93b6 25f7 1f40
000002c0: 8029 f469 5937 0740 9027 8c3c 35c1 1340
000002d0: 40e9 ecc3 b367 f13f 00f2 cebf d62f c93f
000002e0: 80b7 c1e4 0cbb 1b40 60a0 266b 588e 00c0
000002f0: 8039 e557 c4ee 0840 009c 70f8 7d69 cbbf
00000300: 8011 c7a3 401c 24c0 0053 e0e0 d4d3 dbbf
00000310: 803d 76e5 65a3 39c0 e0c3 b2d2 1448 2140
00000320: 80db d36b 3bb7 0040 204c ab5b 85cd 1840
00000330: 8008 c9eb 3718 12c0 b0ca 1961 b87a 3640
00000340: 0006 14de ec60 e53f c079 c257 51d9 f7bf
00000350: fc31 c927 bf10 4140 4a5c 0103 15b9 4ec0
00000360: 00f6 f52c a2e1 1740 c0ff 26fe cc85 ffbf
00000370: 60ee c3fc a697 1ac0 4081 978d dc21 0f40
00000380: 947d bd0a 0224 4640 c0f5 15c5 afec f2bf
00000390: 2c86 13a2 9e77 40c0 2079 2b2c 3572 f53f
000003a0: 1014 d671 5756 27c0 601c 6b3d 2140 0940
000003b0: bff1 8806 17a2 5b40 fa8a 23e3 c79d 2bc0
000003c0: 4087 7114 b6a8 fa3f 405c 62d3 54bc 0ac0
000003d0: 6065 ea6e e82f 2340 605c 85c8 ea15 1940
000003e0: 8039 e557 c4ee 08c0 009c 70f8 7d69 cb3f
000003f0: 40f5 8478 1226 0cc0 b0ec 892d 3629 10c0
00000400: a0f3 24f9 16b8 2740 8c37 3081 582a 2140
00000410: 1071 2b8c 271a 3240 c0e6 3708 2425 09c0
00000420: 0063 3fc2 9980 0fc0 10ea 4db6 4ae6 08c0
00000430: 2c86 13a2 9e77 4040 2079 2b2c 3572 f5bf
00000440: c8ac 829f 45fa 4640 c010 bb94 6df9 1ac0
00000450: 60ee c3fc a697 1a40 4081 978d dc21 0fc0
00000460: 004a 4fc9 dc71 d63f 8046 008a fcc0 07c0
00000470: 0080 4ae7 167f f33f 00ba 3836 40de f43f
00000480: 0409 34f7 23b8 4a40 8002 3381 88e0 18c0
00000490: 508a 55b3 0fc3 3740 805c 7dc4 ebb1 dd3f
000004a0: 804c 08b7 67f6 04c0 606d b854 7757 12c0
000004b0: 00b8 f1f1 7c32 2940 58f1 5fc0 fa70 15c0
000004c0: bc8f b9fc f987 3640 a6e8 4375 6519 3cc0
000004d0: 382b 185f 3557 3ec0 c0c4 1fe4 2cc7 0cc0
000004e0: 0000 95e3 f632 b93f 40ad 41f6 b076 ed3f
000004f0: bff1 8806 17a2 5bc0 fa8a 23e3 c79d 2b40
00000500: 2070 8206 4ce2 1e40 800c 0ba1 d61a 05c0
00000510: 508a 55b3 0fc3 37c0 805c 7dc4 ebb1 ddbf
00000520: 407c 3a49 2cc3 1640 8059 af07 0a09 0b40
00000530: 207e 9b1d bae8 2540 80d6 018c 629b fb3f
00000540: 0004 903b 700b 1c40 98a1 d01f f28b 16c0
00000550: 4056 e2a2 f1a2 3b40 c0f3 a1bc ce53 fdbf
00000560: 70ca b295 42f4 47c0 9c8c 76c0 c5fd 2b40
00000570: 8821 79fc 7ced 3540 20ee 837e 776d f6bf
00000580: 80b7 c1e4 0cbb 1bc0 60a0 266b 588e 0040
00000590: 8027 c9fa aef0 2bc0 c073 f7dd d69c 0f40
000005a0: f0ff b647 1c52 2e40 e0d7 b3cc 7822 ffbf
000005b0: 80a6 c686 eb54 00c0 00ae 78d0 4ac6 0ac0
000005c0: 0080 4ae7 167f f3bf 00ba 3836 40de f4bf
000005d0: 70ca b295 42f4 4740 9c8c 76c0 c5fd 2bc0
000005e0: 4064 1b9f d460 4a40 b0f8 bc8a 2eba 10c0
000005f0: 0093 0169 656d 1e40 b056 b108 e609 1840
00000600: 982e b5b7 e5cb 2dc0 0041 6265 df79 f83f
00000610: 1014 d671 5756 2740 601c 6b3d 2140 09c0
00000620: 00fd 3868 da1a 10c0 d8c7 92cb d65e 3740
00000630: 8016 6a02 fd57 0bc0 d892 fc85 01cc 2140
32.027696330119795 -6.671949464167767 -17.42254677141392 -4.8348045828034785 -7.720993138991645 2.638104684972461 -7.011170321145073 5.636665818318214
3.4179630459428267 -8.898449122506847 8.378490955808843 5.339991741289538 17.894308859102722 -19.319438757341537 -44.281312315487554 1.1827848147071194
0.3449873747669301 3.1237560414661516 -34.13083360027301 61.44595372740203 -1.0878179219567556 -0.19677242627757607 43.9180554089979 -1.7056928649148517
-46.39835557660325 9.292570764819224 -7.327302390919854 11.562026531188124 -52.75648869359475 4.181818168434049 -13.087131645354816 -1.3601794963365421
10.055180662203156 0.434804172139863 42.14727361887756 0.7917541695654435 -32.027696330119795 6.671949464167767 65.67631540246879 -2.331295277134977
-43.9180554089979 1.7056928649148517 13.970084988646477 -3.951581701387539 -14.007752703076534 7.228304672258837 -11.859550271759701 -8.582706486831533
-22.53115825205144 28.099204377249997 6.08356312204819 -9.450889610784046 -39.06605593161794 5.520659115366158 3.5185899177146496 4.0402457347328635
-45.95524972801792 6.743582080762451 -4.562476127339664 6.371951065695754 14.496973281054409 -7.991354801887539 -0.6680816972222487 1.4905560901748771
-27.636499576814685 1.8329608314954697 18.637466976469 -3.858414810597125 -25.385232059087002 7.637787447187705 -18.102165947538253 3.14313513203237
-10.893719488676368 2.863182737517654 25.385232059087002 -7.637787447187705 -5.970345213424935 1.9701661994767932 15.260482315400282 5.653593550844789
-0.35069961222794177 2.969231680043606 -12.598609505421337 5.3603315409239585 -15.061679061159026 8.611775923753527 -14.496973281054409 7.991354801887539
2.9020260121953356 4.938679643682818 1.0878179219567556 0.19677242627757607 6.932666372607741 -2.0695045825159895 3.1165854327038574 -0.21415686255315336
-10.055180662203156 -0.434804172139863 -25.638273564688916 8.640783867189327 2.0894688056973223 6.200704033212816 -4.5236508218241624 22.479375904843153
0.6680816972222487 -1.4905560901748771 34.13083360027301 -61.44595372740203 5.970345213424935 -1.9701661994767932 -6.648097943743409 3.8915339528904553
44.281312315487554 -1.1827848147071194 -32.93452859834028 1.3403827405341602 -11.66863589990865 3.156313400107635 110.53265536664456 -13.808165643776636
1.6661892698834464 -3.341958667220325 9.593570200073998 6.271403439655018 -3.1165854327038574 0.21415686255315336 -3.5185899177146496 -4.0402457347328635
11.859550271759701 8.582706486831533 18.102165947538253 -3.14313513203237 -3.9377932715982524 -3.1124471895721015 32.93452859834028 -1.3403827405341602
45.95524972801792 -6.743582080762451 6.648097943743409 -3.8915339528904553 0.35069961222794177 -2.969231680043606 1.2185277018361376 1.3042604558974062
53.43859758415968 -6.219270724047078 23.76195832098375 0.46398443401762535 -2.6203150081069566 -4.585416148907228 12.598609505421337 -5.3603315409239585
22.53115825205144 -28.099204377249997 -30.34065813388881 -3.5972535917468065 0.09843390518381057 0.9207386789034118 -110.53265536664456 13.808165643776636
7.720993138991645 -2.638104684972461 -23.76195832098375 -0.46398443401762535 5.69059862536875 3.3794136619937376 10.954544949751892 1.7254357785253944
7.011170321145073 -5.636665818318214 27.636499576814685 -1.8329608314954697 -47.908282005596334 13.995649351569504 21.927688388417238 -1.4017252866750667
-6.932666372607741 2.0695045825159895 -13.970084988646477 3.951581701387539 15.16037201031574 -1.9459159847442535 -2.041464856087998 -3.3468223845318334
-1.2185277018361376 -1.3042604558974062 47.908282005596334 -13.995649351569504 52.75648869359475 -4.181818168434049 7.606832161637385 6.00966657240285
-14.898236981265015 1.5297540626816613 11.66863589990865 -3.156313400107635 -4.026223782041825 23.370465014777295 -3.4179630459428267 8.898449122506847
