GeologicalScience/VolcanicEruption/code/volcanoinference/distance_learning/cross-valid-results/epsilon_sensitivity_study/triplet_batch16_epochs800_param_distancesepsilon_0.44.npy (npy, 1728 bytes, 1 tensors)

array f8 [100, 2]
0	0xc018559192316500	-6.08356312204819
1	0x4022e6db00c8d8e8	9.450889610784046
2	0xc04b363ead601a48	-54.42378775780213
3	0x40202008d354596c	8.062567333265825
4	0xc01ee24c06827020	-7.720993138991645
5	0x40051ad6a10b0c80	2.638104684972461
6	0x400f0f75f01d4580	3.8825491675312946
7	0x40063017e5c061c0	2.7734830808005597
8	0xc03127ee0e8eaad0	-17.155976209479206
9	0xc020b852bf270ff8	-8.360006307142598
10	0x40438874855100c0	39.06605593161794
11	0xc0161527a9c372a0	-5.520659115366158
12	0xc03340f1107357b8	-19.253678348693683
13	0xc02f064172c5608c	-15.512218081087006
14	0xc04624020abd7d94	-44.281312315487554
15	0x3ff2ecafc515f5c0	1.1827848147071194
16	0x40209af6cae435b0	8.302664127690917
17	0xc025a7cdf20cc478	-10.827743114527252
18	0xc04110bf27c931fc	-34.13083360027301
19	0x404eb91503015c4a	61.44595372740203
20	0xbff167b3c3ece940	-1.0878179219567556
21	0xbfc92fd6bfcef200	-0.19677242627757607
22	0x4045f582d6f2c7ec	43.9180554089979
23	0xbffb4a8499fd4700	-1.7056928649148517
24	0x4008c653633b5b80	3.096838736771531
25	0xc019f3c0c039ea40	-6.488039973769048
26	0x402b43f81cbe85c0	13.63275232148851
27	0x40270fb0995d19d8	11.530644219031203
28	0xbff41e2eb4622900	-1.2573687597492267
29	0xbfc3769388680800	-0.15205616150348078
30	0xc02a2c9c84de7dc0	-13.087131645354816
31	0xbff5c34b93574880	-1.3601794963365421
32	0x40241c40a3c71180	10.055180662203156
33	0x3fdbd3d4e0e05300	0.434804172139863
34	0xc027132f2058dc40	-11.537468920561992
35	0x400abe993621ac28	3.343065665152171
36	0xc0430e3dbfee3758	-38.111259452167985
37	0x40301f7261b196c4	16.122839074951813
38	0x3ff41e2eb4622900	1.2573687597492267
39	0x3fc3769388680800	0.15205616150348078
40	0xc045f582d6f2c7ec	-43.9180554089979
41	0x3ffb4a8499fd4700	1.7056928649148517
42	0x402bf0aefac92780	13.970084988646477
43	0xc00f9cd6ddf773c0	-3.951581701387539
44	0xc02893b6e9ac64e0	-12.288504888815112
45	0x3fe1ecb5a858af80	0.5601452148452921
46	0xc027b816f924f3a0	-11.859550271759701
47	0xc0212a588130378c	-8.582706486831533
48	0xc03687f9fcb98fbc	-22.53115825205144
49	0x403c19657543e8a6	28.099204377249997
50	0x40430e3dbfee3758	38.111259452167985
51	0xc0301f7261b196c4	-16.122839074951813
52	0xc0438874855100c0	-39.06605593161794
53	0x40161527a9c372a0	5.520659115366158
54	0x400c26127884f540	3.5185899177146496
55	0x401029362d89ecb0	4.0402457347328635
56	0xc02f7a4b65ef0900	-15.73885649245176
57	0xc001dd8fbed414d0	-2.2331843288871838
58	0xc048bf6286fa8e10	-49.49519431337478
59	0x402f8fac35f2493c	15.780610738588273
60	0x402cfe73482a3aa0	14.496973281054409
61	0xc01ff725b6935bb0	-7.991354801887539
62	0xbfe560ecde140600	-0.6680816972222487
63	0x3ff7d95157c279c0	1.4905560901748771
64	0xc03ba2f1a2e25640	-27.636499576814685
65	0x3ffd53cebca1f3c0	1.8329608314954697
66	0x403627f35838d588	22.15605689418365
67	0x3fc7463c58484000	0.18183092413573831
68	0xc039629e91772640	-25.385232059087002
69	0x401e8d18270de1d0	7.637787447187705
70	0x3fd884856d7f8a00	0.38308845227416555
71	0x40380503e2cec5b2	24.019590545159822
72	0x402dcbe5b7b52e98	14.898236981265015
73	0xbff879df65624100	-1.5297540626816613
74	0x402fcfdacf1a50e0	15.905966255152123
75	0xbffc7398abe42040	-1.7782217707154047
76	0xc017e1a22cf5f600	-5.970345213424935
77	0x3fff85ccfe26ffc0	1.9701661994767932
78	0x4039a365e5763d80	25.638273564688916
79	0xc0214814d2b2c3e0	-8.640783867189327
80	0xbfd671dcc94f4a00	-0.35069961222794177
81	0x4007c0fc8a004680	2.969231680043606
82	0x40091f39cff54400	3.140246987030423
83	0x401e5fc29fc9fbc0	7.593515869811142
84	0x40159cfc54f59560	5.403306319703319
85	0xbfed33e13aec8c00	-0.9125829840526194
86	0xc02cfe73482a3aa0	-14.496973281054409
87	0x401ff725b6935bb0	7.991354801887539
88	0x403c8a5112b4c2b0	28.54029957688425
89	0xc00d9de8d1b2c060	-3.7021042235065096
90	0xbfe28204a1093c00	-0.5783713479266908
91	0x400c4f523f5f4b60	3.5387310934979013
92	0x403262ce70236c80	18.385962494514843
93	0xc018757a067de4a0	-6.114723302301314
94	0x4008eec457e53980	3.1165854327038574
95	0xbfcb697df8709c00	-0.21415686255315336
96	0xc0241c40a3c71180	-10.055180662203156
97	0xbfdbd3d4e0e05300	-0.434804172139863
98	0xc03c8a5112b4c2b0	-28.54029957688425
99	0x400d9de8d1b2c060	3.7021042235065096
100	0xc027c2e01fd430a0	-11.880616182949154
101	0x40244df865538300	10.152285734600355
102	0x40199fd7821d0bc0	6.406095536253758
103	0xbfe5d9daefb51b00	-0.6828436548028947
104	0xc02fcfdacf1a50e0	-15.905966255152123
105	0x3ffc7398abe42040	1.7782217707154047
106	0x404110bf27c931fc	34.13083360027301
107	0xc04eb91503015c4a	-61.44595372740203
108	0x4017e1a22cf5f600	5.970345213424935
109	0xbfff85ccfe26ffc0	-1.9701661994767932
110	0xc01a97a6fcc3ee60	-6.648097943743409
111	0x400f21dc8d978140	3.8915339528904553
112	0x404624020abd7d94	44.281312315487554
113	0xbff2ecafc515f5c0	-1.1827848147071194
114	0x401cc1876198d440	7.18899300093932
115	0xc01c1c50415c1948	-7.027649899717581
116	0xc049e5656abc25b8	-51.79215749918825
117	0x40270c77158e42e0	11.524346040359376
118	0x4027132f2058dc40	11.537468920561992
119	0xc00abe993621ac28	-3.343065665152171
120	0xc0209af6cae435b0	-8.302664127690917
121	0x4025a7cdf20cc478	10.827743114527252
122	0x40054987f2262680	2.6609038274662566
123	0x4020ae8b7f0c5648	8.340908022171007
124	0xc008eec457e53980	-3.1165854327038574
125	0x3fcb697df8709c00	0.21415686255315336
126	0xbff2fc8afc846100	-1.186655985255186
127	0x4014a46dfc8eb220	5.160575815400563
128	0x4027b816f924f3a0	11.859550271759701
129	0x40212a588130378c	8.582706486831533
130	0x4000d00e2c3a7a80	2.1015895324083544
131	0x402e1c0b94860468	15.054775849685214
132	0xc00f8099c23f6300	-3.9377932715982524
133	0xc008e64ab64dea10	-3.1124471895721015
134	0x40440fcf8e46a0b4	40.1235215992796
135	0xc020bc6ec6337bc8	-8.36803264025174
136	0x403e537516578650	30.32600536000092
137	0xc0128df68f529a78	-4.638635863701545
138	0x401a97a6fcc3ee60	6.648097943743409
139	0xc00f21dc8d978140	-3.8915339528904553
140	0x3fd671dcc94f4a00	0.35069961222794177
141	0xc007c0fc8a004680	-2.969231680043606
142	0x3ff37f16e74a8000	1.2185277018361376
143	0x3ff4de403638ba00	1.3042604558974062
144	0x400f8099c23f6300	3.9377932715982524
145	0x4008e64ab64dea10	3.1124471895721015
146	0x4045c144a4efe84c	43.50990735735158
147	0xc00d2896f40b6b80	-3.644819170568951
148	0x3ff2fc8afc846100	1.186655985255186
149	0xc014a46dfc8eb220	-5.160575815400563
150	0x402f7a4b65ef0900	15.73885649245176
151	0x4001dd8fbed414d0	2.2331843288871838
152	0x403687f9fcb98fbc	22.53115825205144
153	0xc03c19657543e8a6	-28.099204377249997
154	0xc0497152efcd7a44	-50.885343528109416
155	0x4030e20ea1cc4e1c	16.883035766963175
156	0xc04a543b23a999c0	-52.65805478841094
157	0x40146904a9852e58	5.1025568473374605
158	0xc04bf30ba2ad093e	-55.898792585840496
159	0x40042bfa6aebe300	2.5214737275349535
160	0xc03262ce70236c80	-18.385962494514843
161	0x4018757a067de4a0	6.114723302301314
162	0x4033bf79968a4648	19.747949036367828
163	0xc0106f6a364d8b88	-4.108803604586576
164	0xc033bf79968a4648	-19.747949036367828
165	0x40106f6a364d8b88	4.108803604586576
166	0x404bf30ba2ad093e	55.898792585840496
167	0xc0042bfa6aebe300	-2.5214737275349535
168	0x402893b6e9ac64e0	12.288504888815112
169	0xbfe1ecb5a858af80	-0.5601452148452921
170	0x403ba2f1a2e25640	27.636499576814685
171	0xbffd53cebca1f3c0	-1.8329608314954697
172	0xc047f44295b2ca70	-47.908282005596334
173	0x402bfdc5c0768c9c	13.995649351569504
174	0x4048bf6286fa8e10	49.49519431337478
175	0xc02f8fac35f2493c	-15.780610738588273
176	0xc01bbb0ce4c1b780	-6.932666372607741
177	0x40008e586b26a060	2.0695045825159895
178	0xc02bf0aefac92780	-13.970084988646477
179	0x400f9cd6ddf773c0	3.951581701387539
180	0x402c03f8298c56b0	14.007752703076534
181	0xc01ce9c8b33380b8	-7.228304672258837
182	0xc00a1476fa6be680	-3.259992557924136
183	0xc0129ab575ca8580	-4.65108284042924
184	0xbff37f16e74a8000	-1.2185277018361376
185	0xbff4de403638ba00	-1.3042604558974062
186	0x4047f44295b2ca70	47.908282005596334
187	0xc02bfdc5c0768c9c	-13.995649351569504
188	0x404a543b23a999c0	52.65805478841094
189	0xc0146904a9852e58	-5.1025568473374605
190	0x40260cb1f51b4f20	11.024795207580212
191	0xc0071c3a068f9e00	-2.888782550103997
192	0xc02dcbe5b7b52e98	-14.898236981265015
193	0x3ff879df65624100	1.5297540626816613
194	0xc0440fcf8e46a0b4	-40.1235215992796
195	0x4020bc6ec6337bc8	8.36803264025174
196	0xc0159cfc54f59560	-5.403306319703319
197	0x3fed33e13aec8c00	0.9125829840526194
198	0xc0260cb1f51b4f20	-11.024795207580212
199	0x40071c3a068f9e00	2.888782550103997
