GeologicalScience/VolcanicEruption/code/volcanoinference/distance_learning/cross-valid-results/epsilon_sensitivity_study/triplet_batch16_epochs800_param_distancesepsilon_0.24.npy (npy, 1728 bytes, 1 tensors)

array f8 [100, 2]
00000000: c061 6ce5 5656 1440 90dd 3cae 06b4 0340
00000010: 481a 60ad 3e36 4bc0 6c59 54d3 0820 2040
00000020: e028 7fa8 81c6 1b40 4064 1274 eee1 f23f
00000030: 0004 903b 700b 1cc0 98a1 d01f f28b 1640
00000040: 004b 7f75 f5d2 31c0 8081 5d28 517a 1bc0
00000050: c000 5185 7488 4340 a072 c3a9 2715 16c0
00000060: 383d 6f80 71e1 3ec0 3082 00b1 7e5b 0140
00000070: 947d bd0a 0224 46c0 c0f5 15c5 afec f23f
00000080: a0b4 9592 a0ba 12c0 6038 0b0c fad4 1ec0
00000090: 186a f10c 08c6 41c0 2048 4f84 7abf 2a40
000000a0: 40e9 ecc3 b367 f1bf 00f2 cebf d62f c9bf
000000b0: 506e 6cb1 88fd 3540 8063 e56d 3474 d3bf
000000c0: e0d4 73f0 0bee 2bc0 602e 812f 258b f83f
000000d0: 9884 6996 0118 30c0 0037 27de d771 25c0
000000e0: 4064 1b9f d460 4ac0 b0f8 bc8a 2eba 1040
000000f0: c07d de84 9c2c 2ac0 8048 5793 4bc3 f5bf
00000100: 8011 c7a3 401c 2440 0053 e0e0 d4d3 db3f
00000110: cc6c dbc8 0aab 4840 f013 79a6 8ef1 18c0
00000120: 68bb 436f c666 43c0 8047 95cf 2eab e13f
00000130: c0eb 43be 86cd 5140 b00e 3b62 23b6 21c0
00000140: 00de 0a84 745f dfbf a0ed 6c1b 8d12 1d40
00000150: 8027 c9fa aef0 2b40 c073 f7dd d69c 0fc0
00000160: e064 ace9 b693 28c0 80af 58a8 b5ec e13f
00000170: c061 6ce5 5656 14c0 90dd 3cae 06b4 03c0
00000180: 242a 4825 c6f5 34c0 0010 c6a8 5711 a03f
00000190: 0065 3192 9155 1840 e8d8 c800 dbe6 22c0
000001a0: c000 5185 7488 43c0 a072 c3a9 2715 1640
000001b0: e036 2809 31a3 32c0 6055 8f95 08de 0e40
000001c0: b451 1103 ee4d 54c0 8e92 9c79 1855 2740
000001d0: 80d1 eebd f93f 12c0 a080 7bbd e07c 1940
000001e0: 80d1 eebd f93f 1240 a080 7bbd e07c 19c0
000001f0: 40bb f285 539f 2140 503b 24a6 dd79 11c0
00000200: 8007 2c2d 01bf 3bc0 8007 546b 960a 04c0
00000210: e036 2809 31a3 3240 6055 8f95 08de 0ec0
00000220: 40bb f285 539f 21c0 503b 24a6 dd79 1140
00000230: 9059 bdfa dede 32c0 d82a d852 c603 2140
00000240: 982e b5b7 e5cb 2d40 0041 6265 df79 f8bf
00000250: e050 1acf dacf 2f40 4020 e4ab 9873 fcbf
00000260: 00f6 f52c a2e1 17c0 c0ff 26fe cc85 ff3f
00000270: 803d 76e5 65a3 3940 e0c3 b2d2 1448 21c0
00000280: 004a 4fc9 dc71 d6bf 8046 008a fcc0 0740
00000290: c0eb 43be 86cd 51c0 b00e 3b62 23b6 2140
000002a0: 40af f135 3b09 1bc0 a00e ab01 4dba 01c0
000002b0: e81f 5adc 3762 3040 981a 135e 6649 1740
000002c0: b0c2 b412 518a 3c40 60c0 b2d1 e89d 0dc0
000002d0: 40e9 ecc3 b367 f13f 00f2 cebf d62f c93f
000002e0: 80b7 c1e4 0cbb 1b40 60a0 266b 588e 00c0
000002f0: 8039 e557 c4ee 0840 009c 70f8 7d69 cbbf
00000300: 8011 c7a3 401c 24c0 0053 e0e0 d4d3 dbbf
00000310: b0c2 b412 518a 3cc0 60c0 b2d1 e89d 0d40
00000320: 80db d36b 3bb7 0040 204c ab5b 85cd 1840
00000330: 80d4 8aab e4d3 14c0 10d6 09d3 a41e 13c0
00000340: e050 1acf dacf 2fc0 4020 e4ab 9873 fc3f
00000350: c07d 6d42 4a90 1640 d0f7 c9f0 1eb5 47c0
00000360: 00f6 f52c a2e1 1740 c0ff 26fe cc85 ffbf
00000370: 60ee c3fc a697 1ac0 4081 978d dc21 0f40
00000380: 947d bd0a 0224 4640 c0f5 15c5 afec f2bf
00000390: 6825 3d7c 1e6c 32c0 4087 a0bc 70f8 02c0
000003a0: d0f1 50a5 a080 4ec0 1051 97a2 cfc8 2240
000003b0: e4dc e578 a865 5040 6a57 e8f6 5c1f 23c0
000003c0: 003c 09a1 0482 e23f 604b 5f3f 524f 0cc0
000003d0: 6065 ea6e e82f 2340 605c 85c8 ea15 1940
000003e0: 8039 e557 c4ee 08c0 009c 70f8 7d69 cb3f
000003f0: 0061 84fc 8afc f2bf 20b2 8efc 6da4 1440
00000400: 68bb 436f c666 4340 8047 95cf 2eab e1bf
00000410: 1071 2b8c 271a 3240 c0e6 3708 2425 09c0
00000420: 0063 3fc2 9980 0fc0 10ea 4db6 4ae6 08c0
00000430: e0cd d38f 3d06 2d40 d043 b652 8bb1 0dc0
00000440: e0cd d38f 3d06 2dc0 d043 b652 8bb1 0d40
00000450: 60ee c3fc a697 1a40 4081 978d dc21 0fc0
00000460: 103a 54e2 35bb 31c0 803e a756 e698 e7bf
00000470: 0080 4ae7 167f f33f 00ba 3836 40de f43f
00000480: 1496 3c61 f04b 5240 0447 c05b f9a7 24c0
00000490: d069 1ed2 64a6 25c0 dcd7 f24b ca37 20c0
000004a0: c07d de84 9c2c 2a40 8048 5793 4bc3 f53f
000004b0: 8007 2c2d 01bf 3b40 8007 546b 960a 0440
000004c0: bc8f b9fc f987 3640 a6e8 4375 6519 3cc0
000004d0: 58a9 d73c d503 33c0 cc4d 079d 300a 2340
000004e0: c099 a923 3b54 4ac0 582e 85a9 0469 1440
000004f0: 2b70 3385 1372 56c0 c011 9208 c931 2940
00000500: 2070 8206 4ce2 1e40 800c 0ba1 d61a 05c0
00000510: 4846 8a96 79bf 3340 888b 4d36 6a6f 10c0
00000520: 00de 0a84 745f df3f a0ed 6c1b 8d12 1dc0
00000530: 3e09 ada2 0bf3 4b40 00e3 eb6a fa2b 04c0
00000540: 0004 903b 700b 1c40 98a1 d01f f28b 16c0
00000550: b629 461b dd78 4640 2067 76d8 d5fc 10c0
00000560: e0f9 25aa 2880 42c0 a8bb ef54 74cb 2940
00000570: 506e 6cb1 88fd 35c0 8063 e56d 3474 d33f
00000580: 80b7 c1e4 0cbb 1bc0 60a0 266b 588e 0040
00000590: 8027 c9fa aef0 2bc0 c073 f7dd d69c 0f40
000005a0: b0d3 42b3 fb90 20c0 7006 05cf c21b 1840
000005b0: f0c2 f5b7 675d 2940 8002 2e3b 0875 ff3f
000005c0: 0080 4ae7 167f f3bf 00ba 3836 40de f4bf
000005d0: 58a9 d73c d503 3340 cc4d 079d 300a 23c0
000005e0: 4064 1b9f d460 4a40 b0f8 bc8a 2eba 10c0
000005f0: 204f 1bf5 b10c 2640 009e 8f06 3a1c 07c0
00000600: 982e b5b7 e5cb 2dc0 0041 6265 df79 f83f
00000610: cc6c dbc8 0aab 48c0 f013 79a6 8ef1 1840
00000620: 6095 f554 fc9c 15c0 008c ec3a e133 ed3f
00000630: 204f 1bf5 b10c 26c0 009e 8f06 3a1c 0740
5.08431585763941 2.4629033672642393 -54.42378775780213 8.062567333265825 6.943853981744013 1.1801590475136123 -7.011170321145073 5.636665818318214
-17.824057906701455 -6.869450216967721 39.06605593161794 -5.520659115366158 -30.880638148458473 2.1696752384453006 -44.281312315487554 1.1827848147071194
-4.682253160846045 -7.707985103783443 -35.54712068355383 13.373981604268977 -1.0878179219567556 -0.19677242627757607 21.990367020580663 -0.30396757823978504
-13.964934839381783 1.5339710097931842 -16.09377422405359 -10.722350065504997 -52.75648869359475 4.181818168434049 -13.087131645354816 -1.3601794963365421
10.055180662203156 0.434804172139863 49.33626661981688 -6.235895730152137 -38.802930744240086 0.5521463446004731 71.2113490737238 -8.85573870631137
-0.49020111937304023 7.268116405986262 13.970084988646477 -3.951581701387539 -12.288504888815112 0.5601452148452921 -5.08431585763941 -2.4629033672642393
-20.960054712408365 0.031382312156921444 6.08356312204819 -9.450889610784046 -39.06605593161794 5.520659115366158 -18.637466976469 3.858414810597125
-81.21765209857296 11.666202354777194 -4.562476127339664 6.371951065695754 4.562476127339664 -6.371951065695754 8.81118410671263 -4.369009586297423
-27.746111701249447 -2.50516971445262 18.637466976469 -3.858414810597125 -8.81118410671263 4.369009586297423 -18.870589896419517 8.507372464072816
14.898236981265015 -1.5297540626816613 15.905966255152123 -1.7782217707154047 -5.970345213424935 1.9701661994767932 25.638273564688916 -8.640783867189327
-0.35069961222794177 2.969231680043606 -71.2113490737238 8.85573870631137 -6.759014933468109 -2.215967190773725 16.383664867404065 5.821679563442238
28.54029957688425 -3.7021042235065096 1.0878179219567556 0.19677242627757607 6.932666372607741 -2.0695045825159895 3.1165854327038574 -0.21415686255315336
-10.055180662203156 -0.434804172139863 -28.54029957688425 3.7021042235065096 2.0894688056973223 6.200704033212816 -5.206926994656101 -4.7799256300691155
-15.905966255152123 1.7782217707154047 5.640908277447522 -47.41500673162193 5.970345213424935 -1.9701661994767932 -6.648097943743409 3.8915339528904553
44.281312315487554 -1.1827848147071194 -18.422340168884517 -2.3713087784280162 -61.00490251972553 9.392209130259772 65.58840773055596 -9.561256137716288
0.5783713479266908 -3.5387310934979013 9.593570200073998 6.271403439655018 -3.1165854327038574 0.21415686255315336 -1.186655985255186 5.160575815400563
38.802930744240086 -0.5521463446004731 18.102165947538253 -3.14313513203237 -3.9377932715982524 -3.1124471895721015 14.512188429455762 -3.7116915189621764
-14.512188429455762 3.7116915189621764 6.648097943743409 -3.8915339528904553 -17.731290956080613 -0.7374145214507308 1.2185277018361376 1.3042604558974062
73.18654662052751 -10.328074328633654 -10.824987951481404 -8.108965276140161 13.087131645354816 1.3601794963365421 27.746111701249447 2.50516971445262
22.53115825205144 -28.099204377249997 -19.014972498561605 9.5199021407524 -52.65805478841094 5.1025568473374605 -89.78244142554529 12.597236888724069
7.720993138991645 -2.638104684972461 19.747949036367828 -4.108803604586576 0.49020111937304023 -7.268116405986262 55.898792585840496 -2.5214737275349535
7.011170321145073 -5.636665818318214 44.944247636088605 -4.246909506060348 -37.00124098638821 12.897371916069304 -21.990367020580663 0.30396757823978504
-6.932666372607741 2.0695045825159895 -13.970084988646477 3.951581701387539 -8.283170320422727 6.0271103236024 12.682431935072117 1.966072302981189
-1.2185277018361376 -1.3042604558974062 19.014972498561605 -9.5199021407524 52.75648869359475 -4.181818168434049 11.024795207580212 -2.888782550103997
-14.898236981265015 1.5297540626816613 -49.33626661981688 6.235895730152137 -5.403306319703319 0.9125829840526194 -11.024795207580212 2.888782550103997
