GeologicalScience/VolcanicEruption/code/volcanoinference/distance_learning/cross-valid-results/epsilon_sensitivity_study/triplet_batch16_epochs800_param_distancesepsilon_0.36.npy (npy, 1728 bytes, 1 tensors)

array f8 [100, 2]
0	0xc018559192316500	-6.08356312204819
1	0x4022e6db00c8d8e8	9.450889610784046
2	0xc04b363ead601a48	-54.42378775780213
3	0x40202008d354596c	8.062567333265825
4	0xc01ee24c06827020	-7.720993138991645
5	0x40051ad6a10b0c80	2.638104684972461
6	0x400f0f75f01d4580	3.8825491675312946
7	0x40063017e5c061c0	2.7734830808005597
8	0xc031d2f5757f4b00	-17.824057906701455
9	0xc01b7a51285d8180	-6.869450216967721
10	0x4020c1c9910a0fc0	8.378490955808843
11	0x40155c26cb86fea0	5.339991741289538
12	0xc0306237dc5a1fe8	-16.383664867404065
13	0xc01749665e131a98	-5.821679563442238
14	0xc028d266e56f5ff0	-12.410941285939742
15	0xc018b8ad5bdd1f68	-6.180348811503656
16	0x3fd61445ed0a0a00	0.3449873747669301
17	0x4008fd73ceb63c80	3.1237560414661516
18	0xc04110bf27c931fc	-34.13083360027301
19	0x404eb91503015c4a	61.44595372740203
20	0xbffaa8b614718740	-1.6661892698834464
21	0x400abc54d3625c40	3.341958667220325
22	0x404b363ead601a48	54.42378775780213
23	0xc0202008d354596c	-8.062567333265825
24	0xc04732fd50c6d858	-46.39835557660325
25	0x402295cbd5d5541c	9.292570764819224
26	0xc0307052ae1dacc0	-16.43876159882052
27	0xc02bb134d1d4c620	-13.846106106971149
28	0xbfb932f6e3950000	-0.09843390518381057
29	0xbfed76b0f641ad40	-0.9207386789034118
30	0xc02a2c9c84de7dc0	-13.087131645354816
31	0xbff5c34b93574880	-1.3601794963365421
32	0x40241c40a3c71180	10.055180662203156
33	0x3fdbd3d4e0e05300	0.434804172139863
34	0x40458c56a24ea330	43.096393860242074
35	0xc01fc645f5c04e60	-7.943626251089512
36	0xc032299a255059d0	-18.162508327595617
37	0xc0252f3e6ea19648	-10.592273194527607
38	0x404768cab82311ac	46.81868650162082
39	0x401f6921ce5f32c0	7.852668022690239
40	0x402502ef59b54970	10.50573234880423
41	0xc0196d7080296118	-6.3568744683509735
42	0x4004f667b7084c80	2.6203150081069566
43	0x4012577754b86d60	4.585416148907228
44	0xc02893b6e9ac64e0	-12.288504888815112
45	0x3fe1ecb5a858af80	0.5601452148452921
46	0xc027b816f924f3a0	-11.859550271759701
47	0xc0212a588130378c	-8.582706486831533
48	0xc03687f9fcb98fbc	-22.53115825205144
49	0x403c19657543e8a6	28.099204377249997
50	0x4018559192316500	6.08356312204819
51	0xc022e6db00c8d8e8	-9.450889610784046
52	0xc0438874855100c0	-39.06605593161794
53	0x40161527a9c372a0	5.520659115366158
54	0x400c26127884f540	3.5185899177146496
55	0x401029362d89ecb0	4.0402457347328635
56	0xc0091f39cff54400	-3.140246987030423
57	0xc01e5fc29fc9fbc0	-7.593515869811142
58	0xc0123ff9bdeed180	-4.562476127339664
59	0x40197ce0bd7b80a0	6.371951065695754
60	0x40123ff9bdeed180	4.562476127339664
61	0xc0197ce0bd7b80a0	-6.371951065695754
62	0xbfe560ecde140600	-0.6680816972222487
63	0x3ff7d95157c279c0	1.4905560901748771
64	0xc02e4b8568665700	-15.14750219582811
65	0xc01f7645f609f518	-7.865501255376579
66	0x403627f35838d588	22.15605689418365
67	0x3fc7463c58484000	0.18183092413573831
68	0xc022f56253d3fba0	-9.47926580393488
69	0x40177031fc14d9c0	5.8595656764723
70	0xc0321a278c2b7110	-18.102165947538253
71	0x400925240837e6c0	3.14313513203237
72	0x402dcbe5b7b52e98	14.898236981265015
73	0xbff879df65624100	-1.5297540626816613
74	0x4039629e91772640	25.385232059087002
75	0xc01e8d18270de1d0	-7.637787447187705
76	0xc017e1a22cf5f600	-5.970345213424935
77	0x3fff85ccfe26ffc0	1.9701661994767932
78	0xc007375969f42980	-2.9020260121953356
79	0xc013c1353c8c2790	-4.938679643682818
80	0xbfd671dcc94f4a00	-0.35069961222794177
81	0x4007c0fc8a004680	2.969231680043606
82	0x40091f39cff54400	3.140246987030423
83	0x401e5fc29fc9fbc0	7.593515869811142
84	0xc01b093b35f1af40	-6.759014933468109
85	0xc001ba4d01ab0ea0	-2.215967190773725
86	0x40306237dc5a1fe8	16.383664867404065
87	0x401749665e131a98	5.821679563442238
88	0x4007375969f42980	2.9020260121953356
89	0x4013c1353c8c2790	4.938679643682818
90	0xbfe28204a1093c00	-0.5783713479266908
91	0x400c4f523f5f4b60	3.5387310934979013
92	0x401bbb0ce4c1b780	6.932666372607741
93	0xc0008e586b26a060	-2.0695045825159895
94	0x4008eec457e53980	3.1165854327038574
95	0xbfcb697df8709c00	-0.21415686255315336
96	0xc0241c40a3c71180	-10.055180662203156
97	0xbfdbd3d4e0e05300	-0.434804172139863
98	0x4012cf3de687b6e0	4.702384569199893
99	0x402879e00bbab510	12.238037458936134
100	0xc027c2e01fd430a0	-11.880616182949154
101	0x40244df865538300	10.152285734600355
102	0xc0184d7e974b94c0	-6.075678218830205
103	0xc01b4e8302863150	-6.826671637955158
104	0x3fe560ecde140600	0.6680816972222487
105	0xbff7d95157c279c0	-1.4905560901748771
106	0x404110bf27c931fc	34.13083360027301
107	0xc04eb91503015c4a	-61.44595372740203
108	0x4017e1a22cf5f600	5.970345213424935
109	0xbfff85ccfe26ffc0	-1.9701661994767932
110	0xc01a97a6fcc3ee60	-6.648097943743409
111	0x400f21dc8d978140	3.8915339528904553
112	0x4041e70fbc4a4ef8	35.80516770962089
113	0xc02da744ac450ae8	-14.826695807865192
114	0xc040779ea213862c	-32.93452859834028
115	0x3ff572352c2b7920	1.3403827405341602
116	0xc05c6df1da58d122	-113.7178865306237
117	0x3ffd3f90156e2140	1.8280182683102595
118	0x40505ea496537094	65.4787956061212
119	0xc02bcc7c695197c2	-13.899386683664378
120	0x3ffaa8b614718740	1.6661892698834464
121	0xc00abc54d3625c40	-3.341958667220325
122	0xc003868890444500	-2.4406901617845733
123	0x4028b734368f63e0	12.357820229533843
124	0xc008eec457e53980	-3.1165854327038574
125	0x3fcb697df8709c00	0.21415686255315336
126	0xc00c26127884f540	-3.5185899177146496
127	0xc01029362d89ecb0	-4.0402457347328635
128	0x401b19d70cdd8580	6.775234414120291
129	0x40187aadab420050	6.119803119567294
130	0x40321a278c2b7110	18.102165947538253
131	0xc00925240837e6c0	-3.14313513203237
132	0x4048c01a5b1012d4	49.50080431256143
133	0xc022a9d6ee2cfbc4	-9.33171791361918
134	0x4040779ea213862c	32.93452859834028
135	0xbff572352c2b7920	-1.3403827405341602
136	0x403e37658c0dd510	30.21639323556616
137	0xc021f41aba128d94	-8.976766409649635
138	0x401a97a6fcc3ee60	6.648097943743409
139	0xc00f21dc8d978140	-3.8915339528904553
140	0x3fd671dcc94f4a00	0.35069961222794177
141	0xc007c0fc8a004680	-2.969231680043606
142	0x3ff37f16e74a8000	1.2185277018361376
143	0x3ff4de403638ba00	1.3042604558974062
144	0x404ab823f7340904	53.43859758415968
145	0xc018e08881330280	-6.219270724047078
146	0x405c6df1da58d122	113.7178865306237
147	0xbffd3f90156e2140	-1.8280182683102595
148	0x402a2c9c84de7dc0	13.087131645354816
149	0x3ff5c34b93574880	1.3601794963365421
150	0x404686e4e06b0256	45.053859760523366
151	0x3fb75a4317066400	0.091221039887742
152	0x403687f9fcb98fbc	22.53115825205144
153	0xc03c19657543e8a6	-28.099204377249997
154	0xc012cf3de687b6e0	-4.702384569199893
155	0xc02879e00bbab510	-12.238037458936134
156	0x3fb932f6e3950000	0.09843390518381057
157	0x3fed76b0f641ad40	0.9207386789034118
158	0xc04686e4e06b0256	-45.053859760523366
159	0xbfb75a4317066400	-0.091221039887742
160	0x401ee24c06827020	7.720993138991645
161	0xc0051ad6a10b0c80	-2.638104684972461
162	0xc048c01a5b1012d4	-49.50080431256143
163	0x4022a9d6ee2cfbc4	9.33171791361918
164	0x4016c32c493a7c40	5.69059862536875
165	0x400b090a07af5980	3.3794136619937376
166	0xc0458c56a24ea330	-43.096393860242074
167	0x401fc645f5c04e60	7.943626251089512
168	0x4039cabda8c240fc	25.791956469941383
169	0xc011925e064900f8	-4.392936800199315
170	0xc03e537516578650	-30.32600536000092
171	0x40128df68f529a78	4.638635863701545
172	0x40316c2c067440d0	17.42254677141392
173	0x401356d70336c478	4.8348045828034785
174	0x404732fd50c6d858	46.39835557660325
175	0xc02295cbd5d5541c	-9.292570764819224
176	0xc01bbb0ce4c1b780	-6.932666372607741
177	0x40008e586b26a060	2.0695045825159895
178	0xc02bf0aefac92780	-13.970084988646477
179	0x400f9cd6ddf773c0	3.951581701387539
180	0x403e4ed0d80eab78	30.30787420614385
181	0x4017ada7c2dcff20	5.919585270632325
182	0x402f9918cdef1150	15.799017367775974
183	0x3ffc07d87c1fef00	1.7519154404280357
184	0xbff37f16e74a8000	-1.2185277018361376
185	0xbff4de403638ba00	-1.3042604558974062
186	0x4028d266e56f5ff0	12.410941285939742
187	0x4018b8ad5bdd1f68	6.180348811503656
188	0xc03a38164fedc3e0	-26.219090457485322
189	0x3ffd89a4288ecbc0	1.8461038193024564
190	0x40260cb1f51b4f20	11.024795207580212
191	0xc0071c3a068f9e00	-2.888782550103997
192	0xc02dcbe5b7b52e98	-14.898236981265015
193	0x3ff879df65624100	1.5297540626816613
194	0xc04a600a2eb31aec	-52.75031074281091
195	0xbfe588e785fec9c0	-0.6729619614691771
196	0xc0159cfc54f59560	-5.403306319703319
197	0x3fed33e13aec8c00	0.9125829840526194
198	0xc0260cb1f51b4f20	-11.024795207580212
199	0x40071c3a068f9e00	2.888782550103997
