GeologicalScience/VolcanicEruption/code/volcanoinference/distance_learning/cross-valid-results/epsilon_sensitivity_study/triplet_batch16_epochs800_param_distancesepsilon_0.02.npy (npy, 1728 bytes, 1 tensors)

array f8 [100, 2]
00000000: c061 6ce5 5656 1440 90dd 3cae 06b4 0340
00000010: e0d4 73f0 0bee 2b40 602e 812f 258b f8bf
00000020: 2070 8206 4ce2 1ec0 800c 0ba1 d61a 0540
00000030: 8045 1df0 750f 0f40 c061 c0e5 1730 0640
00000040: a0aa 2710 b93f 2440 e06e dc3d c916 15c0
00000050: c000 5185 7488 4340 a072 c3a9 2715 16c0
00000060: 3e29 ba07 0ef4 52c0 78a9 7483 1b28 2740
00000070: 947d bd0a 0224 46c0 c0f5 15c5 afec f23f
00000080: 104f c53d acbc 31c0 b059 8661 1b6c 1540
00000090: fc31 c927 bf10 41c0 4a5c 0103 15b9 4e40
000000a0: 40e9 ecc3 b367 f1bf 00f2 cebf d62f c9bf
000000b0: c087 bed4 e018 5140 387f 4479 6d31 23c0
000000c0: c087 bed4 e018 51c0 387f 4479 6d31 2340
000000d0: 4027 c7b0 ab1b 3ac0 980f 42e4 f7a2 2440
000000e0: 4064 1b9f d460 4ac0 b0f8 bc8a 2eba 1040
000000f0: c07d de84 9c2c 2ac0 8048 5793 4bc3 f5bf
00000100: 8011 c7a3 401c 2440 0053 e0e0 d4d3 db3f
00000110: cc6c dbc8 0aab 4840 f013 79a6 8ef1 18c0
00000120: 30ad 0cce 0c29 2e40 4045 4e5d 6273 00c0
00000130: f852 7829 e3bf 49c0 f038 0027 e355 1140
00000140: 8821 79fc 7ced 35c0 20ee 837e 776d f63f
00000150: 8027 c9fa aef0 2b40 c073 f7dd d69c 0fc0
00000160: e064 ace9 b693 28c0 80af 58a8 b5ec e13f
00000170: c061 6ce5 5656 14c0 90dd 3cae 06b4 03c0
00000180: 0432 fd36 523c 48c0 f07b e159 592f 2640
00000190: 0086 3e3a e072 0240 0015 f1b8 00bd f4bf
000001a0: c000 5185 7488 43c0 a072 c3a9 2715 1640
000001b0: e036 2809 31a3 32c0 6055 8f95 08de 0e40
000001c0: 80a6 5b51 2c42 2fc0 90ec d00a eed6 0040
000001d0: e0d1 3269 76de 2340 406c 5fe4 13e9 f9bf
000001e0: 008f 4431 4073 f73f 0068 9aaf 00b8 bd3f
000001f0: 0006 14de ec60 e5bf c079 c257 51d9 f73f
00000200: 48ee 9c5c 33fb 4cc0 6817 7b3e eae2 1940
00000210: 88d5 3858 f327 3640 0040 4858 3c46 c73f
00000220: 4026 7791 9e62 39c0 d0e1 0d27 188d 1e40
00000230: 1071 2b8c 271a 32c0 c0e6 3708 2425 0940
00000240: 982e b5b7 e5cb 2d40 0041 6265 df79 f8bf
00000250: 4026 7791 9e62 3940 d0e1 0d27 188d 1ec0
00000260: 00f6 f52c a2e1 17c0 c0ff 26fe cc85 ff3f
00000270: 30a2 75e6 dd8a 37c0 f0ad a97a add2 1840
00000280: 004a 4fc9 dc71 d6bf 8046 008a fcc0 0740
00000290: f0ff b647 1c52 2ec0 e0d7 b3cc 7822 ff3f
000002a0: 500d dd65 941f 2ec0 d000 a2b1 3a39 2140
000002b0: e0d1 3269 76de 23c0 406c 5fe4 13e9 f93f
000002c0: b0c2 b412 518a 3c40 60c0 b2d1 e89d 0dc0
000002d0: c0a3 3f5e 6720 2bc0 40f6 bdf7 4aa2 1a40
000002e0: 80b7 c1e4 0cbb 1b40 60a0 266b 588e 00c0
000002f0: 8039 e557 c4ee 0840 009c 70f8 7d69 cbbf
00000300: 8011 c7a3 401c 24c0 0053 e0e0 d4d3 dbbf
00000310: b0c2 b412 518a 3cc0 60c0 b2d1 e89d 0d40
00000320: e0e4 d476 483e 2140 0055 754e 18ec e83f
00000330: c00b 1d82 d79f 1940 001b b5ef dad9 e5bf
00000340: 0006 14de ec60 e53f c079 c257 51d9 f7bf
00000350: 8003 07a5 1ca9 f6bf 428a ed61 3609 48c0
00000360: 00f6 f52c a2e1 1740 c0ff 26fe cc85 ffbf
00000370: 60ee c3fc a697 1ac0 4081 978d dc21 0f40
00000380: 947d bd0a 0224 4640 c0f5 15c5 afec f2bf
00000390: 5489 bea4 a5d7 4ac0 78a1 5b00 1669 0440
000003a0: 1014 d671 5756 27c0 601c 6b3d 2140 0940
000003b0: 5006 5605 0ec0 3440 d0c9 8bd4 f65f f3bf
000003c0: 003c 09a1 0482 e23f 604b 5f3f 524f 0cc0
000003d0: e0e4 d476 483e 21c0 0055 754e 18ec e8bf
000003e0: c0a3 3f5e 6720 2b40 40f6 bdf7 4aa2 1ac0
000003f0: 007d 4a35 ad74 0ec0 0026 b23e b567 e23f
00000400: 30a2 75e6 dd8a 3740 f0ad a97a add2 18c0
00000410: 1071 2b8c 271a 3240 c0e6 3708 2425 09c0
00000420: a850 8a19 1663 5e40 f080 47a7 ab59 24c0
00000430: 5006 5605 0ec0 34c0 d0c9 8bd4 f65f f33f
00000440: 48ee 9c5c 33fb 4c40 6817 7b3e eae2 19c0
00000450: 60ee c3fc a697 1a40 4081 978d dc21 0fc0
00000460: 004a 4fc9 dc71 d63f 8046 008a fcc0 07c0
00000470: 0080 4ae7 167f f33f 00ba 3836 40de f43f
00000480: d83d d025 23b8 5340 48e1 a8b3 6dcb 1bc0
00000490: 4ce8 efa4 44c1 4540 806b 0bf4 9628 0dc0
000004a0: c07d de84 9c2c 2a40 8048 5793 4bc3 f53f
000004b0: a01b 0809 9bb0 25c0 2016 a483 cce6 0440
000004c0: 50af 9a4d d48e 1ec0 78d2 575a dfb7 26c0
000004d0: 30ad 0cce 0c29 2ec0 4045 4e5d 6273 0040
000004e0: d83d d025 23b8 53c0 48e1 a8b3 6dcb 1b40
000004f0: bff1 8806 17a2 5bc0 fa8a 23e3 c79d 2b40
00000500: 2070 8206 4ce2 1e40 800c 0ba1 d61a 05c0
00000510: 58e5 d8a8 4470 3940 40f6 ae93 2957 e7bf
00000520: 4846 8a96 79bf 33c0 888b 4d36 6a6f 1040
00000530: a01b 0809 9bb0 2540 2016 a483 cce6 04c0
00000540: 6053 cf99 95c9 2540 70e1 e059 cce7 06c0
00000550: 5086 5716 7553 3ec0 789a 528f f68d 1240
00000560: 88eb 8dee afe4 3cc0 a07d de46 2ae7 1140
00000570: 8821 79fc 7ced 3540 20ee 837e 776d f6bf
00000580: 40fd e56d 16e8 2640 7094 ead0 4d2e 10c0
00000590: 8027 c9fa aef0 2bc0 c073 f7dd d69c 0f40
000005a0: f0ff b647 1c52 2e40 e0d7 b3cc 7822 ffbf
000005b0: 80a6 c686 eb54 00c0 00ae 78d0 4ac6 0ac0
000005c0: 0080 4ae7 167f f3bf 00ba 3836 40de f4bf
000005d0: 6c75 764c 2c55 5040 602a db3e 5a52 22c0
000005e0: 4064 1b9f d460 4a40 b0f8 bc8a 2eba 10c0
000005f0: 204f 1bf5 b10c 2640 009e 8f06 3a1c 07c0
00000600: 982e b5b7 e5cb 2dc0 0041 6265 df79 f83f
00000610: 1014 d671 5756 2740 601c 6b3d 2140 09c0
00000620: 6095 f554 fc9c 15c0 008c ec3a e133 ed3f
00000630: 204f 1bf5 b10c 26c0 009e 8f06 3a1c 0740
5.08431585763941 2.4629033672642393 13.964934839381783 -1.5339710097931842 -7.720993138991645 2.638104684972461 3.8825491675312946 2.7734830808005597
10.124458794443228 -5.272252050952119 39.06605593161794 -5.520659115366158 -75.81335633449359 11.57833491133782 -44.281312315487554 1.1827848147071194
-17.737003193541625 5.355573200059027 -34.13083360027301 61.44595372740203 -1.0878179219567556 -0.19677242627757607 68.38872259718391 -9.59653834305901
-68.38872259718391 9.59653834305901 -26.108088539716164 10.318297513069226 -52.75648869359475 4.181818168434049 -13.087131645354816 -1.3601794963365421
10.055180662203156 0.434804172139863 49.33626661981688 -6.235895730152137 15.080175818488527 -2.0563399590979827 -51.49911993384552 4.3338743299375295
-21.927688388417238 1.4017252866750667 13.970084988646477 -3.951581701387539 -12.288504888815112 0.5601452148452921 -5.08431585763941 -2.4629033672642393
-48.47125899661117 11.092478569769781 2.306091742547096 -1.2961432670866202 -39.06605593161794 5.520659115366158 -18.637466976469 3.858414810597125
-15.629244368016998 2.104946217060906 9.934497153714744 -1.619403736191785 1.4656373905681335 0.1160889080732943 -0.6680816972222487 1.4905560901748771
-57.962504936815606 6.4715966951970145 22.15605689418365 0.18183092413573831 -25.385232059087002 7.637787447187705 -18.102165947538253 3.14313513203237
14.898236981265015 -1.5297540626816613 25.385232059087002 -7.637787447187705 -5.970345213424935 1.9701661994767932 -23.542448428839805 6.205739895445262
-0.35069961222794177 2.969231680043606 -15.16037201031574 1.9459159847442535 -15.061679061159026 8.611775923753527 -9.934497153714744 1.619403736191785
28.54029957688425 -3.7021042235065096 -13.563288636463653 6.65848910424171 6.932666372607741 -2.0695045825159895 3.1165854327038574 -0.21415686255315336
-10.055180662203156 -0.434804172139863 -28.54029957688425 3.7021042235065096 8.62164660786442 0.7788201839818214 6.406095536253758 -0.6828436548028947
0.6680816972222487 -1.4905560901748771 -1.416287083280821 -48.07197212313305 5.970345213424935 -1.9701661994767932 -6.648097943743409 3.8915339528904553
44.281312315487554 -1.1827848147071194 -53.684742539439554 2.5513114955867273 -11.66863589990865 3.156313400107635 20.750213941099275 -1.2109287550525671
0.5783713479266908 -3.5387310934979013 -8.62164660786442 -0.7788201839818214 13.563288636463653 -6.65848910424171 -3.8069709933621425 0.5751596664933345
23.542448428839805 -6.205739895445262 18.102165947538253 -3.14313513203237 121.54822386271792 -10.175137736776804 -20.750213941099275 1.2109287550525671
57.962504936815606 -6.4715966951970145 6.648097943743409 -3.8915339528904553 0.35069961222794177 -2.969231680043606 1.2185277018361376 1.3042604558974062
78.87714524589626 -6.948660666639917 43.50990735735158 -3.644819170568951 13.087131645354816 1.3601794963365421 -10.84493282531713 2.6126947674226955
-7.639481747213566 -11.359125922413327 -15.080175818488527 2.0563399590979827 -78.87714524589626 6.948660666639917 -110.53265536664456 13.808165643776636
7.720993138991645 -2.638104684972461 25.438547661736578 -0.7293899425928387 -19.747949036367828 4.108803604586576 10.84493282531713 -2.6126947674226955
10.893719488676368 -2.863182737517654 -30.32600536000092 4.638635863701545 -28.89330950703473 4.475747210817104 21.927688388417238 -1.4017252866750667
11.453296121907101 -4.045218719785325 -13.970084988646477 3.951581701387539 15.16037201031574 -1.9459159847442535 -2.041464856087998 -3.3468223845318334
-1.2185277018361376 -1.3042604558974062 65.33082877701025 -9.160844768766026 52.75648869359475 -4.181818168434049 11.024795207580212 -2.888782550103997
-14.898236981265015 1.5297540626816613 11.66863589990865 -3.156313400107635 -5.403306319703319 0.9125829840526194 -11.024795207580212 2.888782550103997
