GeologicalScience/VolcanicEruption/code/volcanoinference/distance_learning/cross-valid-results/epsilon_sensitivity_study/triplet_batch16_epochs800_param_distancesepsilon_0.60.npy (npy, 1728 bytes, 1 tensors)

array f8 [100, 2]
000000 c0 61 6c e5 56 56 14 40 90 dd 3c ae 06 b4 03 40
       5.08431585763941 2.4629033672642393
000010 48 1a 60 ad 3e 36 4b c0 6c 59 54 d3 08 20 20 40
       -54.42378775780213 8.062567333265825
000020 20 70 82 06 4c e2 1e c0 80 0c 0b a1 d6 1a 05 40
       -7.720993138991645 2.638104684972461
000030 00 04 90 3b 70 0b 1c c0 98 a1 d0 1f f2 8b 16 40
       -7.011170321145073 5.636665818318214
000040 00 f4 db 36 78 7e dd 3f 88 fd fa 00 2c 99 29 40
       0.460844091008596 12.799163847578498
000050 a0 90 68 1a 05 6f 32 40 d0 03 95 19 64 19 17 40
       18.433671618012 5.774795913429401
000060 38 3d 6f 80 71 e1 3e c0 30 82 00 b1 7e 5b 01 40
       -30.880638148458473 2.1696752384453006
000070 94 7d bd 0a 02 24 46 c0 c0 f5 15 c5 af ec f2 3f
       -44.281312315487554 1.1827848147071194
000080 70 c9 f4 14 17 c3 21 40 50 97 e4 81 a2 bb 2c c0
       8.881035475617608 -14.366474208025153
000090 fc 31 c9 27 bf 10 41 c0 4a 5c 01 03 15 b9 4e 40
       -34.13083360027301 61.44595372740203
0000a0 40 e9 ec c3 b3 67 f1 bf 00 f2 ce bf d6 2f c9 bf
       -1.0878179219567556 -0.19677242627757607
0000b0 48 1a 60 ad 3e 36 4b 40 6c 59 54 d3 08 20 20 c0
       54.42378775780213 -8.062567333265825
0000c0 00 8f 44 31 40 73 f7 bf 00 68 9a af 00 b8 bd bf
       -1.4656373905681335 -0.1160889080732943
0000d0 10 9d a3 5b 28 4f 1d c0 e8 df 05 f1 c1 1f 27 40
       -7.327302390919854 11.562026531188124
0000e0 40 64 1b 9f d4 60 4a c0 b0 f8 bc 8a 2e ba 10 40
       -52.75648869359475 4.181818168434049
0000f0 c0 7d de 84 9c 2c 2a c0 80 48 57 93 4b c3 f5 bf
       -13.087131645354816 -1.3601794963365421
000100 80 11 c7 a3 40 1c 24 40 00 53 e0 e0 d4 d3 db 3f
       10.055180662203156 0.434804172139863
000110 cc 6c db c8 0a ab 48 40 f0 13 79 a6 8e f1 18 c0
       49.33626661981688 -6.235895730152137
000120 b8 0a a8 8d 8b 03 40 c0 40 a9 34 85 13 b0 1a 40
       -32.027696330119795 6.671949464167767
000130 00 d9 28 46 ff 8a f2 3f 40 ab 27 14 0c 99 e8 bf
       1.1589348545654161 -0.768682517399931
000140 88 21 79 fc 7c ed 35 c0 20 ee 83 7e 77 6d f6 3f
       -21.927688388417238 1.4017252866750667
000150 80 27 c9 fa ae f0 2b 40 c0 73 f7 dd d6 9c 0f c0
       13.970084988646477 -3.951581701387539
000160 00 8c e8 7e 0a 51 f6 bf 90 b5 ca ef 9e 6c 02 c0
       -1.394785400138744 -2.303037522672362
000170 c0 61 6c e5 56 56 14 c0 90 dd 3c ae 06 b4 03 c0
       -5.08431585763941 -2.4629033672642393
000180 04 32 fd 36 52 3c 48 c0 f0 7b e1 59 59 2f 26 40
       -48.47125899661117 11.092478569769781
000190 58 37 ee bf 3d 0e 43 40 c4 96 b1 61 72 1f 30 c0
       38.111259452167985 -16.122839074951813
0001a0 a0 f9 1c 42 04 b0 3e c0 a0 38 a5 3a a7 b8 25 40
       -30.687564975809096 10.860650856655695
0001b0 b0 ce a2 70 39 2f 27 40 90 d4 46 f5 c3 25 16 c0
       11.592235107301661 -5.536880333374157
0001c0 78 28 da 5d f5 4c 32 c0 c8 05 9d 6c 24 97 16 c0
       -18.300618997346163 -5.647599885066889
0001d0 80 d1 ee bd f9 3f 12 c0 a0 80 7b bd e0 7c 19 40
       -4.562476127339664 6.371951065695754
0001e0 80 d1 ee bd f9 3f 12 40 a0 80 7b bd e0 7c 19 c0
       4.562476127339664 -6.371951065695754
0001f0 40 bb f2 85 53 9f 21 40 50 3b 24 a6 dd 79 11 c0
       8.81118410671263 -4.369009586297423
000200 48 ee 9c 5c 33 fb 4c c0 68 17 7b 3e ea e2 19 40
       -57.962504936815606 6.4715966951970145
000210 88 d5 38 58 f3 27 36 40 00 40 48 58 3c 46 c7 3f
       22.15605689418365 0.18183092413573831
000220 40 bb f2 85 53 9f 21 c0 50 3b 24 a6 dd 79 11 40
       -8.81118410671263 4.369009586297423
000230 10 71 2b 8c 27 1a 32 c0 c0 e6 37 08 24 25 09 40
       -18.102165947538253 3.14313513203237
000240 00 8c e8 7e 0a 51 f6 3f 90 b5 ca ef 9e 6c 02 40
       1.394785400138744 2.303037522672362
000250 e0 50 1a cf da cf 2f 40 40 20 e4 ab 98 73 fc bf
       15.905966255152123 -1.7782217707154047
000260 00 f6 f5 2c a2 e1 17 c0 c0 ff 26 fe cc 85 ff 3f
       -5.970345213424935 1.9701661994767932
000270 80 29 f4 69 59 37 07 c0 90 27 8c 3c 35 c1 13 c0
       -2.9020260121953356 -4.938679643682818
000280 00 4a 4f c9 dc 71 d6 bf 80 46 00 8a fc c0 07 40
       -0.35069961222794177 2.969231680043606
000290 80 55 5e dd 5d fa 28 c0 04 39 99 d2 9c 65 23 40
       -12.488997380986575 9.698462086872048
0002a0 60 95 f5 54 fc 9c 15 40 00 8c ec 3a e1 33 ed bf
       5.403306319703319 -0.9125829840526194
0002b0 e0 d1 32 69 76 de 23 c0 40 6c 5f e4 13 e9 f9 3f
       -9.934497153714744 1.619403736191785
0002c0 80 29 f4 69 59 37 07 40 90 27 8c 3c 35 c1 13 40
       2.9020260121953356 4.938679643682818
0002d0 40 e9 ec c3 b3 67 f1 3f 00 f2 ce bf d6 2f c9 3f
       1.0878179219567556 0.19677242627757607
0002e0 80 6c 23 70 ce 62 32 40 a0 e4 7d 06 7a 75 18 c0
       18.385962494514843 -6.114723302301314
0002f0 80 39 e5 57 c4 ee 08 40 00 9c 70 f8 7d 69 cb bf
       3.1165854327038574 -0.21415686255315336
000300 a0 90 68 1a 05 6f 32 c0 d0 03 95 19 64 19 17 c0
       -18.433671618012 -5.774795913429401
000310 80 3d 76 e5 65 a3 39 c0 e0 c3 b2 d2 14 48 21 40
       -25.638273564688916 8.640783867189327
000320 b0 ce a2 70 39 2f 27 c0 90 d4 46 f5 c3 25 16 40
       -11.592235107301661 5.536880333374157
000330 40 65 40 6c c3 5a 26 c0 40 2c 00 27 63 7a 06 c0
       -11.177272208081035 -2.8097594305923224
000340 e0 50 1a cf da cf 2f c0 40 20 e4 ab 98 73 fc 3f
       -15.905966255152123 1.7782217707154047
000350 fc 31 c9 27 bf 10 41 40 4a 5c 01 03 15 b9 4e c0
       34.13083360027301 -61.44595372740203
000360 00 f6 f5 2c a2 e1 17 40 c0 ff 26 fe cc 85 ff bf
       5.970345213424935 -1.9701661994767932
000370 00 68 96 f8 83 f1 06 c0 60 9c 68 62 7f 2e 16 c0
       -2.8679274960422845 -5.545407807955684
000380 94 7d bd 0a 02 24 46 40 c0 f5 15 c5 af ec f2 bf
       44.281312315487554 -1.1827848147071194
000390 2c 86 13 a2 9e 77 40 c0 20 79 2b 2c 35 72 f5 3f
       -32.93452859834028 1.3403827405341602
0003a0 b8 25 bc 6a 65 e5 49 c0 e0 42 8e 15 77 0c 27 40
       -51.79215749918825 11.524346040359376
0003b0 bf f1 88 06 17 a2 5b 40 fa 8a 23 e3 c7 9d 2b c0
       110.53265536664456 -13.808165643776636
0003c0 40 87 71 14 b6 a8 fa 3f 40 5c 62 d3 54 bc 0a c0
       1.6661892698834464 -3.341958667220325
0003d0 c0 8a 54 4b 94 80 34 c0 b0 2d 6c e0 36 bf 22 40
       -20.502262790813575 9.373465550618533
0003e0 80 39 e5 57 c4 ee 08 c0 00 9c 70 f8 7d 69 cb 3f
       -3.1165854327038574 0.21415686255315336
0003f0 88 d5 38 58 f3 27 36 c0 00 40 48 58 3c 46 c7 bf
       -22.15605689418365 -0.18183092413573831
000400 a0 f3 24 f9 16 b8 27 40 8c 37 30 81 58 2a 21 40
       11.859550271759701 8.582706486831533
000410 10 71 2b 8c 27 1a 32 40 c0 e6 37 08 24 25 09 c0
       18.102165947538253 -3.14313513203237
000420 00 28 77 15 6b c2 52 40 54 d0 03 78 de 47 22 c0
       75.03778587948182 -9.140369177308607
000430 2c 86 13 a2 9e 77 40 40 20 79 2b 2c 35 72 f5 bf
       32.93452859834028 -1.3403827405341602
000440 50 86 57 16 75 53 3e 40 78 9a 52 8f f6 8d 12 c0
       30.32600536000092 -4.638635863701545
000450 60 ee c3 fc a6 97 1a 40 40 81 97 8d dc 21 0f c0
       6.648097943743409 -3.8915339528904553
000460 00 4a 4f c9 dc 71 d6 3f 80 46 00 8a fc c0 07 c0
       0.35069961222794177 -2.969231680043606
000470 00 80 4a e7 16 7f f3 3f 00 ba 38 36 40 de f4 3f
       1.2185277018361376 1.3042604558974062
000480 04 09 34 f7 23 b8 4a 40 80 02 33 81 88 e0 18 c0
       53.43859758415968 -6.219270724047078
000490 d0 69 1e d2 64 a6 25 c0 dc d7 f2 4b ca 37 20 c0
       -10.824987951481404 -8.108965276140161
0004a0 c0 7d de 84 9c 2c 2a 40 80 48 57 93 4b c3 f5 3f
       13.087131645354816 1.3601794963365421
0004b0 c0 1f 15 57 7d 7e 04 c0 c0 f6 65 1a b9 50 0b c0
       -2.5617625048944035 -3.414415556179705
0004c0 b0 5c 37 9b 99 78 11 40 cc d5 37 af 9d 2c 26 c0
       4.367773461584122 -11.08714053684789
0004d0 44 7a cd ef 52 71 49 c0 1c 4e cc a1 0e e2 30 40
       -50.885343528109416 16.883035766963175
0004e0 c0 99 a9 23 3b 54 4a c0 58 2e 85 a9 04 69 14 40
       -52.65805478841094 5.1025568473374605
0004f0 bf f1 88 06 17 a2 5b c0 fa 8a 23 e3 c7 9d 2b 40
       -110.53265536664456 13.808165643776636
000500 80 6c 23 70 ce 62 32 c0 a0 e4 7d 06 7a 75 18 40
       -18.385962494514843 6.114723302301314
000510 50 8a 55 b3 0f c3 37 c0 80 5c 7d c4 eb b1 dd bf
       -23.76195832098375 -0.46398443401762535
000520 4c e8 ef a4 44 c1 45 c0 80 6b 0b f4 96 28 0d 40
       -43.50990735735158 3.644819170568951
000530 e0 4c 66 34 a1 f5 18 40 c0 e9 1c 3d dd 52 fb 3f
       6.2398727595748085 1.7077305209373748
000540 00 04 90 3b 70 0b 1c 40 98 a1 d0 1f f2 8b 16 c0
       7.011170321145073 -5.636665818318214
000550 50 86 57 16 75 53 3e c0 78 9a 52 8f f6 8d 12 40
       -30.32600536000092 4.638635863701545
000560 70 ca b2 95 42 f4 47 c0 9c 8c 76 c0 c5 fd 2b 40
       -47.908282005596334 13.995649351569504
000570 50 6e 6c b1 88 fd 35 c0 80 63 e5 6d 34 74 d3 3f
       -21.990367020580663 0.30396757823978504
000580 80 b7 c1 e4 0c bb 1b c0 60 a0 26 6b 58 8e 00 40
       -6.932666372607741 2.0695045825159895
000590 80 27 c9 fa ae f0 2b c0 c0 73 f7 dd d6 9c 0f 40
       -13.970084988646477 3.951581701387539
0005a0 c0 1f 15 57 7d 7e 04 40 c0 f6 65 1a b9 50 0b 40
       2.5617625048944035 3.414415556179705
0005b0 80 a6 c6 86 eb 54 00 c0 00 ae 78 d0 4a c6 0a c0
       -2.041464856087998 -3.3468223845318334
0005c0 00 80 4a e7 16 7f f3 bf 00 ba 38 36 40 de f4 bf
       -1.2185277018361376 -1.3042604558974062
0005d0 d0 69 1e d2 64 a6 25 40 dc d7 f2 4b ca 37 20 40
       10.824987951481404 8.108965276140161
0005e0 40 64 1b 9f d4 60 4a 40 b0 f8 bc 8a 2e ba 10 c0
       52.75648869359475 -4.181818168434049
0005f0 20 4f 1b f5 b1 0c 26 40 00 9e 8f 06 3a 1c 07 c0
       11.024795207580212 -2.888782550103997
000600 10 9d a3 5b 28 4f 1d 40 e8 df 05 f1 c1 1f 27 c0
       7.327302390919854 -11.562026531188124
000610 cc 6c db c8 0a ab 48 c0 f0 13 79 a6 8e f1 18 40
       -49.33626661981688 6.235895730152137
000620 60 95 f5 54 fc 9c 15 c0 00 8c ec 3a e1 33 ed 3f
       -5.403306319703319 0.9125829840526194
000630 20 4f 1b f5 b1 0c 26 c0 00 9e 8f 06 3a 1c 07 40
       -11.024795207580212 2.888782550103997
