GeologicalScience/VolcanicEruption/code/volcanoinference/distance_learning/cross-valid-results/epsilon_sensitivity_study/triplet_batch16_epochs800_param_distancesepsilon_0.48.npy (npy, 1728 bytes, 1 tensors)

array f8 [100, 2]
32.027696330119795 -6.671949464167767 -54.42378775780213 8.062567333265825 -7.720993138991645 2.638104684972461 -7.011170321145073 5.636665818318214
3.4179630459428267 -8.898449122506847 8.378490955808843 5.339991741289538 -16.383664867404065 -5.821679563442238 -31.262592597634267 8.611871622701209
0.3449873747669301 3.1237560414661516 -34.13083360027301 61.44595372740203 -1.6661892698834464 3.341958667220325 54.42378775780213 -8.062567333265825
-46.39835557660325 9.292570764819224 -7.327302390919854 11.562026531188124 -25.53698156692039 -0.19134873631057303 -13.087131645354816 -1.3601794963365421
10.055180662203156 0.434804172139863 49.33626661981688 -6.235895730152137 -32.027696330119795 6.671949464167767 65.67631540246879 -2.331295277134977
10.50573234880423 -6.3568744683509735 13.970084988646477 -3.951581701387539 4.391992373225605 -29.240924223513296 -11.859550271759701 -8.582706486831533
-20.960054712408365 0.031382312156921444 6.08356312204819 -9.450889610784046 -39.06605593161794 5.520659115366158 -0.28838107564749293 4.615405401226198
12.007255208797687 0.2719853855654364 1.4268120850526316 -15.991335931074104 -44.93271818603512 9.408659672892519 -0.6680816972222487 1.4905560901748771
-12.007255208797687 -0.2719853855654364 22.15605689418365 0.18183092413573831 -8.81118410671263 4.369009586297423 -18.870589896419517 8.507372464072816
-10.893719488676368 2.863182737517654 18.870589896419517 -8.507372464072816 -5.970345213424935 1.9701661994767932 -2.9020260121953356 -4.938679643682818
-0.35069961222794177 2.969231680043606 -23.443542330738467 7.973026308346654 -5.950219853258361 34.0199085619128 13.035952773862505 -11.468760288360173
2.9020260121953356 4.938679643682818 -0.5783713479266908 3.5387310934979013 6.932666372607741 -2.0695045825159895 3.1165854327038574 -0.21415686255315336
-10.055180662203156 -0.434804172139863 -25.638273564688916 8.640783867189327 2.0894688056973223 6.200704033212816 -1.4268120850526316 15.991335931074104
0.6680816972222487 -1.4905560901748771 34.13083360027301 -61.44595372740203 5.970345213424935 -1.9701661994767932 -6.648097943743409 3.8915339528904553
44.281312315487554 -1.1827848147071194 -32.93452859834028 1.3403827405341602 -11.66863589990865 3.156313400107635 11.537468920561992 -3.343065665152171
1.6661892698834464 -3.341958667220325 2.6609038274662566 8.340908022171007 -3.1165854327038574 0.21415686255315336 -22.15605689418365 -0.18183092413573831
11.859550271759701 8.582706486831533 18.102165947538253 -3.14313513203237 75.03778587948182 -9.140369177308607 32.93452859834028 -1.3403827405341602
30.32600536000092 -4.638635863701545 -13.436340754021927 20.76845248194053 0.35069961222794177 -2.969231680043606 1.2185277018361376 1.3042604558974062
31.262592597634267 -8.611871622701209 43.50990735735158 -3.644819170568951 13.087131645354816 1.3601794963365421 15.73885649245176 2.2331843288871838
4.367773461584122 -11.08714053684789 13.436340754021927 -20.76845248194053 0.09843390518381057 0.9207386789034118 -110.53265536664456 13.808165643776636
7.720993138991645 -2.638104684972461 -27.21950712667436 4.373166904744622 -43.50990735735158 3.644819170568951 23.443542330738467 -7.973026308346654
10.893719488676368 -2.863182737517654 -10.954544949751892 -1.7254357785253944 -47.908282005596334 13.995649351569504 44.93271818603512 -9.408659672892519
-6.932666372607741 2.0695045825159895 -13.970084988646477 3.951581701387539 14.007752703076534 -7.228304672258837 12.682431935072117 1.966072302981189
-1.2185277018361376 -1.3042604558974062 47.908282005596334 -13.995649351569504 27.21950712667436 -4.373166904744622 11.024795207580212 -2.888782550103997
20.960054712408365 -0.031382312156921444 -49.33626661981688 6.235895730152137 -12.162321253171427 -1.3033842067211054 -11.024795207580212 2.888782550103997
00000000: b80a a88d 8b03 4040 40a9 3485 13b0 1ac0
00000010: 481a 60ad 3e36 4bc0 6c59 54d3 0820 2040
00000020: 2070 8206 4ce2 1ec0 800c 0ba1 d61a 0540
00000030: 0004 903b 700b 1cc0 98a1 d01f f28b 1640
00000040: 8016 6a02 fd57 0b40 d892 fc85 01cc 21c0
00000050: c00f 0a91 c9c1 2040 a0fe 86cb 265c 1540
00000060: e81f 5adc 3762 30c0 981a 135e 6649 17c0
00000070: c802 bb44 3943 3fc0 4cb4 c13c 4739 2140
00000080: 000a 0aed 4514 d63f 803c b6ce 73fd 0840
00000090: fc31 c927 bf10 41c0 4a5c 0103 15b9 4e40
000000a0: 4087 7114 b6a8 fabf 405c 62d3 54bc 0a40
000000b0: 481a 60ad 3e36 4b40 6c59 54d3 0820 20c0
000000c0: 58d8 c650 fd32 47c0 1c54 d5d5 cb95 2240
000000d0: 109d a35b 284f 1dc0 e8df 05f1 c11f 2740
000000e0: 587a bc9f 7789 39c0 00dc 4a8a 1d7e c8bf
000000f0: c07d de84 9c2c 2ac0 8048 5793 4bc3 f5bf
00000100: 8011 c7a3 401c 2440 0053 e0e0 d4d3 db3f
00000110: cc6c dbc8 0aab 4840 f013 79a6 8ef1 18c0
00000120: b80a a88d 8b03 40c0 40a9 3485 13b0 1a40
00000130: 9cd8 65c0 486b 5040 70e9 6423 7ea6 02c0
00000140: 7049 b559 ef02 2540 1861 2980 706d 19c0
00000150: 8027 c9fa aef0 2b40 c073 f7dd d69c 0fc0
00000160: 4024 dd72 6691 1140 c6cd bc35 ad3d 3dc0
00000170: a0f3 24f9 16b8 27c0 8c37 3081 582a 21c0
00000180: 242a 4825 c6f5 34c0 0010 c6a8 5711 a03f
00000190: 0065 3192 9155 1840 e8d8 c800 dbe6 22c0
000001a0: c000 5185 7488 43c0 a072 c3a9 2715 1640
000001b0: 003e 2ce6 d574 d2bf 7031 60d5 2c76 1240
000001c0: 0006 69f4 b603 2840 8095 ff63 3568 d13f
000001d0: 006b ade8 38d4 f63f 40a0 1662 90fb 2fc0
000001e0: e0b3 3c4f 6377 46c0 ec88 34d7 3bd1 2240
000001f0: 0006 14de ec60 e5bf c079 c257 51d9 f73f
00000200: 0006 69f4 b603 28c0 8095 ff63 3568 d1bf
00000210: 88d5 3858 f327 3640 0040 4858 3c46 c73f
00000220: 40bb f285 539f 21c0 503b 24a6 dd79 1140
00000230: 9059 bdfa dede 32c0 d82a d852 c603 2140
00000240: 6053 cf99 95c9 25c0 70e1 e059 cce7 0640
00000250: 9059 bdfa dede 3240 d82a d852 c603 21c0
00000260: 00f6 f52c a2e1 17c0 c0ff 26fe cc85 ff3f
00000270: 8029 f469 5937 07c0 9027 8c3c 35c1 13c0
00000280: 004a 4fc9 dc71 d6bf 8046 008a fcc0 0740
00000290: d0e9 7cfd 8b71 37c0 68fc 3102 61e4 1f40
000002a0: b004 e76e 06cd 17c0 b629 1f5d 8c02 4140
000002b0: 40e1 e766 6812 2a40 4857 3859 01f0 26c0
000002c0: 8029 f469 5937 0740 9027 8c3c 35c1 1340
000002d0: 003c 09a1 0482 e2bf 604b 5f3f 524f 0c40
000002e0: 80b7 c1e4 0cbb 1b40 60a0 266b 588e 00c0
000002f0: 8039 e557 c4ee 0840 009c 70f8 7d69 cbbf
00000300: 8011 c7a3 401c 24c0 0053 e0e0 d4d3 dbbf
00000310: 803d 76e5 65a3 39c0 e0c3 b2d2 1448 2140
00000320: 80db d36b 3bb7 0040 204c ab5b 85cd 1840
00000330: 006b ade8 38d4 f6bf 40a0 1662 90fb 2f40
00000340: 0006 14de ec60 e53f c079 c257 51d9 f7bf
00000350: fc31 c927 bf10 4140 4a5c 0103 15b9 4ec0
00000360: 00f6 f52c a2e1 1740 c0ff 26fe cc85 ffbf
00000370: 60ee c3fc a697 1ac0 4081 978d dc21 0f40
00000380: 947d bd0a 0224 4640 c0f5 15c5 afec f2bf
00000390: 2c86 13a2 9e77 40c0 2079 2b2c 3572 f53f
000003a0: 1014 d671 5756 27c0 601c 6b3d 2140 0940
000003b0: 40dc 5820 2f13 2740 28ac 2136 99be 0ac0
000003c0: 4087 7114 b6a8 fa3f 405c 62d3 54bc 0ac0
000003d0: 8026 26f2 8749 0540 4856 0c7f 8bae 2040
000003e0: 8039 e557 c4ee 08c0 009c 70f8 7d69 cb3f
000003f0: 88d5 3858 f327 36c0 0040 4858 3c46 c7bf
00000400: a0f3 24f9 16b8 2740 8c37 3081 582a 2140
00000410: 1071 2b8c 271a 3240 c0e6 3708 2425 09c0
00000420: 0028 7715 6bc2 5240 54d0 0378 de47 22c0
00000430: 2c86 13a2 9e77 4040 2079 2b2c 3572 f5bf
00000440: 5086 5716 7553 3e40 789a 528f f68d 12c0
00000450: 50df 280e 68df 2ac0 f076 464d b9c4 3440
00000460: 004a 4fc9 dc71 d63f 8046 008a fcc0 07c0
00000470: 0080 4ae7 167f f33f 00ba 3836 40de f43f
00000480: c802 bb44 3943 3f40 4cb4 c13c 4739 21c0
00000490: 4ce8 efa4 44c1 4540 806b 0bf4 9628 0dc0
000004a0: c07d de84 9c2c 2a40 8048 5793 4bc3 f53f
000004b0: 0009 ef65 4b7a 2f40 d014 d4be 8fdd 0140
000004c0: b05c 379b 9978 1140 ccd5 37af 9d2c 26c0
000004d0: 50df 280e 68df 2a40 f076 464d b9c4 34c0
000004e0: 0000 95e3 f632 b93f 40ad 41f6 b076 ed3f
000004f0: bff1 8806 17a2 5bc0 fa8a 23e3 c79d 2b40
00000500: 2070 8206 4ce2 1e40 800c 0ba1 d61a 05c0
00000510: 284e 7a9e 3138 3bc0 904f 0f77 1f7e 1140
00000520: 4ce8 efa4 44c1 45c0 806b 0bf4 9628 0d40
00000530: d0e9 7cfd 8b71 3740 68fc 3102 61e4 1fc0
00000540: 6053 cf99 95c9 2540 70e1 e059 cce7 06c0
00000550: 207e 9b1d bae8 25c0 80d6 018c 629b fbbf
00000560: 70ca b295 42f4 47c0 9c8c 76c0 c5fd 2b40
00000570: e0b3 3c4f 6377 4640 ec88 34d7 3bd1 22c0
00000580: 80b7 c1e4 0cbb 1bc0 60a0 266b 588e 0040
00000590: 8027 c9fa aef0 2bc0 c073 f7dd d69c 0f40
000005a0: b056 8c29 f803 2c40 b880 33b3 c8e9 1cc0
000005b0: f0c2 f5b7 675d 2940 8002 2e3b 0875 ff3f
000005c0: 0080 4ae7 167f f3bf 00ba 3836 40de f4bf
000005d0: 70ca b295 42f4 4740 9c8c 76c0 c5fd 2bc0
000005e0: 284e 7a9e 3138 3b40 904f 0f77 1f7e 11c0
000005f0: 204f 1bf5 b10c 2640 009e 8f06 3a1c 07c0
00000600: 242a 4825 c6f5 3440 0010 c6a8 5711 a0bf
00000610: cc6c dbc8 0aab 48c0 f013 79a6 8ef1 1840
00000620: 50a2 73c5 1b53 28c0 40d7 df65 a9da f4bf
00000630: 204f 1bf5 b10c 26c0 009e 8f06 3a1c 0740
