GeologicalScience/VolcanicEruption/code/volcanoinference/distance_learning/cross-valid-results/epsilon_sensitivity_study/triplet_batch16_epochs800_param_distancesepsilon_0.28.npy (npy, 1728 bytes, 1 tensors)

array f8 [100, 2]
000000 80 85 dd 0c d7 19 1b c0 50 00 42 ab ad 7a 18 c0
       -6.775234414120291 -6.119803119567294
000010 48 1a 60 ad 3e 36 4b c0 6c 59 54 d3 08 20 20 40
       -54.42378775780213 8.062567333265825
000020 20 70 82 06 4c e2 1e c0 80 0c 0b a1 d6 1a 05 40
       -7.720993138991645 2.638104684972461
000030 fc 3f de 99 e1 c7 32 40 80 82 1e 66 50 e6 f3 3f
       18.78078614879631 1.2437290181188985
000040 00 f4 db 36 78 7e dd 3f 88 fd fa 00 2c 99 29 40
       0.460844091008596 12.799163847578498
000050 c0 00 51 85 74 88 43 40 a0 72 c3 a9 27 15 16 c0
       39.06605593161794 -5.520659115366158
000060 38 3d 6f 80 71 e1 3e c0 30 82 00 b1 7e 5b 01 40
       -30.880638148458473 2.1696752384453006
000070 94 7d bd 0a 02 24 46 c0 c0 f5 15 c5 af ec f2 3f
       -44.281312315487554 1.1827848147071194
000080 b0 35 e4 ca f6 9a 20 40 78 c4 0c f2 cd a7 25 c0
       8.302664127690917 -10.827743114527252
000090 fc 31 c9 27 bf 10 41 c0 4a 5c 01 03 15 b9 4e 40
       -34.13083360027301 61.44595372740203
0000a0 40 e9 ec c3 b3 67 f1 bf 00 f2 ce bf d6 2f c9 bf
       -1.0878179219567556 -0.19677242627757607
0000b0 48 1a 60 ad 3e 36 4b 40 6c 59 54 d3 08 20 20 c0
       54.42378775780213 -8.062567333265825
0000c0 58 d8 c6 50 fd 32 47 c0 1c 54 d5 d5 cb 95 22 40
       -46.39835557660325 9.292570764819224
0000d0 98 84 69 96 01 18 30 c0 00 37 27 de d7 71 25 c0
       -16.09377422405359 -10.722350065504997
0000e0 00 29 62 b4 2e 1e f4 bf 00 08 68 88 93 76 c3 bf
       -1.2573687597492267 -0.15205616150348078
0000f0 c0 7d de 84 9c 2c 2a c0 80 48 57 93 4b c3 f5 bf
       -13.087131645354816 -1.3601794963365421
000100 80 11 c7 a3 40 1c 24 40 00 53 e0 e0 d4 d3 db 3f
       10.055180662203156 0.434804172139863
000110 cc 6c db c8 0a ab 48 40 f0 13 79 a6 8e f1 18 c0
       49.33626661981688 -6.235895730152137
000120 30 ad 0c ce 0c 29 2e 40 40 45 4e 5d 62 73 00 c0
       15.080175818488527 -2.0563399590979827
000130 00 29 62 b4 2e 1e f4 3f 00 08 68 88 93 76 c3 3f
       1.2573687597492267 0.15205616150348078
000140 00 de 0a 84 74 5f df bf a0 ed 6c 1b 8d 12 1d 40
       -0.49020111937304023 7.268116405986262
000150 80 27 c9 fa ae f0 2b 40 c0 73 f7 dd d6 9c 0f c0
       13.970084988646477 -3.951581701387539
000160 e0 64 ac e9 b6 93 28 c0 80 af 58 a8 b5 ec e1 3f
       -12.288504888815112 0.5601452148452921
000170 60 e3 ce 3b f4 55 26 c0 08 43 73 aa b2 f3 1b 40
       -11.1678789796876 6.987986243519806
000180 24 2a 48 25 c6 f5 34 c0 00 10 c6 a8 57 11 a0 3f
       -20.960054712408365 0.031382312156921444
000190 60 e3 ce 3b f4 55 26 40 08 43 73 aa b2 f3 1b c0
       11.1678789796876 -6.987986243519806
0001a0 c0 00 51 85 74 88 43 c0 a0 72 c3 a9 27 15 16 40
       -39.06605593161794 5.520659115366158
0001b0 e0 36 28 09 31 a3 32 c0 60 55 8f 95 08 de 0e 40
       -18.637466976469 3.858414810597125
0001c0 00 06 69 f4 b6 03 28 40 80 95 ff 63 35 68 d1 3f
       12.007255208797687 0.2719853855654364
0001d0 e0 d1 32 69 76 de 23 40 40 6c 5f e4 13 e9 f9 bf
       9.934497153714744 -1.619403736191785
0001e0 38 3d 6f 80 71 e1 3e 40 30 82 00 b1 7e 5b 01 c0
       30.880638148458473 -2.1696752384453006
0001f0 40 bb f2 85 53 9f 21 40 50 3b 24 a6 dd 79 11 c0
       8.81118410671263 -4.369009586297423
000200 00 06 69 f4 b6 03 28 c0 80 95 ff 63 35 68 d1 bf
       -12.007255208797687 -0.2719853855654364
000210 e0 36 28 09 31 a3 32 40 60 55 8f 95 08 de 0e c0
       18.637466976469 -3.858414810597125
000220 40 bb f2 85 53 9f 21 c0 50 3b 24 a6 dd 79 11 40
       -8.81118410671263 4.369009586297423
000230 10 71 2b 8c 27 1a 32 c0 c0 e6 37 08 24 25 09 40
       -18.102165947538253 3.14313513203237
000240 98 2e b5 b7 e5 cb 2d 40 00 41 62 65 df 79 f8 bf
       14.898236981265015 -1.5297540626816613
000250 e0 50 1a cf da cf 2f 40 40 20 e4 ab 98 73 fc bf
       15.905966255152123 -1.7782217707154047
000260 00 f6 f5 2c a2 e1 17 c0 c0 ff 26 fe cc 85 ff 3f
       -5.970345213424935 1.9701661994767932
000270 80 3d 76 e5 65 a3 39 40 e0 c3 b2 d2 14 48 21 c0
       25.638273564688916 -8.640783867189327
000280 20 79 8c e5 74 12 21 40 38 13 c9 ba 7f 7d 31 c0
       8.536048100850678 -17.490230249491304
000290 98 56 63 b0 23 34 31 c0 6c 9b bc 28 8c 5c 23 40
       -17.20366957116366 9.680756829284029
0002a0 60 95 f5 54 fc 9c 15 40 00 8c ec 3a e1 33 ed bf
       5.403306319703319 -0.9125829840526194
0002b0 e0 d1 32 69 76 de 23 c0 40 6c 5f e4 13 e9 f9 3f
       -9.934497153714744 1.619403736191785
0002c0 80 29 f4 69 59 37 07 40 90 27 8c 3c 35 c1 13 40
       2.9020260121953356 4.938679643682818
0002d0 c0 a3 3f 5e 67 20 2b c0 40 f6 bd f7 4a a2 1a 40
       -13.563288636463653 6.65848910424171
0002e0 80 b7 c1 e4 0c bb 1b 40 60 a0 26 6b 58 8e 00 c0
       6.932666372607741 -2.0695045825159895
0002f0 80 39 e5 57 c4 ee 08 40 00 9c 70 f8 7d 69 cb bf
       3.1165854327038574 -0.21415686255315336
000300 80 11 c7 a3 40 1c 24 c0 00 53 e0 e0 d4 d3 db bf
       -10.055180662203156 -0.434804172139863
000310 80 3d 76 e5 65 a3 39 c0 e0 c3 b2 d2 14 48 21 40
       -25.638273564688916 8.640783867189327
000320 e0 e4 d4 76 48 3e 21 40 00 55 75 4e 18 ec e8 3f
       8.62164660786442 0.7788201839818214
000330 80 d4 8a ab e4 d3 14 c0 10 d6 09 d3 a4 1e 13 c0
       -5.206926994656101 -4.7799256300691155
000340 e0 50 1a cf da cf 2f c0 40 20 e4 ab 98 73 fc 3f
       -15.905966255152123 1.7782217707154047
000350 fc 31 c9 27 bf 10 41 40 4a 5c 01 03 15 b9 4e c0
       34.13083360027301 -61.44595372740203
000360 00 f6 f5 2c a2 e1 17 40 c0 ff 26 fe cc 85 ff bf
       5.970345213424935 -1.9701661994767932
000370 60 ee c3 fc a6 97 1a c0 40 81 97 8d dc 21 0f 40
       -6.648097943743409 3.8915339528904553
000380 94 7d bd 0a 02 24 46 40 c0 f5 15 c5 af ec f2 bf
       44.281312315487554 -1.1827848147071194
000390 54 89 be a4 a5 d7 4a c0 78 a1 5b 00 16 69 04 40
       -53.684742539439554 2.5513114955867273
0003a0 10 14 d6 71 57 56 27 c0 60 1c 6b 3d 21 40 09 40
       -11.66863589990865 3.156313400107635
0003b0 54 89 be a4 a5 d7 4a 40 78 a1 5b 00 16 69 04 c0
       53.684742539439554 -2.5513114955867273
0003c0 b0 35 e4 ca f6 9a 20 c0 78 c4 0c f2 cd a7 25 40
       -8.302664127690917 10.827743114527252
0003d0 e0 e4 d4 76 48 3e 21 c0 00 55 75 4e 18 ec e8 bf
       -8.62164660786442 -0.7788201839818214
0003e0 80 39 e5 57 c4 ee 08 c0 00 9c 70 f8 7d 69 cb 3f
       -3.1165854327038574 0.21415686255315336
0003f0 00 61 84 fc 8a fc f2 bf 20 b2 8e fc 6d a4 14 40
       -1.186655985255186 5.160575815400563
000400 80 85 dd 0c d7 19 1b 40 50 00 42 ab ad 7a 18 40
       6.775234414120291 6.119803119567294
000410 10 71 2b 8c 27 1a 32 40 c0 e6 37 08 24 25 09 c0
       18.102165947538253 -3.14313513203237
000420 d4 12 10 5b 1a c0 48 40 c4 fb 2c ee d6 a9 22 c0
       49.50080431256143 -9.33171791361918
000430 2b 70 33 85 13 72 56 40 c0 11 92 08 c9 31 29 c0
       89.78244142554529 -12.597236888724069
000440 50 86 57 16 75 53 3e 40 78 9a 52 8f f6 8d 12 c0
       30.32600536000092 -4.638635863701545
000450 60 ee c3 fc a6 97 1a 40 40 81 97 8d dc 21 0f c0
       6.648097943743409 -3.8915339528904553
000460 00 4a 1a 9f 73 d3 1a c0 a0 6d 39 9c 73 02 0d c0
       -6.7064957485004015 -3.626197071554728
000470 00 80 4a e7 16 7f f3 3f 00 ba 38 36 40 de f4 3f
       1.2185277018361376 1.3042604558974062
000480 00 63 3f c2 99 80 0f 40 10 ea 4d b6 4a e6 08 40
       3.9377932715982524 3.1124471895721015
000490 50 8a 55 b3 0f c3 37 40 80 5c 7d c4 eb b1 dd 3f
       23.76195832098375 0.46398443401762535
0004a0 c0 7d de 84 9c 2c 2a 40 80 48 57 93 4b c3 f5 3f
       13.087131645354816 1.3601794963365421
0004b0 00 40 b1 49 8a 0f bc 3f b0 80 d2 e4 3e 5a 11 40
       0.10961212443476143 4.33813054594809
0004c0 bc 8f b9 fc f9 87 36 40 a6 e8 43 75 65 19 3c c0
       22.53115825205144 -28.099204377249997
0004d0 30 ad 0c ce 0c 29 2e c0 40 45 4e 5d 62 73 00 40
       -15.080175818488527 2.0563399590979827
0004e0 c0 99 a9 23 3b 54 4a c0 58 2e 85 a9 04 69 14 40
       -52.65805478841094 5.1025568473374605
0004f0 2b 70 33 85 13 72 56 c0 c0 11 92 08 c9 31 29 40
       -89.78244142554529 12.597236888724069
000500 20 70 82 06 4c e2 1e 40 80 0c 0b a1 d6 1a 05 c0
       7.720993138991645 -2.638104684972461
000510 50 8a 55 b3 0f c3 37 c0 80 5c 7d c4 eb b1 dd bf
       -23.76195832098375 -0.46398443401762535
000520 48 46 8a 96 79 bf 33 c0 88 8b 4d 36 6a 6f 10 40
       -19.747949036367828 4.108803604586576
000530 e0 4c 66 34 a1 f5 18 40 c0 e9 1c 3d dd 52 fb 3f
       6.2398727595748085 1.7077305209373748
000540 e0 64 ac e9 b6 93 28 40 80 af 58 a8 b5 ec e1 bf
       12.288504888815112 -0.5601452148452921
000550 50 86 57 16 75 53 3e c0 78 9a 52 8f f6 8d 12 40
       -30.32600536000092 4.638635863701545
000560 d0 40 74 06 2c 6c 31 40 78 c4 36 03 d7 56 13 40
       17.42254677141392 4.8348045828034785
000570 58 d8 c6 50 fd 32 47 40 1c 54 d5 d5 cb 95 22 c0
       46.39835557660325 -9.292570764819224
000580 80 b7 c1 e4 0c bb 1b c0 60 a0 26 6b 58 8e 00 40
       -6.932666372607741 2.0695045825159895
000590 80 27 c9 fa ae f0 2b c0 c0 73 f7 dd d6 9c 0f 40
       -13.970084988646477 3.951581701387539
0005a0 b0 d3 42 b3 fb 90 20 c0 70 06 05 cf c2 1b 18 40
       -8.283170320422727 6.0271103236024
0005b0 f0 c2 f5 b7 67 5d 29 40 80 02 2e 3b 08 75 ff 3f
       12.682431935072117 1.966072302981189
0005c0 00 80 4a e7 16 7f f3 bf 00 ba 38 36 40 de f4 bf
       -1.2185277018361376 -1.3042604558974062
0005d0 00 96 8a ae 76 7a 0f 40 f8 78 67 0b b0 da 1d c0
       3.9347966800730774 -7.463562181654417
0005e0 c0 99 a9 23 3b 54 4a 40 58 2e 85 a9 04 69 14 c0
       52.65805478841094 -5.1025568473374605
0005f0 20 4f 1b f5 b1 0c 26 40 00 9e 8f 06 3a 1c 07 c0
       11.024795207580212 -2.888782550103997
000600 fc 3f de 99 e1 c7 32 c0 80 82 1e 66 50 e6 f3 bf
       -18.78078614879631 -1.2437290181188985
000610 cc 6c db c8 0a ab 48 c0 f0 13 79 a6 8e f1 18 40
       -49.33626661981688 6.235895730152137
000620 60 95 f5 54 fc 9c 15 c0 00 8c ec 3a e1 33 ed 3f
       -5.403306319703319 0.9125829840526194
000630 20 4f 1b f5 b1 0c 26 c0 00 9e 8f 06 3a 1c 07 40
       -11.024795207580212 2.888782550103997
