GeologicalScience/VolcanicEruption/code/volcanoinference/saved-networks/FP_nn.pth (torch_old, 40175 bytes, 8 tensors)

fc1.weight f4 [80, 72]
00000000: 18fb cbbd 9f52 30bd 6e6e 2c3e 86ce 4e3e
00000010: 65d5 afbe 105c bfbb 8e75 1c3f dd2a d33e
00000020: 4c35 173e f1b8 ae3e a536 f6bd fbca c4bf
00000030: d4c2 023f 2f31 9f3c 6063 c53e 6bdb ae3e
00000040: fd38 2b3e 8c0d 9f3d fc10 403e dd06 683d
00000050: a9f6 e03c 51eb 293e 9565 b33e fd17 b1be
00000060: 70a9 7fbe 30b6 c53e 5bd9 93bc a3e6 a4bd
00000070: 6336 3d3e 44ea 86bd 6438 723d 4331 58be
00000080: 1ca7 1fbe b3d1 3ebe 3b1a 9a3e 9421 cb3d
00000090: f40f 813d cfb9 b8be aaee 8dbe 0c04 b2bf
000000a0: c70d 2c3f c110 463e 08da a73e ba5e 9f3e
000000b0: a0b3 ea3d fab5 debc 2c93 83bd 6ef1 9a3e
000000c0: 3fd3 2e3e 945a 17be 5da6 13be 017d 303f
000000d0: 4c02 78be 3707 0b3f 648e a53e c246 623e
000000e0: 339f 873d eacc 55bc 7b7f 1fbd 5c88 063d
000000f0: 0fa1 e83d dd0a 7b3d fff5 4abd b6e2 41be
00000100: 71df 59be 1c29 193e d048 f7bd c797 183e
00000110: 6c8d 81be bd92 50be 7ddc 4abe 5c55 b3bd
00000120: 5718 c63d b512 063d 835f 8f3c 0285 b93d
00000130: 10d5 683d 858d a0bd 34b2 7b3d 559e 993d
00000140: 359f b53d c1e2 a9bd 3a91 09bd 4028 aabd
00000150: 8949 01be 4859 86bd e944 c73d 5c8e 8d3d
00000160: 5e11 1c3c 153f 30bd d0ef 4a3d 51f4 07bd
00000170: d0bb 033d 1f67 883d bb68 cfbd c83f 02be
00000180: 0d19 e5bb 5f21 f8bd 291c 16bb aa7c 9a3d
00000190: f3c5 bcbd 344d c5bd 8286 ae3c 6ce9 583c
000001a0: 5b8f 8abd da7a 913d 725a 143d 5360 ab3d
000001b0: 7530 2fbd f0c4 90bc c4a1 c2bd 69d4 41bd
000001c0: 7dd5 98bd eaf6 66bd e84f 2ebd 27e5 8e3d
000001d0: 2aa2 153d 5ab3 c43c 88e4 2d3b 5fdc 593d
000001e0: c15d 5cbd 3085 0f3c 7411 91bd 1e17 bdbd
000001f0: 1e74 18bc 6ebe a83d 4684 1fbd 3a01 0cbd
00000200: 65bb 8bbd cedd f93c ca81 c63d 73a3 95bb
00000210: 0bb4 babd bbe2 f13c d96e b1bc 67db 09bd
00000220: 6d50 c6bb ebd7 9fbc 3b97 ab3d c0f8 503d
00000230: 6f8c acbd 0b59 97bd 8a05 d53c 56a7 973c
00000240: af44 05be 2af4 43bc 7467 c53c acf1 193d
00000250: 78e4 91bd b39c 93bd cdac bbbc 93c6 70bd
00000260: 45d6 df3c 4e72 dcbc ff57 2c3d 4711 c2bd
00000270: 13dd c7bd 3d0a 1cbc b4ba be3d 4888 e63c
00000280: 4623 10bd 911b ae3d b9ac e6bd b2d0 8c3d
00000290: eb09 ce3b 0110 7abd bcd9 a8bd 7a18 683d
000002a0: cbd6 63bd 7396 56bd d0d0 013d 4b4f e2bd
000002b0: 4336 6cbd 99b7 bbbc 5e4f 9e3d 6e6e 883d
000002c0: d10d b2bb 14c8 053c 8c7d 09bd 6599 3e3b
000002d0: 18c2 46bd 026b 3cbd 185c 5ebd 474e a1bd
000002e0: 6856 8b3d b8a1 793c e1ac 773d 9bda f9bd
000002f0: c826 7e3c 3994 b13d 65c0 92bd b640 0a3c
00000300: 3b6e c5bd b2bd 503d 9ef6 d8bd a91c b53d
00000310: 45cb fabb 5b3e 7d3d dcf1 6f3d d69c ca3d
00000320: 8d82 373c d104 883d 5dca 01be ccd3 81bd
00000330: 8849 87bd 20b5 5a3d 5b32 00be 625d b2bd
00000340: 80a1 1c3d 5183 bb3d 379a 96bd aa5f a43d
00000350: feb3 e3bd 29c8 00be 8e02 b8bd c8fd b4bd
00000360: c468 44be dcbd 013e 9b88 c33e 84ad 0cbe
00000370: 1f4d a3be 08fc a13c db1d 253f 284d 2c3e
00000380: b06f e2bc 221d ff3e 8d2b ccbd af9b 00bf
00000390: 2cda 6f3c df2a 9bbd 095e c23e 5a62 6c3c
000003a0: 79c0 2a3c 29bd 513d 3165 9fbd 3cd4 243d
000003b0: d57a a63d b748 013e aba7 ad3d 1579 523d
000003c0: 03c2 b83d e6e3 f9bd e23a 9cbe 5680 14be
000003d0: e8c4 7abe b71c bb3d c13d bebd 07c3 153e
000003e0: bdeb 0fbe 6a19 2abe 8151 fb3d f7b4 9cbe
000003f0: e38b 32be 285e c0be f48a 1bbf 6a63 06bf
-0.09960002 -0.043047544 0.16839 0.2019597 -0.34342495 -0.005839832 0.61116874 0.4124364
0.14766425 0.34125474 -0.12022141 -1.5374445 0.51078534 0.019432632 0.3855238 0.34151778
0.16720958 0.07766256 0.18756479 0.05664717 0.027461367 0.16593672 0.35038438 -0.34588614
-0.24966979 0.3861556 -0.01804798 -0.08051803 0.18477778 -0.06587651 0.05913581 -0.21112542
-0.15591091 -0.18634681 0.30098137 0.09918514 0.06301871 -0.3607926 -0.2772115 -1.3907485
0.6720852 0.19342329 0.32783532 0.31126958 0.11460042 -0.027186383 -0.06424555 0.3026232
0.17072771 -0.14780647 -0.14418931 0.6894074 -0.24219626 0.54307884 0.32335198 0.22097304
0.06622162 -0.013049344 -0.038939934 0.032844886 0.113588445 0.061289657 -0.049551006 -0.1893414
-0.21276642 0.14957088 -0.12074435 0.14901648 -0.2530321 -0.20368476 -0.19810672 -0.087565154
0.09672611 0.032732684 0.017501598 0.09058572 0.056843817 -0.07839493 0.061449245 0.075009026
0.08868257 -0.08295203 -0.033585764 -0.08308458 -0.12625708 -0.06559998 0.097299404 0.069119185
0.009525625 -0.04302891 0.04954511 -0.033191983 0.032161534 0.06660294 -0.101273976 -0.12719643
-0.0069915117 -0.1211574 -0.0022904968 0.07543309 -0.09217443 -0.09633866 0.021304373 0.013239246
-0.06765624 0.0710351 0.036219068 0.08367982 -0.04277082 -0.017672032 -0.095035106 -0.04732171
-0.07462595 -0.05638782 -0.042556673 0.06977301 0.036531605 0.024011303 0.002653392 0.053188678
-0.05380035 0.008759782 -0.07083407 -0.09232925 -0.009305028 0.082394466 -0.038944505 -0.034180857
-0.06822852 0.030501273 0.09692724 -0.004566604 -0.09116372 0.029527059 -0.021659302 -0.033656504
-0.006052068 -0.019512137 0.08378454 0.051018476 -0.08425223 -0.073900305 0.026003618 0.01851241
-0.13014482 -0.011960069 0.024097182 0.037583992 -0.07123655 -0.072076224 -0.022909546 -0.058783125
0.027323851 -0.026909973 0.042076107 -0.09475952 -0.097589634 -0.009523925 0.093129545 0.028141156
-0.03518989 0.085013516 -0.11263413 0.06875743 0.0062878034 -0.06105042 -0.082446545 0.056663968
-0.055624764 -0.052389573 0.03169328 -0.1105028 -0.057668936 -0.022914695 0.07729982 0.06661688
-0.005433776 0.008165378 -0.033566996 0.002908313 -0.048524946 -0.046000488 -0.054287046 -0.07876258
0.0680359 0.015236311 0.060467605 -0.12199899 0.015512176 0.08670849 -0.071656026 0.00843828
-0.096401654 0.050962158 -0.105939135 0.08843357 -0.007653626 0.061827045 0.058580264 0.09893195
0.011200559 0.06641544 -0.12674852 -0.06339225 -0.06605822 0.05339539 -0.12519209 -0.087092176
0.038239956 0.09155906 -0.07353633 0.08026059 -0.11118315 -0.12576355 -0.08984862 -0.088374674
-0.1918059 0.12670082 0.3819016 -0.13738066 -0.31894776 0.019773498 0.6449868 0.16826308
-0.027641147 0.49826914 -0.09969244 -0.50237554 0.014639419 -0.075765364 0.37962368 0.014427746
0.010421866 0.051205788 -0.077829726 0.040241465 0.08128897 0.12625395 0.08479246 0.051385004
0.0902138 -0.12201671 -0.30513674 -0.14502081 -0.24489176 0.09136336 -0.092891224 0.14625178
-0.14054771 -0.16611257 0.12271405 -0.30606815 -0.17436175 -0.37571836 -0.607589 -0.52495444

fc1.bias f4 [80]
00000000: 4d8c 7240 2ce4 16bd d0d1 3d3d d056 1c40
00000010: 10d8 26bd 138c 7abd ac88 ecbd 96d5 4440
00000020: 826c 2940 18ce 9f3d 2bc4 7140 0bee ad40
00000030: 3bae cd3d 0f29 8dbd 46c9 4340 c84b 5340
00000040: 6e46 0c3d 33ad 5240 0e20 9c40 efc1 a33c
00000050: 98c5 7240 3bf0 cebd 1358 b43d 7b03 0cbe
00000060: c4cb b13c 56c9 8f3c 8bdc 71c0 57a4 1540
00000070: 5dea 903d 1c2a 9240 fc46 4340 7408 96bd
00000080: 181e 81c0 a8e6 22bd ee3e 033d 6f96 8f40
00000090: a2b2 303e 0e9a 3a3f 5313 ab40 f625 6440
000000a0: 5664 a740 dbca 90be 2c21 c0bd 8ee3 573d
000000b0: 8efd 4c40 7c59 bfbd 1a81 763d ad0a bf3d
000000c0: 0ed5 a240 8eaa d53f f318 bbbd 0aa9 b93f
000000d0: 9641 9a40 1e4e c9bd 0123 7640 b86b afbc
000000e0: 1325 0040 243e a040 f8b3 3f40 1de0 6b40
000000f0: 66c3 bb40 d824 cabc 4e2d 9640 2410 043d
00000100: b37f 0c40 3850 8b3d aa90 96be e7b4 6a40
00000110: e639 6240 ddd6 843c 7b66 45c0 49c9 2cbd
00000120: 41ce 10c0 9544 b9bd 9eb4 0c40 8c37 0440
00000130: beb3 8ebd d22d 4d3d f309 543d 978a 7b40
3.7898133 -0.036838695 0.04634267 2.4427986 -0.040733397 -0.06116874 -0.115495056 3.0755363
2.6472478 0.07802981 3.7775981 5.435308 0.100429974 -0.06892597 3.0591598 3.3015003
0.034246854 3.2918212 4.878913 0.019989936 3.7933102 -0.10104414 0.08805861 -0.13673203
0.021703608 0.01755206 -3.7790859 2.3381555 0.07075951 4.5676403 3.0512075 -0.07325831
-4.0349236 -0.039770752 0.032042436 4.4871135 0.17255643 0.7289132 5.346109 3.564817
5.230998 -0.28279766 -0.09381327 0.052707247 3.2029757 -0.0934324 0.060181715 0.09328208
5.0885077 1.6692674 -0.09135618 1.4504712 4.820506 -0.09829353 3.8458865 -0.021413669
2.0022628 5.0075855 2.9953594 3.6855538 5.8676023 -0.024675772 4.6930304 0.032241955
2.1952941 0.0680241 -0.29407245 3.6672914 3.5347838 0.016215736 -3.08438 -0.042184148
-2.2625887 -0.09046284 2.198524 2.0658903 -0.06967877 0.050092526 0.0517673 3.9303339

fc2.weight f4 [40, 80]
00000000: f92f 23bf 00dc e7ba 507e eb3b 1a36 f1bd
00000010: 7809 f2bc 64d4 05bd 5495 ccbd f647 28bf
00000020: ae58 d1bf c090 283d 366e 35bf a443 e6be
00000030: b0b6 d93c 6945 6abd f5a1 01be 79e4 9c3e
00000040: 50bd 873c a3e2 3bbf f54c a9bd e4a2 8f3d
00000050: bb0a 35bf caf0 35bd f8ce 053d c537 fcbc
00000060: e83b 843d 9ac7 bb3d 08c0 a43e 598b 6c3e
00000070: ecd1 4a3d be3c 12bf 6205 f63e e099 68bb
00000080: c133 093f f8e4 333d 88f9 893c 397c 98bd
00000090: e0af 433d 3676 49bc 2eca 043e 438a 20bf
000000a0: 954e 693f 4ad2 7e3c 060b 023d f05d 9ebd
000000b0: 5f9b 74be 9435 963d 94b4 a2bd 0c6e 203d
000000c0: f28a 093f d7cd 9cbe c4fc 5abd 6e1a 1ebf
000000d0: f935 313e 624b d5bd b034 5dbd 7f3a c4bd
000000e0: 48f8 e43d 6da9 1abe 7134 e03e fc34 df3e
000000f0: c4ba 03bf c0e8 9d3c bd55 91be 1013 cabc
00000100: 411d ccbf 2070 923b 3cb1 033e 9b1c 4dbe
00000110: 4b10 903e 5325 a2bd 3e93 4c3c 43a3 acbd
00000120: b23f 8b3e e43e 273d 27f4 24bf ed2a a0bf
00000130: 9223 a93d 1e25 d8bd 7aee 4e3d f2f0 af3d
00000140: 8a63 a93e 9d10 5cbd 234f 653c c099 03bf
00000150: f01e d4bd c180 14bd c4fc 89bb f9d7 e23e
00000160: bf6c ca3e b417 b5bd cff8 263d f390 bf3e
00000170: 2418 82bc b888 a4bd 4e1e 9d3d 7444 6a3d
00000180: 0667 4dbd 1a79 27be 7e4d 2d3e 1d9e 95bd
00000190: 66ab 85bd 33ee 93bd b44f bcbd 60cf ba3d
000001a0: 1c4a 6ebd 7ecc 3bbc 2307 5a3e 8254 3d3f
000001b0: 209e 813c efdc 363e 0421 0b3f fd63 b93d
000001c0: 6411 263e 244a 8c3d b099 89bd f155 a43e
000001d0: 99be 8dbd 06f8 863d f207 323f f618 00bd
000001e0: 79ee cf3e 46cd b13d e4b4 9bbd 559c 76bd
000001f0: 538b b83c 4ed2 9f3d 342f a8bd e4f2 36bd
00000200: 9cad 313f 6bbb 4e3e e5d7 0ebd cdee 1ebe
00000210: ac4e 4a3e 80ac 18bd a150 033d 674f febb
00000220: de3f c43f 6957 953f ac0d 4f3f 2896 0f3d
00000230: 99ea e33e 86ef 3ebd 6c3f e03e f851 57bd
00000240: fc9e 643e 9fd9 db3a 61a9 44bb 82b1 c73e
00000250: 362f 8cbc 1124 c2bc cc25 cebe 896c 7bbd
00000260: 1cd6 153e d34b b43c 0372 8b3f 06e3 093f
00000270: e8b9 fa3c 764a a4bd 5d30 80bd 6ecf 863d
00000280: 348d 8dbd df5d e2bd e7c3 e23c 1a3c adbd
00000290: d8cc ac3c 4643 09bd a27c b6bd 369e bebd
000002a0: b700 583d e847 9fbc 8996 9cbd 44c8 c73b
000002b0: f246 9fbd eaaa 4ebd 82bf e4bd 8b0e d7bd
000002c0: 181f b03d 9ba9 23be 6eae 033d 1b9f a0bd
000002d0: e2a7 99bd 8842 18bd 7f87 91bd c897 c4bd
000002e0: cc34 e63c 3056 9b3d 8fe3 d2bc 651b 6bbc
000002f0: 7c91 043d b336 9bbd e5a9 a3bc b6af b3bd
00000300: 6a8d 5cbd e86b d43c a2a6 953d 0f5b 09bd
00000310: af94 493d 5d8c 1dbd 9c67 6fbc 95c0 bd3c
00000320: 7725 babd 4234 cbbd 7d59 d1bd dcc1 3f3d
00000330: 196a 92bd 6a81 b03d 2006 de3d d013 23bd
00000340: 276b edbd 349f 99bd fcc3 3b3d f1f7 e0bd
00000350: f58e bdbc 5054 213d 4868 5e3c d435 9ebb
00000360: 7f05 033d 8637 d03c 7afa a8bd c545 583d
00000370: 2b08 c6bd 9cf6 573d 5a29 4a3c 324b e1bd
00000380: 2044 95bd 520b f93c 758c b53c 5e13 e33c
00000390: be11 a2bd 9515 d03d ff55 f7bd cdcf 813d
000003a0: 0a92 963d c0c2 18bd c635 1f3b 6f42 b8bb
000003b0: 50dd c1bd f0c4 19bd 97c2 0b3d 4d60 e83c
000003c0: bdf1 e53c 662c 02bd 60af 11bd 4a5e 1dbe
000003d0: 6851 e03d 8c72 583d 38c5 463d 4933 c7ba
000003e0: 7a6e 98bd e16e 84bd ae30 c2bd ba72 463d
000003f0: 4cc0 213d 95a7 9ebd 243f aabd 8738 b7bc
-0.63745075 -0.0017689466 0.0071866885 -0.11777897 -0.02954553 -0.032673255 -0.099894196 -0.65734804
-1.6355188 0.04115367 -0.70871294 -0.4497348 0.02657637 -0.0571951 -0.12659438 0.3064306
0.016569763 -0.73392695 -0.082666315 0.07013491 -0.707195 -0.044419087 0.032668084 -0.030788312
0.06456739 0.0916893 0.32177758 0.23100032 0.049516603 -0.57123935 0.48050982 -0.0035492107
0.53594595 0.043919533 0.016842619 -0.074455686 0.04777515 -0.01229625 0.1296775 -0.6271097
0.9113553 0.0155530665 0.031748794 -0.07732761 -0.23887394 0.07334438 -0.07944599 0.03916745
0.5372764 -0.30625793 -0.053463712 -0.6175908 0.17305745 -0.10414769 -0.054005325 -0.0958147
0.111801684 -0.15103693 0.4379001 0.4359511 -0.51456857 0.019276023 -0.28385726 -0.024667293
-1.5946428 0.0044689327 0.12860578 -0.20030443 0.2813743 -0.07917275 0.012486277 -0.08429577
0.27197033 0.04083146 -0.64435047 -1.25131 0.082587376 -0.105539545 0.050520398 0.085908785
0.33083755 -0.05372678 0.013995918 -0.5140648 -0.10357463 -0.0362556 -0.00421104 0.443054
0.39536092 -0.08842412 0.040764626 0.37415275 -0.015880652 -0.080338895 0.07671796 0.05719419
-0.05014708 -0.1635479 0.16924092 -0.07305548 -0.06526832 -0.07223167 -0.0919489 0.09121585
-0.058176145 -0.011462329 0.21291785 0.73957074 0.01582247 0.17857717 0.5434725 0.090522744
0.16217571 0.06850079 -0.06718767 0.32096818 -0.06921119 0.065902755 0.69543374 -0.031273805
0.40611628 0.08681731 -0.076028615 -0.060207684 0.022527372 0.07803784 -0.08212128 -0.044665232
0.6940553 0.20188682 -0.03487386 -0.15520783 0.19756573 -0.037273884 0.032059316 -0.0077609303
1.5331991 1.16673 0.80880237 0.03505531 0.4451492 -0.046615146 0.43798387 -0.052568406
0.22326273 0.001677323 -0.0030008184 0.39002615 -0.017112356 -0.023698838 -0.40263212 -0.061382804
0.14632457 0.022008812 1.0894169 0.53862035 0.030606225 -0.08022015 -0.062592246 0.06582533
-0.06911698 -0.11053061 0.027681304 -0.08458729 0.02109377 -0.033511423 -0.089104906 -0.0930752
0.052735057 -0.019443467 -0.076459 0.0060968716 -0.077772036 -0.050455965 -0.1116934 -0.10500821
0.08599681 -0.15982668 0.03214877 -0.07842847 -0.07502724 -0.037172824 -0.07105922 -0.095992625
0.028101347 0.07584798 -0.025743274 -0.014349793 0.032365307 -0.075787924 -0.019978473 -0.087737486
-0.0538458 0.02593036 0.07307173 -0.033534106 0.04921406 -0.03846394 -0.014612105 0.02316312
-0.09089177 -0.09922077 -0.10222147 0.046815738 -0.07149143 0.08618434 0.10841012 -0.039813817
-0.11592703 -0.07501069 0.045841202 -0.10984791 -0.023139456 0.039387047 0.013574667 -0.004828194
0.031987663 0.0254171 -0.082508996 0.052800912 -0.09669527 0.05272542 0.012338961 -0.110006705
-0.072883844 0.030400906 0.022161702 0.027719196 -0.0791354 0.101603664 -0.12076949 0.06338463
0.073520735 -0.037295103 0.0024293526 -0.005623154 -0.0946604 -0.03754133 0.034121122 0.028366232
0.028069371 -0.031780623 -0.03556764 -0.15368 0.10953027 0.052843615 0.048527926 -0.0015197779
-0.07442947 -0.06466461 -0.09481941 0.048449256 0.03949003 -0.077468075 -0.08312824 -0.022365822

fc2.bias f4 [40]
00000000: 5a33 e63f 6484 9240 ec7a 0fbd 6e27 b5bd
00000010: 979f cb3f 26f0 393c 5efb d4bf 188b 8ac0
00000020: 3766 7abe 595b 57bd ae73 ef3e 9fa1 74be
00000030: 7254 57bb c256 a9bd c5ad 1ebf 84e2 45be
00000040: 323e 4bbd 783b 5540 35f3 5640 c0cc 9140
00000050: 9803 0dbc e24a b440 6490 a940 9009 fc3f
00000060: 911c 7940 8897 9440 997a 20c0 7a64 d7bd
00000070: fa0e 1540 245e 863f 6094 28bf 845a 90bc
00000080: 0552 0dbe 2474 47bf 26f9 5340 6600 12be
00000090: 96e9 173e cd34 8a3f 9715 04bc 02f3 dabd
1.7984421 4.578661 -0.035029337 -0.08845411 1.5908078 0.01134876 -1.6639211 -4.329479
-0.24453054 -0.05257735 0.46767944 -0.23889779 -0.003285673 -0.08268501 -0.619839 -0.1932469
-0.04961986 3.3317547 3.3585942 4.556244 -0.008606814 5.634141 5.298876 1.9690418
3.8923686 4.6434975 -2.5074828 -0.10517211 2.329039 1.049748 -0.658514 -0.017621286
-0.13800819 -0.7791159 3.3120818 -0.14257964 0.148352 1.0797364 -0.008061788 -0.10690881

fc3.weight f4 [15, 40]
00000000: fd60 f23b 18fe 88be 710a 523c aa47 da3d
00000010: 5474 3bbe 6a3c bcbb b168 f8bd ac84 dfbd
00000020: c396 f63d f545 283a c459 ed3c 8f94 a43e
00000030: 4e23 613d 8b3d e03d cecc 493e 8b35 06be
00000040: eef1 e2bd 59fe 823c 89ab b5be 4381 40be
00000050: 201d 6dbd e61c 5d3d 05bd 0cbe 6726 693e
00000060: 2cec 13bf 2044 093e 4576 80bd 1979 5cbd
00000070: 7e76 dabe 9b74 2e3e 960e 4cbe d332 403d
00000080: e0fb 003e ad90 22bf cb8b 3e3d 99fa 473d
00000090: a4c9 52bf 691b 26bf e34a 6dbc 9024 bd3d
000000a0: f0fd 0cbe 1024 933a fbfc df3d 98d6 7b3d
000000b0: d944 2bbe 4f05 b03d c3a1 81bd 0366 8a3d
000000c0: 7d5b e03d aadc c1bc 04f1 0bbe 345c 75bd
000000d0: d974 7c3d ad45 1abe b7b1 de3c 3ce9 9abd
000000e0: 0408 a53d f157 913d 2a94 cdbd 465a 4fbe
000000f0: a66b 803d 6bca 633d b8e1 d13c 8b06 fcbc
00000100: 7647 30be af41 143e bfc7 013d 6886 323d
00000110: e6b9 2bbe 37e3 853d 8181 68bc b536 79bd
00000120: 1cd3 d73d b3ec f5bd 3af5 92bc 7e0e 3dbe
00000130: d1ce 623d 7a61 25bd 5e9d 773d 590f 99bd
00000140: f1aa bebd 753d 8e3b 328c 09be 4e29 21bd
00000150: ac2c b43d 9e4b ebbb b58c 133e d1ba 24be
00000160: 94a0 1cbe b903 2abc 5c81 93bd f9d5 e13d
00000170: dd43 bbbd 30c2 843c c39f d53d c019 183b
00000180: db39 1c3e 2f2a 943d c98e 53be 9546 bfbd
00000190: d944 023e 9105 21be d2b1 1dbe 31a8 3fbe
000001a0: f07a 4d3d c9d7 1abd 2c49 b13c 0a6c 82bd
000001b0: 2618 5dbb d02d eebc 6cd5 70bd 7a6a f2bd
000001c0: b464 333d 68b2 b53c 0012 11bd dcd1 78bd
000001d0: 0300 93bd 16f1 733d 181f 913d 1803 d6bd
000001e0: b38e 3cbe 5d44 853d 0d1f a7bd 78b0 f0bc
000001f0: 8fe6 27be 90e6 10be cd53 0f3e 5552 883d
00000200: 70db a03d 54f1 16be 04a9 c8bd c27c cabd
00000210: 6ef0 d6bd a08b 0a3c d037 e3bd a5c2 aabd
00000220: 1461 783d fdd5 01be 0fc2 a53d 0b52 6dbd
00000230: 6861 dd3c 193d 66be 5490 fabc 232f 44be
00000240: ac52 413d 04e6 b93c 4293 22be e5da cabd
00000250: 6ed1 4fbe dece f0bd 9275 a1bc 1279 ca3d
00000260: 03a5 133e a6e7 34bd 9ca0 d3bd aff5 00be
00000270: 8008 cb3b 1a92 7bbd 6384 1c3e 32d6 da3d
00000280: f3e2 75bc d559 1ebe 9bd9 d8bd 9fa5 11be
00000290: b609 abbc 3f9c d7bd c02b bdbc 1857 8cbd
000002a0: 056f 86bd e95e 7b3d 2c7c a13c 0066 04be
000002b0: fa43 25be fee0 293d cd5d aabd 888c 49be
000002c0: 18a1 433d b895 52be 6782 1dbe 8fdc 50be
000002d0: 1ab3 92bd 3ea0 6e3d 374a 05bc ad3b 19be
000002e0: 3b55 d4bd 0799 103d 3749 d13d b686 d63d
000002f0: 7981 8dbe 5003 d83b 9883 93bd f92c e23d
00000300: 6055 ef3c 1078 02be 3a5d 0dbd 69ce 253d
00000310: dd47 ce3d efd7 7bbd 321b 893c 2455 44bd
00000320: b747 14be 9b46 22bd 165a 5cbc 4acf 00be
00000330: 57fc 3dbd 5ff7 853d db55 84bd 1e04 13be
00000340: 2e6c 8b3d 3ad2 22bd 1453 06be ef95 47be
00000350: 8a39 c3bd f707 4ebc 73b1 df3b e3a8 f73b
00000360: 0c0f a43d 7120 bdbd f491 d1bd ff77 b0bd
00000370: 4c43 a33d 2353 833d 6cc7 14bd 619b 6abe
00000380: 50a2 7fbe 990c 883d 13bd 023b 4d46 f43d
00000390: 3c0d 0abd 4380 cb3c 003f bf3b 39b2 93bc
000003a0: c01b 9c3d 2935 9a3d a715 ab3d 641d 90bd
000003b0: 1916 403d 5328 c13c 630d f53b 0304 033e
000003c0: f5a0 7bbe f4e2 a13e b449 84bd 5517 33bc
000003d0: 82f4 6d3e c92b 5a3d dc22 353f e8fd 9e3e
000003e0: ae5f 213e 42b8 373e 8ff9 6abf 3d23 a13d
000003f0: 7032 a9bd 394b f7bd d0ee 1dbe e9b0 35bb
0.007396816 -0.26756358 0.012819872 0.106582 -0.18306094 -0.0057445066 -0.12129343 -0.10913977
0.12040474 0.0006419116 0.028973468 0.3214459 0.05496531 0.109492384 0.19707033 -0.13106363
-0.11081301 0.015990423 -0.35482433 -0.1879931 -0.057889104 0.053982638 -0.1374398 0.22768556
-0.57782245 0.13404894 -0.06272558 -0.053826425 -0.42668527 0.17036669 -0.19927439 0.04692347
0.12596083 -0.6350201 0.046520036 0.048822973 -0.8233893 -0.64885575 -0.014483186 0.09235489
-0.13768744 0.0011225957 0.10936924 0.06148395 -0.16725482 0.085947625 -0.06329682 0.067577384
0.1095495 -0.023664791 -0.13666159 -0.059902385 0.061634872 -0.15065642 0.02718435 -0.07564017
0.080581695 0.070968516 -0.10038026 -0.2024928 0.06270532 0.055612963 0.025620326 -0.030764839
-0.1721476 0.14478181 0.031684633 0.04358521 -0.16770133 0.065374784 -0.014191032 -0.06084319
0.10538313 -0.120080374 -0.017939199 -0.1846256 0.055373017 -0.040376164 0.06045281 -0.074736305
-0.09309948 0.0043408223 -0.13432387 -0.03934603 0.08797583 -0.007180645 0.14409144 -0.1608689
-0.1529563 -0.010376864 -0.07202408 0.1102714 -0.09143803 0.016205877 0.10430863 0.0023208708
0.15256445 0.072346084 -0.20659937 -0.09339634 0.12721576 -0.1572478 -0.15399864 -0.18716504
0.05016607 -0.037803445 0.021641336 -0.06368263 -0.0033736317 -0.02907458 -0.058797285 -0.11836715
0.04379721 0.022179797 -0.035417557 -0.060747012 -0.071777366 0.05955609 0.07086009 -0.10449809
-0.1841381 0.0650718 -0.08160219 -0.029381022 -0.16396545 -0.14150453 0.13996811 0.066563286
0.078543544 -0.14740497 -0.09797862 -0.09887077 -0.10495077 0.008456141 -0.1109463 -0.08337907
0.060639456 -0.12679286 0.08093654 -0.05793957 0.027023986 -0.22484244 -0.0305864 -0.19158606
0.047197983 0.022692688 -0.15876487 -0.09905032 -0.20294735 -0.11758207 -0.019709382 0.098863736
0.14418416 -0.04416623 -0.10333368 -0.12593721 0.0061960816 -0.06141863 0.15284877 0.10685386
-0.015007722 -0.15463956 -0.1058838 -0.14223336 -0.020878654 -0.105278485 -0.02309215 -0.06852549
-0.06564144 0.06136981 0.01971253 -0.12929535 -0.16139212 0.041474335 -0.08318672 -0.19682515
0.047761053 -0.20564926 -0.15381776 -0.20396636 -0.07163067 0.058258288 -0.00813537 -0.14964171
-0.10367819 0.03530219 0.10219043 0.10474913 -0.27637842 0.0065921918 -0.07202834 0.11043734
0.029215515 -0.12741113 -0.034512736 0.04048005 0.100723006 -0.061485227 0.0167366 -0.04793276
-0.14480482 -0.039618116 -0.013449213 -0.12579075 -0.04638323 0.06541323 -0.06461688 -0.1435704
0.06807743 -0.03975127 -0.1311763 -0.19490789 -0.09532459 -0.012575141 0.0068265735 0.0075579747
0.080106825 -0.09234703 -0.102329165 -0.086166374 0.0797182 0.064123414 -0.036322996 -0.22910835
-0.24964261 0.06643028 0.0019949123 0.11927471 -0.033704028 0.024841433 0.0058363676 -0.01802932
0.076224804 0.07529671 0.08353739 -0.07036856 0.046896074 0.023578798 0.0074784025 0.12794499
-0.24573119 0.31618464 -0.0645937 -0.010930856 0.23237804 0.053264413 0.70756316 0.3105309
0.15759155 0.17941383 -0.91787046 0.07868049 -0.08261573 -0.120748945 -0.15423131 -0.0027723855

fc3.bias f4 [15]
00000000: 7ab5 e13c 73ab a9bc 5af7 d2bd 215b 55be
00000010: ecf5 67be 9446 47bd 46c8 ea3f 156b 4740
00000020: 77a8 283f b3a3 b140 4f53 07bf aed5 1640
00000030: 7318 6940 f963 d640 c112 6340
0.027552355 -0.020711636 -0.10301085 -0.20835544 -0.22652406 -0.048651293 1.8342369 3.1159108
0.65882057 5.551233 -0.52861494 2.356792 3.6421173 6.6997037 3.5480196

fc4.weight f4 [2, 15]
00000000: fc79 dd3c ef60 0bbe fcaa f8bc e431 0e3d
00000010: 2bd8 f5bd 7d47 2c3d 169e 8f3e 1ead ab3d
00000020: 1da1 37bb 4c20 ef3b 72de a2ba e08b 5e3e
00000030: 7932 943e 3e06 c63e 0f8f cc3e b45d 223e
00000040: a5e7 21be e5b7 33be 98b4 83bd dc33 f4bd
00000050: 9720 3bbd 5cf3 a6bd 7331 033c 51ac adbd
00000060: 8ae3 413e 1407 45be 00b1 27bd ec3c aa3d
00000070: 3def cf3e 5610 0f3e
0.027035706 -0.13611196 -0.03035497 0.03471555 -0.120041214 0.042060364 0.28050297 0.08382629
-0.0028019615 0.0072975513 -0.0012425913 0.21733046 0.28944758 0.38676637 0.39952895 0.15856057
-0.15811022 -0.17550619 -0.0643093 -0.11923954 -0.045685377 -0.08151886 0.008007395 -0.08480132
0.18934456 -0.19240981 -0.040940285 0.08312401 0.40612212 0.13971075

fc4.bias f4 [2]
00000000: 16a2 2d40 225a e840
2.713018 7.2610025
