GeologicalScience/VolcanicEruption/code/volcanoinference/saved-networks/triplet.pth (torch_old, 78212 bytes, 8 tensors)

fc1.weight f4 [100, 72]
00000000: d259 4a3d 411a 1a3d 45e0 efbd 7401 99bd
00000010: 6afa 0bbc 8221 673c eea3 fc3d 7c32 30bb
00000020: 058a 053e 54fd 163e d80e 93bd 3926 82be
00000030: 001f cc3d 360f d4bd 00fa b4bd 7da7 d33d
00000040: 946a ee39 d59b 8fbd 1931 4cbd cb87 c53d
00000050: 33b5 f2b8 e5ab a23d fcaf f83c ed9a 97bd
00000060: 37dc 313d d096 763d eb96 f4bd 03c2 d7bd
00000070: 74ac e43c ceb2 2e3d b986 d7bd 8967 99bd
00000080: 1df4 02be 540c 3aba 2f02 05be e7aa e2bc
00000090: 80be 0fbe 4497 e5bd 2f62 a83d 6530 57be
000000a0: 9295 e03d 8c62 d3bb ffe4 febd 86ae f4bd
000000b0: 8a09 e3bb c081 1cbd bb64 85bd 029c 023e
000000c0: d779 613d 579e cbbb 5216 34be 3b38 0b3e
000000d0: 6c50 cabc 3d16 ccb9 49ef 9dbd 81db c8bd
000000e0: 918b 363d c439 9fbd 456a 673d 783e bf3d
000000f0: 4a92 e5bc b782 f83b 83f0 803d 47e2 06be
00000100: d53c fabd 868d a83d 75d4 623d cc27 b0bd
00000110: 40e6 8b3d 171f c9bc 2d32 c4bd 00cf 373d
00000120: 9877 44bd 77ad 653d fb4f 4cbe ab97 d4bd
00000130: 3e70 e43c c52b 76bc 76a8 21be 0b72 a5bc
00000140: 4fc8 5dbe d503 34be 9636 19bd 8fbd 42bd
00000150: 81fc 50be 1f4a 38be 9d07 f3bc 0643 43be
00000160: 73c7 273c f65b 873d aaa3 893d 515f e63d
00000170: c542 9e3d f3a4 0abe 214d ab3d 4d69 3b3b
00000180: 8322 5b3c 6fe6 433a 3c19 1ebe c007 79bd
00000190: 1740 793d e5da b9bd 0757 08be 1816 d4bd
000001a0: c433 4cbd 3f2a e2bd d175 84bd 761d b43c
000001b0: f748 05be 5e2b 133d 505e 2c3c b282 b13d
000001c0: 4042 77be bdc1 953d 1e40 d7bc 85d9 e7bd
000001d0: 8d52 003d f445 dfbd 2791 c1bd 04f2 84be
000001e0: 3cdb 06be eb1a 50bc c71d 2e3d b709 f83d
000001f0: 2480 4bbd fbba 54be f8f6 30bd 2a68 b83a
00000200: 76eb cebc 5d30 91bd 4161 573d 01d6 583d
00000210: 13d4 afbd 536c a83c 0a86 1fbe b493 99bb
00000220: 0dc7 2abd 2881 f0bc 00c1 5f3d a071 393c
00000230: 3a48 b0bd 30a9 d2bd f4d7 39bd 880c 29be
00000240: 50f8 50bd 912f cebc 086b 893d bb96 deba
00000250: 4e4c d23c d56c bd3d 0ce7 ec3b 3730 cabd
00000260: a448 2b3d 6bd5 e33c 2681 9e3d d909 84bd
00000270: b641 e93d 32b3 e33c e1b7 733c 72a2 c13b
00000280: 1a46 8c3d 5b15 b1bc c34b c53d 2c09 4e3b
00000290: 3890 b53d 890a 923d d3e3 4f3d bf79 0bbe
000002a0: 71b9 d9bc c53d fbbd ac56 56bb ce6c 00be
000002b0: edf1 c43d b8f6 c0bd 58d5 3b3d b584 bbba
000002c0: 5f6d 3a3c acf7 013d 9414 afbd 3551 503d
000002d0: 0e31 12be 5836 50bd 3cd4 b73d 237b f1bd
000002e0: 0022 b0bd 09f2 5dbc 6316 af3d 1be1 72bd
000002f0: 9f70 04be 01d5 563d 7e8c 633d 00bb cc3d
00000300: c417 d9bc cc2d 8abb c0e3 afbc 1804 09bd
00000310: 095b 03bc 7762 d7bc a522 e2bd 5ba0 6d3c
00000320: 0314 09b8 005e 70bc 8d1a 34bd 03df 6bbd
00000330: 0886 433c e470 ae3d a10e eabb d349 c23d
00000340: 846a 9c3d 6ef6 81bd 16db f6bd 8afc 03bd
00000350: a827 f6bd 0c50 efbd 8d36 d0bd b15f 8abd
00000360: 0011 573b 7055 85bd 34fa ebbd f710 cebd
00000370: 01c5 d13d 2eec a4bd b47b 51bd 6e55 2a3d
00000380: 1aa4 e3bd 57dd ba3d c05c ba3b 032e a33d
00000390: 9182 be3d e246 c4bd 00b9 473b 48e9 0cbc
000003a0: 482a 56bc 6099 8c3b cefc 303d 5696 4e3d
000003b0: d8b3 393c e1f9 f03d 762a 24bd 4600 edbd
000003c0: 2c04 8abd 9b5b bc3d 7457 5bbd 3186 c7bd
000003d0: 5539 94bd 907e 9cbd 2408 a33c ac7b ec3c
000003e0: 3e6f 54bd 3640 50bd 1bae ab3d 81ec 9b3d
000003f0: 1456 06bd b89d fcbc a887 e1bc f0e5 54bd
0.049402066 0.037622694 -0.11712698 -0.0747098 -0.00854359 0.01410711 0.123359546 -0.002688556
0.13040932 0.14745075 -0.071805656 -0.25419787 0.0996685 -0.10354464 -0.08836746 0.1033468
0.00045474304 -0.070121445 -0.04985151 0.09645041 -0.0001157321 0.079429425 0.030357353 -0.074025966
0.043422904 0.06020242 -0.11942848 -0.10535052 0.027914263 0.04265099 -0.10523743 -0.07490451
-0.12788434 -0.0007097174 -0.12989114 -0.027669383 -0.14037514 -0.11210492 0.08221852 -0.21014555
0.10966028 -0.0064509567 -0.12446021 -0.1194735 -0.0069286274 -0.038209677 -0.065133534 0.12754825
0.055047836 -0.006213944 -0.1758664 0.13595669 -0.024696551 -0.0003892648 -0.07711656 -0.09807492
0.044566695 -0.0777469 0.05649783 0.09338087 -0.028023858 0.007583942 0.06295874 -0.13172255
-0.12218634 0.082301185 0.055378396 -0.08601341 0.06831026 -0.024550958 -0.09579883 0.044875145
-0.047965616 0.056073632 -0.19952385 -0.10380491 0.027885552 -0.015025084 -0.15786919 -0.020195981
-0.21658443 -0.17579587 -0.037405573 -0.04754406 -0.20408823 -0.17997025 -0.029666716 -0.19068536
0.0102404235 0.06609337 0.067206696 0.11248649 0.07727579 -0.13539486 0.083643205 0.00285967
0.013374927 0.0007472997 -0.15439314 -0.060798407 0.060852136 -0.09074954 -0.13314448 -0.103557765
-0.049854055 -0.11043214 -0.06467784 0.021986704 -0.13016115 0.03593003 0.010520533 0.08667506
-0.24146366 0.07312343 -0.02627569 -0.113207854 0.031328727 -0.109020144 -0.09451514 -0.25965893
-0.13169569 -0.01270173 0.042508867 0.12111228 -0.04968275 -0.20774452 -0.043204278 0.0014069129
-0.02525876 -0.07089303 0.052582983 0.052938465 -0.08585372 0.020559466 -0.15578476 -0.004686797
-0.041693736 -0.029358461 0.05462742 0.011318594 -0.08607526 -0.10286176 -0.045371965 -0.16508687
-0.05101806 -0.025169166 0.06709868 -0.0016982177 0.02567115 0.09249274 0.0072296914 -0.098724775
0.041817322 0.027811727 0.07739477 -0.06447191 0.113894865 0.027795408 0.014875383 0.0059092576
0.06849308 -0.021616628 0.09633591 0.0031438572 0.08865398 0.07130916 0.05075438 -0.13620661
-0.026577683 -0.12267641 -0.003270547 -0.12541506 0.09616456 -0.09422058 0.045857757 -0.0014306518
0.011378615 0.03173034 -0.08548847 0.050858695 -0.14276525 -0.050833076 0.08976027 -0.117910646
-0.08600235 -0.013546475 0.08549192 -0.05929671 -0.12933587 0.05244923 0.055553906 0.09996605
-0.02650059 -0.004216885 -0.021470904 -0.03345117 -0.00801731 -0.026292069 -0.11041764 0.014503564
-3.2681983e-05 -0.014670849 -0.043970633 -0.057585727 0.011933811 0.08517626 -0.007142857 0.09486737
0.07637504 -0.06345831 -0.12053506 -0.032223262 -0.120192826 -0.116851896 -0.10166655 -0.06756533
0.003281653 -0.065104365 -0.11522332 -0.100618295 0.10242654 -0.0805286 -0.051143363 0.04158538
-0.11115284 0.091242485 0.005687326 0.079677604 0.09302247 -0.09583832 0.0030475259 -0.00860054
-0.013071604 0.0042907447 0.043209843 0.05043634 0.011334382 0.117664106 -0.040079556 -0.11572318
-0.06739077 0.0919716 -0.0535502 -0.09742392 -0.07237498 -0.076413274 0.019901343 0.028867565
-0.0518639 -0.050842486 0.08382817 0.07613469 -0.032796934 -0.030836925 -0.027530506 -0.051977098

fc1.bias f4 [100]
00000000: 51cc 453e eb40 9a3e da4b 84bc a5aa 9ebd
00000010: 982a 033e f884 cfbd f739 df3d e112 f33d
00000020: 5b6e 383f b5f8 7e3e bd62 46bd 808b 623b
00000030: d724 07be 55e0 34be 88ed 48bc 0067 093d
00000040: ba78 82bd ed77 813d 3fba a9bd 224a 7c3e
00000050: 4bd0 bcbd c4d7 68bd 4a6a 0bbf 8acc 973d
00000060: 38ad 053c 8913 543f 6a29 863e aa5c d1bd
00000070: f0f6 a4be 42db 8abc 91d1 053f 283f e23e
00000080: 083a b8bb 4f77 8fbe 0572 963d dc93 38be
00000090: 38a6 c93d 3e26 20bf f2c9 34bf 439f a2bd
000000a0: 732d 5d3e 2048 fabc e75d 893d 3c5c 9b3e
000000b0: 55de 9c3e 039f 5b3d 6005 adbc a856 83bc
000000c0: beca 2b3d 5654 0cbe 28b0 f5bd 43bc 34be
000000d0: 86c0 6bbd 0dd4 cb3e c76c 81be 7e86 bcbd
000000e0: 71e5 8a3e 56a3 50bd 6e2d b03e 931d 863e
000000f0: 7694 413d 5e1a ce3e 594d cfbd 3fad 3b3e
00000100: 187f 493c febb d83d f934 95bd e260 593f
00000110: a89d 153e b73e ccbd db72 823d a4b1 4cbe
00000120: 11aa d1bd d7f3 05be 455b 2a3d 6d32 23be
00000130: 9e76 e9bb 3f3f 683e 8856 cabc 91a9 043f
00000140: 76bd b1bd 78d3 11bd 141c 023f 7baa 3fbe
00000150: 3f6b 1e3f 2464 69bf 4d69 ad3d 0027 c9be
00000160: 4214 4b3e 61f8 0ebe 1f6f e83c e5e1 d9bd
00000170: c0d7 cdbb cc4d b13c 07be 9b3e 84d1 2fbc
00000180: 3e91 373d d87f 183f 537e b03c a813 143f
0.19316222 0.30127653 -0.01614945 -0.077473916 0.12809217 -0.10132784 0.10899728 0.11868835
0.7204339 0.24899562 -0.048434008 0.0034568012 -0.13197647 -0.17663701 -0.012263663 0.033545494
-0.06370683 0.06321702 -0.08287477 0.24637654 -0.09219416 -0.056846395 -0.5445906 0.074120596
0.008158974 0.8284231 0.2620347 -0.102227524 -0.32219648 -0.016950253 0.522729 0.4418881
-0.0056221522 -0.28020713 0.07345966 -0.18025154 0.09846157 -0.6255835 -0.70620644 -0.07940533
0.21599369 -0.03055197 0.067073636 0.30343807 0.30638376 0.053618442 -0.021120727 -0.016032532
0.041941397 -0.13704047 -0.1199649 -0.17649941 -0.05755665 0.3981022 -0.25278303 -0.0920534
0.27128175 -0.05093702 0.3440966 0.26194438 0.047260724 0.40254492 -0.10122175 0.18327807
0.012298368 0.10582732 -0.07285494 0.84913456 0.14610922 -0.099728994 0.06369563 -0.1998964
-0.10237516 -0.13081299 0.041590948 -0.15937205 -0.007124736 0.22680376 -0.024699464 0.5182124
-0.08678715 -0.035602063 0.50824094 -0.18717377 0.61882395 -0.9116843 0.0846735 -0.39287567
0.19831946 -0.13961937 0.0283733 -0.10638789 -0.006281823 0.021643542 0.30418417 -0.010731105
0.044816248 0.59570074 0.021544611 0.57842493

fc2.weight f4 [80, 100]
00000000: e8f8 3cbd 5066 b83c 978d 43bd f302 863d
00000010: dc0e 0f3d 537a 5dbd 2064 dabb a99d 4d3d
00000020: 3e27 26bd 06bf 8cbd 4ada 3bbd 0f17 8e3d
00000030: f202 3abd bf2b 9bbd 4d67 c53d b558 383d
00000040: 6ddf 923d f101 09bd 9a6c b1bd bd5f 8abd
00000050: 5468 bcbd 2d2c 003d 6e67 90bd 2178 3a3c
00000060: fe6b 8ebd 3930 debd d604 563c 3476 803d
00000070: 0158 93bd 36b2 9a3d 42fa e2bd 9f14 d9bc
00000080: a66a b3bd b4ed 553d 8dad 61bd 79b4 9f3b
00000090: 2897 033d d1ce 4dbd 5b90 3c3d b719 163d
000000a0: a312 51bd 1892 3c3c 7b49 3f3d ec58 e2bd
000000b0: 4926 54bc eaa7 913c 3069 be3d e718 4fbd
000000c0: a183 9c3d 8d5b 83bc 9e9f e23c 59d3 5f3c
000000d0: 22dc 313d a1a1 edbc 1500 74bd 3e7f 803d
000000e0: 7bea 73bb 8745 6bbd c28b 15bc fcd7 89bd
000000f0: 0f57 c63d 4a02 c7bc 254d c2bd b1ca ad3d
00000100: e39f 1bbd a7a5 c0bd b60f 31bd 4e04 70be
00000110: 20af a83d 3f14 6cbd c90c 19bd 1564 753d
00000120: f671 0ebd 5606 d8bd 41a3 19bd 7312 7b3d
00000130: ea61 1f3d 45ef 353d 62b7 bebc ef5b 623d
00000140: 3460 bfbc 1836 08bd f427 773e 5dc4 f23c
00000150: 0417 90bd d866 aabd 3563 853d d6a5 c2bd
00000160: f150 26bd eec4 c23c ef31 e93c 443c a4bd
00000170: 517b 9d3d 2543 bf3d 33be bd3d eb44 113d
00000180: c0d4 65bb 1954 81bd 75cb 8b3d 5fc8 3cbd
00000190: 4620 a23d 8fde 6bbd 9bd6 74bd 6c0c 01bd
000001a0: 3696 d8bd f47d ee3c d22f 723d 4027 34bc
000001b0: 7288 0c3d d00e 133d 3415 a43d 9385 3cbd
000001c0: f9de cbbd fa06 95bd 8088 b5ba 2b4a 94bd
000001d0: dc0e 163d dcb7 95bd 20a5 703c 2db2 903d
000001e0: fdb3 55bd cd5f 143d 140f 94bd 50ed bcbc
000001f0: 4c77 c1bc defb 2b3e e9e0 053e ea7f 623d
00000200: a491 6abd 2118 0f3d ce3b 5fbc 45f2 a33d
00000210: 11d8 33bd 0911 8abd aaca b2bd 11cf a9bd
00000220: 64b3 88bd 620b 78bd 5f12 fdbd d628 61bd
00000230: 9a53 d0bd bbe0 91bd 38b9 b1bd aed3 cd3c
00000240: 7643 38bd 2912 493d acc9 773d 10ca 2fbd
00000250: 304e 583c 8428 97bd d2e2 a3bc 94b8 94bd
00000260: a004 a73b c41b 2b3d cd1f b9bd 65ee 5e3d
00000270: de53 1dbc 908f 3b3c ac6c b43d 7ace 94bd
00000280: d898 7d3c f9ff 223d 32f5 75bd 1b47 d9bd
00000290: 2f58 b03d 88be 983d 89d5 b1bd 0f0b 2d3e
000002a0: 8093 83bb ffad 4b3d 037c ad3d 6985 2cbb
000002b0: 254e 88bd e4b9 7dbd c2da 8d3d 44b1 a13c
000002c0: a5fb c3bd 2a25 013d 8a2c e4bc 26b3 b4bc
000002d0: d09a d33b 575c b73d d74b dabc cf20 23bd
000002e0: 3931 a23d 0cee 71bd 09a0 ca3d ad1f debd
000002f0: cf8a 1d3d f39b 183d 63f0 e0bc 2604 0fbd
00000300: 802c aa3c a8cd 25bc e230 5ebd 9b44 c1bd
00000310: aa06 2a3d 899e 133e c510 8cbd 351f 443c
00000320: 73af ed3d b172 ba3d ed1e d53d 1d39 3abd
00000330: 8b4a a5bd 1a7c 4fbd aa7d 1b3d 0ea8 b53d
00000340: 2fe2 c13d 0d15 32bd 33aa 1f3d f7b3 5bbd
00000350: 2d6a 97bd 6221 79bd 1779 9a3d 5e11 ae38
00000360: 94e1 a83d 81ea 60bd 7f6c bfbd ca9c 973d
00000370: 429b 14bc 04a1 0d3d 0008 d8bd 70a3 cf3d
00000380: 7570 8c3d 016d a3bc 9486 d5bb 0757 93bd
00000390: d429 503e 8bd8 0a3d e771 633d 420e 323d
000003a0: 2241 e83c 314c 873d 2ece 153d 0ae0 9b3d
000003b0: f8ff 523d 3e05 dabd 5eec cabc 526f 193d
000003c0: b4b5 c3bd 0bcc 893d da3c bc3d 2e7b a43d
000003d0: 9512 cb3d d605 1a3d d2b2 fb3b 02c7 3c3d
000003e0: 4622 7b3d ddb1 b7bc 44bb 363d 08b3 adbd
000003f0: 0039 84bc e8ed 67bd c92c 03bd cac8 6abd
-0.046135813 0.022509724 -0.047742452 0.06543531 0.03492628 -0.054071736 -0.006664768 0.050199185
-0.040564768 -0.06872372 -0.045862474 0.06937992 -0.045412965 -0.07576703 0.09638844 0.045006473
0.07171521 -0.033449117 -0.08663292 -0.06756542 -0.091995865 0.03129213 -0.07050978 0.01138118
-0.069541916 -0.108490415 0.013062676 0.062725455 -0.0719452 0.07553522 -0.11082889 -0.02649909
-0.08760576 0.052228644 -0.05509715 0.004873809 0.032126576 -0.050246064 0.046036106 0.036645617
-0.051043164 0.011509441 0.046700936 -0.11052117 -0.012948581 0.017780263 0.09297407 -0.050560858
0.07642294 -0.016034866 0.027664002 0.013661229 0.043422826 -0.029007735 -0.05957039 0.062742695
-0.0037218619 -0.057439353 -0.009127559 -0.06730649 0.09684574 -0.024293084 -0.094873704 0.08485926
-0.037994277 -0.09406596 -0.043227874 -0.23439142 0.082365274 -0.057636496 -0.03736571 0.0599099
-0.03477665 -0.105480835 -0.037509207 0.06129689 0.038911738 0.04441764 -0.023280803 0.055263456
-0.023361303 -0.033254713 0.24136335 0.029634649 -0.0703564 -0.08320397 0.06513063 -0.09504287
-0.040604535 0.023775544 0.028466193 -0.08019307 0.07689536 0.09338979 0.09264793 0.035466116
-0.0035069436 -0.063148685 0.06825916 -0.046089526 0.07916312 -0.057585295 -0.059774976 -0.031505987
-0.105755255 0.029112794 0.059127636 -0.010995686 0.034309812 0.0359028 0.08011857 -0.046025824
-0.09954638 -0.07276721 -0.0013849884 -0.07240709 0.036635265 -0.07310459 0.014687806 0.07065234
-0.052173603 0.036224175 -0.072294384 -0.023062378 -0.023616455 0.16795298 0.13074078 0.05529777
-0.0572678 0.03493512 -0.013625098 0.080051936 -0.04390723 -0.067415304 -0.08730061 -0.08291448
-0.06674841 -0.06055773 -0.1235702 -0.054970585 -0.10172196 -0.07122942 -0.08677906 0.02512535
-0.04498621 0.049089584 0.060495064 -0.04291731 0.013202235 -0.073807746 -0.020005617 -0.07261768
0.005096987 0.041774526 -0.09039269 0.05442657 -0.009602515 0.011447802 0.0880979 -0.07265945
0.015478335 0.039794896 -0.06004829 -0.106092654 0.0861057 0.07458216 -0.08683307 0.1689875
-0.004015386 0.049726482 0.08470919 -0.0026324636 -0.0665553 -0.061944857 0.0692649 0.019737847
-0.09569482 0.031529583 -0.02785327 -0.02205808 0.006457664 0.08953159 -0.026647491 -0.03982621
0.07919545 -0.05906491 0.098938055 -0.108458854 0.038462456 0.0372581 -0.027458375 -0.034916066
0.020773172 -0.010119833 -0.054245837 -0.094369136 0.04151026 0.14415945 -0.06839136 0.011970331
0.1160573 0.09103907 0.10406289 -0.045464624 -0.080708586 -0.05065546 0.03796164 0.088699445
0.09466969 -0.043477107 0.038980674 -0.053638425 -0.07393298 -0.060822852 0.07542627 8.3002014e-05
0.082461506 -0.05491114 -0.09346866 0.07402952 -0.0090702195 0.034577385 -0.10548401 0.10138595
0.06857387 -0.019949438 -0.006516287 -0.071943335 0.20328456 0.033897918 0.055528548 0.04347063
0.02835137 0.06606329 0.03657358 0.076110914 0.051513642 -0.10645531 -0.024770912 0.03745968
-0.095561415 0.06728371 0.09191294 0.08031307 0.099156536 0.03760322 0.007681229 0.046088226
0.061311983 -0.022423679 0.044612184 -0.08481413 -0.016140461 -0.05662337 -0.032025132 -0.057320394

fc2.bias f4 [80]
00000000: 712b 10bd 97d8 183f fa37 8fbe 0ccb cc3e
00000010: 4a6e 59bd f8d4 71bd 9c19 103e f329 de3d
00000020: 9fa5 0ebd 257b 1a3f 3526 04be 9322 19be
00000030: bb51 21bd 378d 0e3d afa1 e9bc 2029 82be
00000040: b03c 7cbd 6394 4fbe a983 1fbd 9e83 853d
00000050: 91e1 a43e dcc0 51bc 27a3 373f 75a7 693e
00000060: 1c92 9cbc 0720 343f b8e1 883e fbd4 0cbe
00000070: 1c4b d7be 5ce1 f1bd 377c 1ebe 17f4 173f
00000080: 1131 78be e673 a2bd e678 a23e e8be 6c3e
00000090: 74f7 0a3f 7d0c 05be ad8d 85bd 1085 8c3d
000000a0: 259f 8d3e e3b9 b0bd 4f8b 26be 629a f0bd
000000b0: 0dd7 30bf 0b8a c4bb e4a0 2dbe 3f70 183f
000000c0: d1b3 89be e7db cdbd 7fd0 19be 89af e93d
000000d0: c2be 4ebe 2040 e43e 0285 c4bd b766 ddbe
000000e0: b6c8 08be a4f7 c03e 21a3 1abd 43ac 543d
000000f0: 559a 72bd aa0a 6a3c 4930 0dbf e1bb 08be
00000100: 0491 c0bd 7053 ccbd 08c8 093f 8f66 c93d
00000110: ccf8 ea3d 77c1 8dbd 448a fbbd 2653 debd
00000120: cc6e 03bd 77f4 df3e f9c2 bcbd 5404 13be
00000130: 1fab 9fbd a33c 69bd 53b7 20be 2084 123d
-0.03519768 0.5970549 -0.27972394 0.39998662 -0.053083695 -0.059040993 0.14072269 0.10847845
-0.034825917 0.60344154 -0.129052 -0.14954595 -0.039384585 0.03480264 -0.02851948 -0.25422
-0.061581314 -0.20271449 -0.03894392 0.065192446 0.32203344 -0.012802329 0.71733326 0.22817786
-0.01911264 0.7036137 0.2673471 -0.1375312 -0.4204949 -0.11810562 -0.15477072 0.59356827
-0.24237467 -0.07932262 0.31732863 0.231197 0.54283834 -0.12993045 -0.06521163 0.06861317
0.2766048 -0.08629205 -0.1626408 -0.11748196 -0.6907814 -0.0059979013 -0.16955906 0.59546274
-0.26895002 -0.10051709 -0.15020941 0.11410434 -0.20189956 0.44580173 -0.09595682 -0.43242428
-0.13357815 0.37688935 -0.037753228 0.051922094 -0.059229214 0.014284769 -0.551518 -0.1335292
-0.094026595 -0.09976852 0.5382085 0.098340146 0.114732355 -0.06921666 -0.122822315 -0.10855703
-0.032088086 0.437412 -0.092168756 -0.1435712 -0.07796311 -0.056942593 -0.15694933 0.035770535

fc3.weight f4 [40, 80]
00000000: 876e 65b9 690e a5bd 5a6f f8bd ac1b af3d
00000010: 526d 38bd 1f7c b43d 4c0e c4bd 4300 e13d
00000020: 34f1 d4bc 33dc d83b cd4a 88bd 43d8 3d3d
00000030: bceb 64bc 4882 6a3b 71f7 04bb 05d9 d7bd
00000040: eae1 13bd 3f63 eabc c052 bb3c 5e92 b23d
00000050: 075e 34bc de26 05bd e62e 08be af61 973d
00000060: 4323 ea3d e886 143d bf92 b13d 22c3 333b
00000070: 3fc6 cdbd b185 153d 0d5a 483d 69bf cbbd
00000080: caa4 cb3d 228e 9bbc a0c9 9ebc 1e83 96bd
00000090: bd7a b1bc 84d3 96bb 90a8 8cbd 38d7 55bd
000000a0: 2ac2 fb3d 2491 9d3c 738f 5f3d 1680 7dbd
000000b0: eea1 6dbd fb6e b03b f380 b43d 310a cfbd
000000c0: c4a3 073d 38ce 993c 20be 52bc 5277 ba3b
000000d0: b7f6 fabd b533 9d3d 28fd a6bd 53bc c23c
000000e0: 1cbf 083c f3c0 ccbd 08b1 4ebd 6f55 d0bd
000000f0: 61b1 39bd 2e3b 983d bbf7 d9bd 35d7 31bd
00000100: 9a5f 9a3d e0e1 b23b 1d87 9fbd 7f43 14bc
00000110: 8721 9fbc 0932 76bd 1f8f 313d 3667 d3bd
00000120: 9c13 353d b64c c73d 388b 84bc 0aac 9d3d
00000130: d29a b63d cf97 913d c82f c4bd a3f1 10bc
00000140: 1892 113d 2204 f23c bf52 38bc eade dabd
00000150: 5079 c73d 33af dfba a731 d03a 9d44 e7bc
00000160: 7f39 d93c 18a0 cfbd 3893 57bd 29c7 b3bc
00000170: 9150 113c e00b c6bd acf1 99bc 37ec 8d3c
00000180: 986a 7ebd f2e4 02bd 9066 9b3c 860f e8bd
00000190: 4b8b f83c 2605 563d 5f84 5f3d e649 69bb
000001a0: 3799 50bd 91ef 163e 4e9a 523d 2a1b 153d
000001b0: 279d 97bd cb1c 233d fb60 ccbc 0322 0e3e
000001c0: 910e f3bd 3c02 433d 37d2 8abd 4ff1 e4bd
000001d0: 6b43 73be a3e8 f03c eb09 be3b 43ed a1bc
000001e0: 5e62 b03e 0f45 c63b c2bc 853d 63c0 29bd
000001f0: bb47 d7bd 95a8 a33d 3ea0 8ebb 9d2a 913d
00000200: 1aa7 ba3c 90b4 9a3d 17f8 6dbd 31d7 afbc
00000210: 1eb5 f2bd e841 f53b c6d4 82bd 5816 433c
00000220: e9f1 a2bd fa71 8f3d 3b5c 33bd b1e0 d4bc
00000230: da48 1abd e921 153d e340 4abe 8071 46ba
00000240: 0b61 27be 8a25 c63d 9b65 2f3e f626 24be
00000250: eddb 8abd c9d3 8d3d 344e 9d3d 9b19 e73c
00000260: ca8e a3bd b0be 5dbd e453 0bbd 0de5 a4bd
00000270: 3703 5d3c 062c d4bc 445c febc 94fd e2bc
00000280: 095c 84bd e280 16bd 0ff4 213d a95f 8b3d
00000290: 8923 d1bc 3db8 203d 2072 4b3d 9d67 bbbd
000002a0: cbe7 ba3d 3f8c 0bbe 1cee d03d 7899 953d
000002b0: 889d 85bd c807 ffbc 1cc2 9abd 7599 e2bd
000002c0: 7f4d 26bc 4125 d0bd 801b 503c 9272 acbb
000002d0: 9180 ac3c 938a c23d 7b83 9d3d 2911 9dbd
000002e0: abf0 b5bd bf60 e3bd 7dbb 00be c016 e4bc
000002f0: 7603 15bd 465b 17bd ab1c 61bb d497 90bc
00000300: d6d8 d73c fd9c 2b3d 2242 833d ca74 4ebd
00000310: ceec c2ba 053c 9abd a89e 423d 4c46 ab3d
00000320: 23cd f7bc 2452 6fbd 00a2 44b9 ffc3 bebd
00000330: 77c2 84bd 3d07 25bb 2e70 9dbc 541b 143d
00000340: 2a86 123c 48e7 75bd 308d c53d 219c e2bd
00000350: 13f0 b7bd b4ff 343d 99d3 b6bd 52f4 2dbc
00000360: 3819 afbd 9005 8b3c ecc7 81bd 42e0 aebd
00000370: a042 693b 3098 c83d 3cd6 fcbd 74cc dc3d
00000380: 8b4e 213b 3074 97bd 0480 05bc 5f95 c13d
00000390: 23b8 83bc 1538 bfbd 988b 313d 1c78 9abd
000003a0: 5c56 d73d bc0c f9bb a467 853d 048a b9bd
000003b0: b8d9 eb3c 6602 aabd 6c10 b23d b67a b4bc
000003c0: e3a5 dfbd c60f 843d 1b86 3d3d e23b 3e3d
000003d0: 417d c1bd d62d 8c3c 17f6 93bd 00db e4bd
000003e0: 6b79 c8bc 87f0 b5bd cc1f 363d 7854 ecbd
000003f0: d0b2 163d f726 b3bd 944c c73d 5def 89bd
-0.00021880316 -0.08059389 -0.121306136 0.085502 -0.04502613 0.08812737 -0.095730394 0.10986378
-0.02599392 0.0066180467 -0.06654892 0.04634882 -0.013972219 0.003578322 -0.0020289088 -0.1053944
-0.03610412 -0.028611777 0.022866607 0.087193236 -0.011008746 -0.03250777 -0.1329914 0.073916785
0.11432507 0.03626147 0.08670568 0.002742954 -0.10047578 0.03650445 0.048914004 -0.09948618
0.099435404 -0.018988673 -0.019383252 -0.07349227 -0.021664971 -0.0046028513 -0.06868088 -0.0522072
0.12292893 0.019234248 0.054580163 -0.06188973 -0.058015756 0.0053843237 0.088136576 -0.10109366
0.033115163 0.01877509 -0.012862712 0.0056904936 -0.12254088 0.07675878 -0.081537545 0.02377144
0.008346345 -0.0999774 -0.0504618 -0.10172545 -0.045335177 0.07433163 -0.10642954 -0.043418128
0.07537766 0.0054590553 -0.07789443 -0.009049295 -0.019425167 -0.06010631 0.04334938 -0.1032242
0.044208154 0.09731428 -0.016179666 0.076988295 0.089162484 0.07109033 -0.09579426 -0.008846673
0.035539716 0.029542986 -0.011250197 -0.10687049 0.097399354 -0.0017065763 0.0015883938 -0.02823096
0.026516674 -0.10137957 -0.052630633 -0.021945553 0.008869306 -0.09670234 -0.018791996 0.01732455
-0.062113374 -0.03195662 0.018969804 -0.11331086 0.030339858 0.052251004 0.0545696 -0.0035597025
-0.050927367 0.14739825 0.051416688 0.03640286 -0.07403021 0.03982238 -0.024948588 0.13880162
-0.11868013 0.047609553 -0.067783765 -0.111788385 -0.23756187 0.029407805 0.005799522 -0.019766456
0.34450048 0.006050713 0.06530143 -0.04144324 -0.105117284 0.07991139 -0.0043525985 0.07088206
0.022784758 0.07553971 -0.058097925 -0.021464916 -0.118509516 0.0074846633 -0.063882396 0.011907183
-0.07956297 0.07004161 -0.04378913 -0.025986047 -0.037667133 0.036409292 -0.19751315 -0.00075700134
-0.16345613 0.09675129 0.17128603 -0.16030487 -0.06780229 0.069251604 0.07680932 0.028210452
-0.07986219 -0.054136932 -0.03401555 -0.080515005 0.013489536 -0.025899898 -0.031049855 -0.027708806
-0.06462867 -0.036744006 0.039539393 0.06805355 -0.02552964 0.039238203 0.049669385 -0.09150622
0.09126242 -0.13627718 0.10201666 0.073046625 -0.06524187 -0.03113164 -0.07556555 -0.11064426
-0.010150312 -0.101633556 0.012701869 -0.0052626813 0.021057399 0.09499087 0.076910935 -0.07669289
-0.088837944 -0.11102437 -0.12571521 -0.02784288 -0.036380254 -0.03695228 -0.0034349363 -0.017650522
0.026348513 0.041897763 0.06409098 -0.050404347 -0.0014871599 -0.07530979 0.047514588 0.083630174
-0.030249184 -0.058427945 -0.00018752366 -0.09314727 -0.06482404 -0.0025181316 -0.01921853 0.036158875
0.00894312 -0.06003502 0.0964607 -0.110649355 -0.089813374 0.04418917 -0.08927078 -0.0106173325
-0.08549732 0.016970426 -0.0633696 -0.085388675 0.003559269 0.097946525 -0.123455495 0.10781184
0.0024613466 -0.07395208 -0.008148197 0.094523184 -0.016079014 -0.09336869 0.043346018 -0.0754244
0.105145186 -0.007600395 0.065139085 -0.090595275 0.02879034 -0.08301239 0.086945385 -0.02203117
-0.10920312 0.06448321 0.04627047 0.046443827 -0.094477184 0.0171117 -0.07224672 -0.111745834
-0.02447196 -0.088837676 0.044463918 -0.11539549 0.036791623 -0.08747666 0.09731403 -0.06735108

fc3.bias f4 [40]
00000000: bc03 01be 4d6a 7a3e dc9b e03b 4fe4 4cbe
00000010: 354e c73c 9c67 3a3e d02e 4b3f 9717 013c
00000020: b968 32bd c9ac dbbc 4bba b53d fa62 abbd
00000030: f3af b03d b924 343e 0a93 233f efc9 b23e
00000040: c633 de3a feca e13b 2a76 513e fdbe fabd
00000050: a680 e83e ffdd b43b 0a45 6fbd 5836 3fbe
00000060: b7f7 1bbe ab2d 083f 33bb 3a3f 1a47 243f
00000070: d56f 323f 39fd 97bc 2133 b13e 780d 09be
00000080: 6348 21be 9910 713c cc04 eb3c f379 bbbd
00000090: b97c 983e a1e8 8e3d 41fc bc3e 3b77 17be
-0.12599081 0.24454613 0.0068545174 -0.20008968 0.024329284 0.18203586 0.79368305 0.007879159
-0.043556903 -0.026815789 0.08873423 -0.08368488 0.0862731 0.17592134 0.6389624 0.34919688
0.0016952686 0.0068906536 0.20455232 -0.122434594 0.4541065 0.005519628 -0.05841545 -0.18673074
-0.15231214 0.53194684 0.72941893 0.6417099 0.6970189 -0.018553363 0.3460932 -0.13384044
-0.1575027 0.01471343 0.02868881 -0.09154119 0.29782656 0.06977964 0.36911204 -0.14791577

fc4.weight f4 [15, 40]
00000000: af8f c8bd 6c35 00be cbda e83d 978b be3c
00000010: c00c aa3d 2c29 e43a b5a9 873c 3b8c b3bd
00000020: 02ce 023e 412a 98bd 40c9 32bd ebef 023d
00000030: affd 50bc 5556 533d eeec 623d 495c 703d
00000040: 81a6 c6bd 7f25 a43d 1bf4 203e c047 71bc
00000050: b241 fdbe 2f04 94bc 7a63 913c e17c 1ebd
00000060: 6e0b 523d 8bf9 b6bd 6f83 0c3e 620a 973d
00000070: 8fa8 ca3d db78 153a e8b4 1abe c031 6c3c
00000080: 0bbf 77bd 2722 123d f540 b6bd 873b f03d
00000090: 5d7a ecbd 4a8f 8abd f0c7 273e 99b7 c7bc
000000a0: 3c6f 4fba af97 5e3d 645a 093e ce46 d5bd
000000b0: 4915 fe3d ad30 85bc 49bf f7bb b9bc 023e
000000c0: 8465 acbd 0475 793d 7daa 9ebd ee31 e8bc
000000d0: b25c bf3c 7775 38bd aa09 1b3d cea2 983b
000000e0: df6a 573d 82e2 03bd 6294 08bc 00bd fdbc
000000f0: 57ac dd3d 1f18 67bc 42b0 cb3c 2881 84bc
00000100: bf1b ff3d f9dc fd3b f8af 11bd 6cc8 433b
00000110: 15de 18bc f25d 173d 2bd1 1fbd 95ac 123e
00000120: 8df5 74bd 540d 4c3d 5812 af3d 4838 7fbb
00000130: 0c9a 17bd 5067 c23d dd81 c13c 67ab 3d3c
00000140: 9961 bcbd 6fb1 ee3d b5e9 4d3d 220d 413d
00000150: 6f19 edbd 43e7 093c 3c74 4bbd 7f89 d23d
00000160: b9da b03d a608 05bd 6570 27be 919a 17be
00000170: f1ed bcbc d04e e2bb 58a6 b2bd c4e9 5bbd
00000180: aad1 5b3d d715 8e3c 26e1 923d a5e2 8d3d
00000190: cd2e 43bc 914b ccbc ad53 c3bd 6db7 e03c
000001a0: 7db2 f83d b805 e53c 5b64 f83a 2d51 193e
000001b0: 149f 84bc aa82 babc 2d61 9cbd e9d7 81bb
000001c0: 2eb4 eb3d 7172 7a3b db6a a23c 1c4f 64bd
000001d0: aff9 2b3e c9ee bf3d 0ce8 bdbd 374d debd
000001e0: e75b 0c3c a57a 7dbc 706e 603c d8dd aebd
000001f0: 7ce9 f03d 2e03 81bc 05a9 19be 0aad 03bd
00000200: 1f72 f43b fb20 d5bd db59 ef3b 0936 01bd
00000210: e08f 923c 3bad 643e 0fa5 2ebe 1b8a e43d
00000220: 19c5 ccbd db4e 813d ab13 05be 1faa 1bbd
00000230: d9ee 2b3f ecd6 aa3d e373 95bc ab91 8abb
00000240: f9d8 a1bc 8fc2 853d 7c2d 3dbe 8c75 bebb
00000250: e5d5 3abc a6a6 86bd ad69 093f 98ae 34bd
00000260: f342 8a3d 3ba7 cd3d 7b21 80bc 7198 4d3d
00000270: a33a 2c3e 5c91 8d3c 9c49 a73d 1823 68bc
00000280: 64f1 8d3b 253f c0bc a39b d2bd c84b 04bd
00000290: 4299 483d 7b74 c5b9 bdab 603c 572e 02be
000002a0: e2d1 a53d b74f 6cbc fa53 c4bd ff03 ccbc
000002b0: 2c87 6ebc ac55 90bd 19ba 32bc b8a2 d23a
000002c0: 65cd 0b3d 093b c13d d7a7 f43c 9ccd b13c
000002d0: 76d7 943d cb03 3f3c ce59 413c 7ab8 1abe
000002e0: 78f0 5fbd 30ce 8bbb 1e96 9e3c 8bd3 c5bb
000002f0: 6d68 4dbb b32c 17bc 9893 c73c be50 fd3d
00000300: c87f b63c 197a 6e3d 27fa ee3d 8716 31bd
00000310: 51b1 8cbd cad8 de3d 5758 483d 08c0 8b3b
00000320: 2e09 c9bd 0283 4d3d 3b44 34be 91e9 d83b
00000330: d320 12bd 194c 7ebd 66ed dbbc 89f2 fabd
00000340: 67de 61bc 61cf 58bc 01fc 5cbd ffba 123e
00000350: c906 44bd e230 15be 7a29 033d 0822 bebc
00000360: f1a5 0ebe 220a c6bd b1ca 3a3d 60cd 783d
00000370: 3f2f ca3d 1dc5 43bc 9a73 9bbd 8da4 c4bc
00000380: b9a9 8d3c 4423 0c3a c5b1 bbbd 8d30 943d
00000390: 6e41 86bc e880 933d 9e60 b53c b091 0b3d
000003a0: 2e5b 1a3e f409 b0bd 7025 7c3d 571e 223c
000003b0: 3966 d2bb 3d8a 2b3d 317d c1bd b14a 903d
000003c0: 531a 453d 170a 1b3d cefa dbbd 2602 12bd
000003d0: 3c12 01be 64d0 3d3d 3dc7 e13c d877 b2bb
000003e0: d323 e33c 815d 6c3d 2115 77bd 7a80 15bd
000003f0: bd38 f43c 9b97 73be 1c12 823d 10cf 003d
-0.097930305 -0.12520379 0.113698564 0.023259921 0.08303213 0.001740729 0.016560415 -0.08766981
0.12773898 -0.07429934 -0.04364896 0.031967085 -0.012755795 0.051596005 0.055401735 0.05868176
-0.09699727 0.08014964 0.15718119 -0.014726579 -0.49464184 -0.018068401 0.01774763 -0.038693313
0.05128043 -0.08934315 0.13722013 0.07375027 0.09895431 0.0005701908 -0.15108073 0.014416158
-0.060484927 0.0356771 -0.08899108 0.11730104 -0.115467764 -0.067656115 0.16384864 -0.024379538
-0.00079129986 0.054343875 0.13413388 -0.104138955 0.124064036 -0.016258562 -0.0075606448 0.12767304
-0.084178 0.06090261 -0.07747362 -0.02834412 0.02335963 -0.0450339 0.037851013 0.0046580797
0.052592155 -0.032198437 -0.0083361585 -0.030973911 0.10823887 -0.014104872 0.02486432 -0.016174868
0.12456464 0.0077472893 -0.035568208 0.00298741 -0.009330292 0.036954828 -0.039017837 0.14323647
-0.059804488 0.0498174 0.08548421 -0.0038943458 -0.037012145 0.094923615 0.023621494 0.01157651
-0.09198303 0.116549365 0.05027171 0.047131665 -0.11577117 0.0084169535 -0.049671397 0.102801315
0.08635468 -0.03247895 -0.16351469 -0.14805056 -0.023062678 -0.006906368 -0.08723134 -0.053689733
0.053666748 0.017344398 0.0717185 0.06927995 -0.011913014 -0.024938377 -0.09537444 0.027431214
0.12143419 0.027956828 0.0018950807 0.14972372 -0.016189136 -0.022767384 -0.07635722 -0.003962506
0.11508976 0.0038215185 0.019826343 -0.055739507 0.16794465 0.093717165 -0.09272775 -0.10854571
0.008566833 -0.015471135 0.013698205 -0.08538407 0.117632836 -0.015748587 -0.15005882 -0.032147445
0.0074598934 -0.10406681 0.007304413 -0.031545673 0.01789087 0.22331707 -0.17055152 0.11159154
-0.09998531 0.063138686 -0.12995784 -0.038004037 0.6716133 0.08341774 -0.018243736 -0.0042287908
-0.019756781 0.0653125 -0.18474382 -0.0058123525 -0.0114035355 -0.065747544 0.53676873 -0.044111818
0.06751051 0.10041662 -0.015640965 0.050194208 0.16819243 0.017281227 0.08168337 -0.014168523
0.0043317545 -0.02346761 -0.102835916 -0.032298833 0.048974283 -0.00037661553 0.013712821 -0.1271299
0.080966726 -0.014423302 -0.0958633 -0.02490425 -0.014558595 -0.070475906 -0.010908627 0.0016070222
0.034131426 0.09435088 0.029865189 0.021704488 0.072676584 0.011658619 0.011801196 -0.15109435
-0.05467269 -0.004266523 0.01935869 -0.006037181 -0.003134276 -0.009226966 0.02436237 0.12368916
0.022277728 0.05822191 0.116688065 -0.043234374 -0.06869758 0.10881193 0.048912372 0.0042648353
-0.09816204 0.050173767 -0.17604153 0.00661964 -0.035675835 -0.06208429 -0.026846599 -0.12253291
-0.013785935 -0.013233037 -0.053951267 0.14329146 -0.047858033 -0.14569429 0.032021977 -0.023209587
-0.13930489 -0.096699014 0.045603458 0.060742736 0.09872293 -0.011948851 -0.075904086 -0.024004245
0.017292844 0.0005345831 -0.09164766 0.07235823 -0.016388621 0.07202321 0.022140797 0.034074485
0.15073845 -0.085956484 0.06155914 0.009894929 -0.0064208773 0.04187988 -0.094477065 0.07045496
0.048120808 0.03785142 -0.107411966 -0.03564658 -0.12604612 0.046341315 0.027560825 -0.0054464154
0.027727043 0.05770636 -0.060322884 -0.036499478 0.029812211 -0.23788302 0.0635111 0.03144747

fc4.bias f4 [15]
00000000: 4b84 2d3e ac92 3c3d f49c 8b3d 134e 683e
00000010: f632 3d3d fe3a e3bc cb30 cfbd 7b77 5a3e
00000020: 5713 4dbd c556 9cbc e394 8abd 95e9 cbbd
00000030: 8ebd 60bd 87ee 903d 388e 12bc
0.16944997 0.046038315 0.06817046 0.22686033 0.04619118 -0.02773809 -0.101167284 0.2133464
-0.050067272 -0.019084344 -0.06766679 -0.099566616 -0.054868273 0.070767455 -0.00894504
