BiologicalScience/StochasticPlateletsDeposition/Data/Pilots/seminn_net_fake.pth (torch, 11207 bytes, 8 tensors)

fc_in.weight f4 [18, 12]
0.1398327 -0.13189574 -0.06306789 0.12972246 -0.2717206 0.16404487 -0.05437841 0.19126818
0.029265855 -0.016580034 0.05210331 0.00083296304 0.105432294 -0.11249699 -0.021046946 -0.025988651
0.041841716 -0.0011532059 0.25235018 0.08983285 -0.10750442 -0.17434862 -0.04838647 -0.12451733
-0.100923605 0.0034110264 0.1632013 0.14828692 -0.28134644 0.16988404 0.07779305 0.32996866
0.1817912 -0.23254202 -0.25671676 -0.14418331 0.23515095 -0.06876953 0.105714075 -0.15222193
0.26541904 -0.13880591 0.19475476 -0.0066121086 -0.16692245 0.11674993 -0.16033114 0.07504986
-0.08335702 -0.031648725 -0.27752885 -0.13763502 0.15664494 -0.070170365 0.2875347 0.23139864
-0.013516814 -0.19268577 0.17579223 0.089592375 -0.16813508 0.19095945 0.17545071 0.26375645
-0.1512016 -0.04732774 0.009058252 0.07742152 -0.21635945 -0.1467005 0.16762923 -0.039054565
0.06309146 -0.032688025 0.08074085 0.050445557 0.03261133 0.13463946 -0.18569198 0.09902107
-0.2031934 -0.08191935 -0.05849398 -0.049240176 0.16954584 -0.16718206 -0.25662696 0.21008874
-0.042805273 0.1623674 0.092804596 -0.21647035 0.05799434 0.06933878 -0.19328493 -0.13696834
0.098431185 0.05170823 -0.122794494 -0.08738655 0.26439255 -0.05341104 0.16275263 0.12499725
-0.18660167 -0.24549785 0.277096 0.015073682 0.21567906 0.07409447 0.106444694 0.22893862
0.28226814 -0.17659506 0.039799094 0.18485026 0.2263148 0.127294 -0.21398768 -0.18431845
-0.07112165 0.06682199 0.29956943 -0.12463572 0.13838436 -0.15412869 -0.22724636 -0.13744919
0.16126737 0.19641763 -0.22546962 0.02568299 0.20392442 0.17279992 0.17401277 0.19027084
0.16287789 0.06762158 -0.18483898 -0.19501202 -0.14056888 0.008472378 -0.21732944 0.089839
0.09133597 -0.06312899 0.10862656 0.08191734 0.18561038 0.19739328 -0.1475101 0.20613484
-0.025122503 -0.102420434 -0.20977224 -0.16801222 -0.1581431 -0.106163494 0.21270557 -0.09425072
-0.17962448 0.12147152 0.064645484 0.103776745 -0.13634066 -0.01654696 -0.031567436 -0.047865428
-0.19507864 -0.08480672 -0.08140106 0.12950209 0.1174432 0.07377246 0.25047687 0.24686573
0.1935526 -0.094507426 -0.100702554 0.21619214 -0.07218709 -0.023338044 -0.24869332 -0.057021596
-0.18619195 0.2652653 -0.24956572 -0.22501728 -0.009802336 -0.15609111 0.10329133 -0.11111845
-0.14462192 0.006908741 0.20180526 -0.20974718 0.11766854 0.17833038 0.27868545 -0.23711444
0.06286524 -0.21273984 0.20784181 -0.118040495 0.16814466 0.0118461 -0.014770577 -0.007259117
0.0335915 0.14534648 0.0413335 -0.024340503 -0.24960841 0.18181919 0.23054545 0.24739163
00000000: 4e30 0f3e ad0f 07be bd29 81bd f7d5 043e
00000010: f61e 8bbe 61fb 273e e5bb 5ebd cedb 433e
00000020: f2be ef3c dad2 87bc 486a 553d 345b 5a3a
00000030: e3ec d73d d264 e6bd a56a acbc 27e6 d4bc
00000040: 3862 2b3d 2b27 97ba 0b34 813e 49fa b73d
00000050: 472b dcbd 7288 32be e430 46bd f102 ffbd
00000060: 09b1 cebd 878b 5f3b 3e1e 273e 87d8 173e
00000070: a40c 90be 15f6 2d3e f651 9f3d a7f1 a83e
00000080: 7927 3a3e 7f1f 6ebe 6170 83be caa4 13be
00000090: 69cb 703e 0ad7 8cbd 9f80 d83d 11e0 1bbe
000000a0: 01e5 873e 2323 0ebe cb6d 473e 63aa d8bb
000000b0: b8ed 2abe 961a ef3d d92d 24be beb3 993d
000000c0: 16b7 aabd 18a2 01bd 4318 8ebe 32f0 0cbe
000000d0: 8867 203e 7bb5 8fbd c037 933e c4f3 6c3e
000000e0: a175 5dbc 6b4f 45be e102 343e 357c b73d
000000f0: 9a2b 2cbe e08a 433e 5aa9 333e 160b 873e
00000100: 98d4 1abe bbda 41bd 1069 143c 2d8f 9e3d
00000110: 558d 5dbe a838 16be ffa6 2b3e aef7 1fbd
00000120: 1836 813d e1e3 05bd 755b a53d 00a0 4e3d
00000130: 7593 053d edde 093e 0a26 3ebe 8fcb ca3d
00000140: ee11 50be 55c5 a7bd 6297 6fbd 11b0 49bd
00000150: 6d9d 2d3e c631 2bbe 9c64 83be 8121 573e
00000160: 9554 2fbd a443 263e 5610 be3d 67aa 5dbe
00000170: 798b 6d3d 7e01 8e3d 7cec 45be 6e41 0cbe
00000180: 4a96 c93d 02cc 533d ae7b fbbd b8f7 b2bd
00000190: 765e 873e 89c5 5abd a0a8 263e 8ffe ff3d
000001a0: 8214 3fbe ca63 7bbe 87df 8d3e 9bf7 763c
000001b0: f9da 5c3e d7be 973d adff d93d e36e 6a3e
000001c0: 7385 903e 56d5 34be 6004 233d 6349 3d3e
000001d0: 11bf 673e 5c59 023e 961f 5bbe fabd 3cbe
000001e0: 3aa8 91bd f8d9 883d 2a61 993e 0341 ffbd
000001f0: a1b4 0d3e e9d3 1dbe 45b3 68be 7bbf 0cbe
00000200: 4623 253e b421 493e 82e1 66be 2265 d23c
00000210: 90d1 503e 76f2 303e 6730 323e 5cd6 423e
00000220: 76c9 263e 2f7d 8a3d 6e46 3dbe 3bb1 47be
00000230: 4af1 0fbe bbcf 0a3c 9c8b 5ebe 82fd b73d
00000240: 5a0e bb3d c649 81bd 9a77 de3d 47c4 a73d
00000250: a610 3e3e 7721 4a3e e30c 17be 0315 533e
00000260: b5cd cdbc cec1 d1bd 89ce 56be 650b 2cbe
00000270: 44f0 21be 3f6c d9bd 7dcf 593e 8606 c1bd
00000280: 7bef 37be 0fc6 f83d da64 843d e788 d43d
00000290: e39c 0bbe 7e8d 87bc db4c 01bd 8a0e 44bd
000002a0: b2c2 47be 25af adbd 99b5 a6bd 329c 043e
000002b0: 0f86 f03d 0416 973d 813e 803e 5fca 7c3e
000002c0: a732 463e 1c8d c1bd 243d cebd 7961 5d3e
000002d0: d3d6 93bd 6d2f bfbc 76a9 7ebe 7a8f 69bd
000002e0: 1aa9 3ebe dad0 873e 288e 7fbe ee6a 66be
000002f0: fa99 20bc 59d6 1fbe 688a d33d 1292 e3bd
00000300: c517 14be b862 e23b 0aa6 4e3e f7c7 56be
00000310: 34fc f03d 3d9c 363e dcaf 8e3e 21ce 72be
00000320: 7ebf 803d 79d8 59be 7cd4 543e 37bf f1bd
00000330: 1d2e 2c3e 2516 423c 4a00 72bc e3dd edbb
00000340: 3e97 093d b5d5 143e 514d 293d bc65 c7bc
00000350: 5999 7fbe cf2e 3a3e 1b14 6c3e 3b54 7d3e

fc_in.bias f4 [18]
0.20815861 -0.20831704 -0.11568797 0.23602736 -0.21987188 0.26230708 -0.24413456 -0.20334522
0.14112693 -0.19480819 -0.049401503 0.20501682 0.22125982 0.2775703 -0.04745184 -0.22437586
0.27703324 -0.05543381
00000000: 8827 553e 1051 55be d0ed ecbd 28b1 713e
00000010: 1826 61be 1d4d 863e 69fe 79be bb39 50be
00000020: 9483 103e cc7b 47be 3b59 4abd eeef 513e
00000030: ef91 623e b21d 8e3e dc5c 42bd c9c2 65be
00000040: 4dd7 8d3e 900e 63bd

fc_hidden.0.weight f4 [30, 18]
-0.09697619 0.05745804 -0.16483237 0.15492243 0.14772232 -0.18702532 -0.19359933 -0.020646673
0.09900095 -0.006826441 -0.11951933 0.0053887274 -0.22154415 -0.16658516 -0.15690449 0.19410796
0.20777293 -0.080060214 0.023323268 0.10511801 0.039495613 -0.108671285 0.13593854 0.1672009
-0.008668048 -0.029015549 0.21419328 0.1950149 -0.12164974 0.24058095 0.06702019 -0.14683068
0.14436513 -0.1759693 0.22909965 -0.13537657 0.06666319 0.07177139 0.056063652 0.1954967
-0.09789881 -0.09950649 -0.20425284 -0.009673151 -0.11165701 0.009444406 -0.04831861 0.07820452
0.20390044 0.06955059 -0.07592918 -0.1156582 -0.20556845 0.19833094 -0.044651467 0.047577694
0.00871889 -0.1502053 0.13274314 0.13209195 0.011869958 -0.13394699 -0.10015145 0.0032458694
-0.13466547 -0.13151202 -0.035159014 -0.06787056 0.057860374 -0.061953284 -0.031245425 -0.089963205
-0.19162874 0.2055623 0.06246111 0.19353227 -0.03798603 -0.077594735 -0.2097454 -0.08947509
0.15456694 -0.23389615 -0.06558494 0.15744796 0.14859094 0.09935695 -0.020059187 -0.017846353
-0.026965706 -0.06144512 0.09836434 -0.08028087 -0.13241296 0.05347151 -0.170367 -0.05030235
0.12044707 0.08808888 0.20066233 -0.16076002 0.0020493204 -0.069603525 -0.13183223 -0.13259514
0.059381902 0.024660261 -0.12031385 -0.16613698 -0.17642115 0.23100345 -0.039202414 -0.062287733
-0.08667196 -0.09051464 -0.22394949 -0.13837114 0.14406793 0.0040859785 -0.07815358 -0.082844585
0.1417808 0.16281523 0.26457682 0.06875567 0.1152898 0.064312615 -0.13779993 -0.23091319
0.1435649 -0.03425859 0.096837305 0.011601679 -0.21998587 -0.11563432 0.06631065 -0.047706243
-0.22760883 0.082651235 0.009039599 -0.075750135 0.09521698 0.04976135 -0.086927705 0.2117427
0.11056523 0.029595405 -0.050956525 -0.18384494 0.1819804 -0.052020095 -0.14555871 0.15112096
0.08370991 0.06667135 -0.05249743 -0.076520056 0.037397 0.17991526 0.022475561 -0.11145133
0.22905919 -0.0030390492 0.17752962 0.05744531 0.20162186 0.1301554 -0.12016741 0.17258224
-0.009258685 -0.1892023 -0.049390458 -0.22869803 -0.13049573 -0.17526518 0.1506608 -0.058674995
-0.047900736 0.11295215 0.08672479 -0.15231039 0.08686446 0.10013164 -0.18740909 0.20492826
-0.14342034 -0.092171565 -0.19414458 0.21542668 0.044881843 0.1984695 0.015391552 0.12811448
-0.07525632 -0.18803751 0.037836716 -0.02101959 -0.023798639 -0.115756884 0.0045914412 0.06768986
0.08265645 -0.16259274 0.11387252 0.053892583 0.16893022 0.16657406 -0.185619 0.21393712
-0.22206196 0.14169784 0.013348823 0.12030536 -0.12965073 0.14170335 -0.109382465 -0.039723217
0.07982218 0.12901387 0.22315843 -0.014433778 0.22674055 0.22059397 -0.124278635 -0.18180762
0.13219684 -0.18930818 0.10317469 -0.19904771 0.15532103 0.06158099 -0.03030583 0.10809967
-0.17318647 0.0032745171 0.020977393 -0.13619506 -0.052650824 -0.124952585 0.22463278 0.1608033
0.1743024 0.19264802 -0.22573368 0.03977636 0.09584763 -0.16472188 0.08526823 -0.13839976
0.059868205 0.078071505 0.20617287 -0.1001615 -0.18544462 0.21808547 0.09894023 0.11456244
00000000: 749b c6bd 1f59 6b3d d1c9 28be fca3 1e3e
00000010: 8544 173e 9183 3fbe e73e 46be 3623 a9bc
00000020: 03c1 ca3d 56b0 dfbb 8dc6 f4bd ec93 b03b
00000030: 78dc 62be 4d95 2abe 92ab 20be 3dc4 463e
00000040: 6dc2 543e 9cf6 a3bd 7010 bf3c 1c48 d73d
00000050: 27c6 213d 0d8f debd 7933 0b3e b636 2b3e
00000060: 6e04 0ebc 04b2 edbc 7c55 5b3e fcb1 473e
00000070: 8023 f9bd da5a 763e e241 893d c85a 16be
00000080: 74d4 133e 4c31 34be 1999 6a3e 28a0 0abe
00000090: b686 883d e1fc 923d 00a3 653d 4930 483e
000000a0: 2c7f c8bd 0fca cbbd a827 51be 237c 1ebc
000000b0: 6eac e4bd b6bc 1a3c bce9 45bd b129 a03d
000000c0: 47cb 503e 8a70 8e3d c280 9bbd 35de ecbd
000000d0: 8980 52be 4417 4b3e 75e4 36bd d4e0 423d
000000e0: add9 0e3c 6bcf 19be d1ed 073e 1d43 073e
000000f0: 367a 423c 6629 09be 341c cdbd a7b8 543b
00000100: bfe5 09be 16ab 06be e602 10bd b8ff 8abd
00000110: 00ff 6c3d bac2 7dbd 68f6 ffbc a13e b8bd
00000120: 533a 44be ec7e 523e 39d7 7f3d 532d 463e
00000130: 3d97 1bbd fde9 9ebd 80c7 56be b73e b7bd
00000140: cc46 1e3e 7982 6fbe 6651 86bd 0a3a 213e
00000150: 3928 183e a87b cb3d 2a53 a4bc 8432 92bc
00000160: 2fe7 dcbc e1ad 7bbd 3e73 c93d 4c6a a4bd
00000170: 4397 07be f104 5b3d b074 2ebe d609 4ebd
00000180: f4ac f63d f167 b43d 6d7a 4d3e 469e 24be
00000190: e44d 063b 4b8c 8ebd 07ff 06be 05c7 07be
000001a0: 703a 733d 5104 ca3c 1c67 f6bd d01f 2abe
000001b0: bfa7 34be 2b8c 6c3e b692 20bd 6c21 7fbd
000001c0: 1281 b1bd bd5f b9bd 0453 65be 2ab1 0dbe
000001d0: 8b86 133e ace3 853b fc0e a0bd 6caa a9bd
000001e0: fc2e 113e 09b9 263e 9d76 873e c6cf 8c3d
000001f0: 0f1d ec3d 55b6 833d 6d1b 0dbe 8274 6cbe
00000200: ad02 133e bc52 0cbd a352 c63d f814 3e3c
00000210: fa43 61be b0d1 ecbd e1cd 873d 9f67 43bd
00000220: 4a12 69be 0d45 a93d d41a 143c e322 9bbd
00000230: 1f01 c33d 8fd2 4b3d 2707 b2bd 14d3 583e
00000240: 0670 e23d 1072 f23c cab7 50bd d941 3cbe
00000250: 1259 3a3e 0613 55bd 580d 15be 74bf 1a3e
00000260: 1a70 ab3d fd8a 883d 8c07 57bd 8cb6 9cbd
00000270: 992d 193d b53b 383e ab1e b83c 9840 e4bd
00000280: 7e8e 6a3e c92a 47bb 53ca 353e c64b 6b3d
00000290: f675 4e3e 7547 053e 551a f6bd 66b9 303e
000002a0: bdb1 17bc 3fbe 41be a64d 4abd d12f 6abe
000002b0: aca0 05be b778 33be d346 1a3e 3155 70bd
000002c0: 9033 44bd 7553 e73d c49c b13d 41f7 1bbe
000002d0: fee5 b13d d111 cd3d 2be8 3fbe b7d8 513e
000002e0: c8dc 12be 72c4 bcbd d6cd 46be d098 5c3e
000002f0: 06d6 373d 973b 4b3e d92c 7c3c 7130 033e
00000300: fc1f 9abd e88c 40be acfa 1a3d 4631 acbc
00000310: 5df5 c2bc f211 edbd cd73 963b fba0 8a3d
00000320: c947 a93d b67e 26be ff35 e93d 78be 5c3d
00000330: 0bfc 2c3e 6492 2a3e e812 3ebe 5512 5b3e
00000340: 3664 63be 3d19 113e 06b5 5a3c a862 f63d
00000350: 29c3 04be af1a 113e ea03 e0bd d0b4 22bd
00000360: d079 a33d 361c 043e a583 643e a77b 6cbc
00000370: ad2e 683e 63e3 613e cc85 febd c72b 3abe
00000380: 9c5e 073e 01da 41be 404d d33d 2ad3 4bbe
00000390: 7a0c 1f3e 593c 7c3d ef43 f8bc 5c63 dd3d
000003a0: cb57 31be 4899 563b c8d8 ab3c b876 0bbe
000003b0: 64a8 57bd 24e7 ffbd 2306 663e 9fa9 243e
000003c0: 547c 323e 8645 453e bb26 67be 89ec 223d
000003d0: c34b c43d daac 28be 1ca1 ae3d abb8 0dbe
000003e0: 5d38 753d f4e3 9f3d fb1e 533e 7921 cdbd
000003f0: 32e5 3dbe cc51 5f3e 2da1 ca3d b69f ea3d

fc_hidden.0.bias f4 [30]
0.22895414 -0.075253226 0.034853335 -0.12143625 -0.1388668 -0.1193728 -0.11590208 0.044741467
-0.027788902 0.008440709 -0.18062598 -0.13079971 -0.20231992 -0.17727654 0.19738105 0.08756921
-0.22275276 -0.025910331 0.01891649 0.11762896 0.20487419 0.056749225 0.17256433 -0.08387327
-0.007701353 -0.14228554 0.065254256 0.21180047 0.16619824 0.23454292
00000000: f472 6a3e 5d1e 9abd 5fc2 0e3d 92b3 f8bd
00000010: 1933 0ebe ba79 f4bd 125e edbd d442 373d
00000020: 8da5 e3bc e64a 0a3c 04f6 38be 5cf0 05be
00000030: f42c 4fbe fb87 35be 421e 4a3e 7c57 b33d
00000040: 4d19 64be e741 d4bc c1f6 9a3c 74e7 f03d
00000050: 8aca 513e e071 683d b4b4 303e c0c5 abbd
00000060: a25b fcbb 4db3 11be 06a4 853d 39e2 583e
00000070: df2f 2a3e 052c 703e

fc_hidden.1.weight f4 [35, 30]
-0.08226588 -0.032718286 0.037660204 0.14678463 -0.19038628 -0.0896642 0.014339741 -0.10552854
0.05882126 -0.022456829 -0.047310077 0.093966246 0.120556824 0.16748632 0.0826771 -0.004992916
0.111526385 0.11730527 -0.091501884 0.07473334 0.014162416 -0.0876316 -0.055492472 -0.04311174
-0.12776059 -0.055713564 0.051470336 0.12458211 0.0052184006 -0.17680512 0.096693575 -0.05524419
0.16304809 -0.17641778 -0.04271628 0.14159039 0.07898175 -0.09108775 -0.1580923 -0.0019609414
0.07053042 -0.15157256 -0.1527787 -0.0022983134 -0.037443712 0.11734795 -0.17690241 -0.029039336
-0.141482 -0.026591783 -0.093281314 0.05745986 -0.15273337 -0.14362402 -0.103609174 -0.15990524
0.11525318 -0.02612835 -0.10143574 0.12793493 -0.041421834 0.08790369 -0.05659607 -0.15275057
0.07623019 0.11368735 -0.18780646 0.019005295 0.03103847 0.016456155 -0.0045179483 -0.06965829
-0.14861429 0.025093703 -0.122619584 -0.15085147 -0.087458886 -0.074722625 0.055959046 0.12432778
0.15174983 -0.11892207 0.085498795 0.12973963 0.002048065 0.077025965 0.10466731 0.13124606
0.08162465 0.07793089 -0.069295876 -0.08974815 -0.08657391 0.150219 -0.0146150505 0.00653008
-0.1560072 -0.008109902 -0.03938679 -0.104381606 0.14139695 -0.14534734 -0.013943664 0.0007561869
-0.16528511 0.11038691 0.0012745298 0.150132 0.10189811 0.1712421 0.06432284 0.14773396
0.18105483 0.036185242 -0.03720023 -0.049988814 0.045269415 0.07648761 -0.16427843 0.13679482
0.028790697 -0.18331449 0.058480117 0.11586407 0.045072075 0.14903043 -0.006313902 -0.1514657
-0.011854602 0.12264317 -0.08781539 0.044683985 0.028720513 -0.042437006 0.0012975148 0.07767627
-0.12493698 0.104149155 0.12360293 0.08961206 0.16674908 -0.022640608 -0.1409405 0.008336776
-0.052969012 0.06445083 0.13787036 -0.112189285 -0.019833542 0.17757827 -0.14574845 -0.031505585
0.17729032 0.12757139 0.052990407 -0.07874445 -0.017019346 -0.16371876 -0.17188784 -0.17106009
0.17535743 0.14440343 0.072421916 -0.045857906 0.15719488 -0.048225757 0.1267483 -0.005942176
-0.0858847 -0.050955854 -0.03898471 -0.16711679 0.054596934 -0.055626743 0.083881296 0.1164065
-0.029027408 0.0885448 0.03647754 0.12261118 -0.11774367 -0.025327362 -0.060839176 0.15997736
-0.14428711 -0.10262006 0.0076538497 0.16207762 0.11487867 -0.17656305 -0.12836151 0.1538191
0.018038314 -0.16478145 -0.05752006 0.07981879 -0.09265201 -0.08918203 -0.11272421 -0.10287666
-0.014702218 0.061729215 0.070760295 -0.088693 -0.030633437 -0.14096296 0.12908553 0.17182648
0.1563745 0.07461352 -0.03893158 -0.0045512915 0.06586983 -0.15825695 0.011333601 -0.14840631
-0.18254265 -0.006102276 -0.058122702 -0.11565349 0.030266093 0.0074373344 0.027860917 -0.102184534
-0.17882931 0.00399573 -0.07448195 -0.06155238 0.13440853 0.02981768 0.08338439 -0.051024392
-0.14487012 0.036404673 -0.120909154 0.022621538 -0.142485 0.1376411 -0.124372065 0.15850325
0.128971 0.1549701 0.109552346 0.04225857 0.019385055 -0.0029142934 -0.058309738 -0.16782154
0.18378483 0.021092817 0.085868135 -0.0024375294 0.06469944 -0.095973566 -0.1419269 0.1392388
00000000: 047b a8bd 9c03 06bd 9641 1a3d b64e 163e
00000010: 9ff4 42be dda1 b7bd 3cf1 6a3c 591f d8bd
00000020: 90ee 703d 62f7 b7bc 36c8 41bd 6071 c03d
00000030: 7fe6 f63d 8981 2b3e 9d52 a93d 9d9b a3bb
00000040: f267 e43d bf3d f03d 5765 bbbd cb0d 993d
00000050: 7a09 683c 3278 b3bd 134c 63bd f095 30bd
00000060: acd3 02be e833 64bd 8fd2 523d e824 ff3d
00000070: 1eff aa3b 670c 35be 4807 c63d bb47 62bd
00000080: 14f6 263e dda6 34be 44f7 2ebd 12fd 103e
00000090: 2fc1 a13d 378c babd f3e2 21be 2383 00bb
000000a0: 4172 903d d635 1bbe 0572 1cbe 4d9f 16bb
000000b0: 945e 19bd 1f54 f03d e825 35be e7e3 edbc
000000c0: a8e0 10be 03d7 d9bc 460a bfbd 085b 6b3d
000000d0: 2366 1cbe 2d12 13be 0c31 d4bd 33be 23be
000000e0: dc09 ec3d 1f0b d6bc 8bbd cfbd 6001 033e
000000f0: f1a9 29bd da06 b43d 48d1 67bd a56a 1cbe
00000100: 931e 9c3d ead4 e83d 5650 40be feb0 9b3c
00000110: 6444 fe3c 0fcf 863c 4c0b 94bb 01a9 8ebd
00000120: 582e 18be 4f91 cd3c fa1f fbbd cf78 1abe
00000130: a51d b3bd 2d08 99bd 5035 653d 909f fe3d
00000140: 4f64 1b3e 6a8d f3bd fe19 af3d 77da 043e
00000150: d438 063b cabf 9d3d d15b d63d 5e65 063e
00000160: d32a a73d 3b9a 9f3d ffea 8dbd e1cd b7bd
00000170: aa4d b1bd 02d3 193e f773 6fbc 48fa d53b
00000180: 5ac0 1fbe 65df 04bc 0b54 21bd 06c6 d5bd
00000190: 5dca 103e efd5 14be f773 64bc d83a 463a
000001a0: 8040 29be 8812 e23d 200e a73a 34bc 193e
000001b0: f5af d03d 175a 2f3e b1bb 833d 9247 173e
000001c0: 7066 393e fa36 143d 455f 18bd 12c1 4cbd
000001d0: 6c6c 393d 89a5 9c3d 9b38 28be f113 0c3e
000001e0: 78da eb3c cbb6 3bbe d988 6f3d 244a ed3d
000001f0: 7f9d 383d 6f9b 183e d9e4 cebb d319 1bbe
00000200: ce39 42bc 582c fb3d 8ed8 b3bd 8e06 373d
00000210: 4847 eb3c 6dd2 2dbd 5f11 aa3a bc14 9f3d
00000220: f6de ffbd 274c d53d 8823 fd3d 8786 b73d
00000230: 45c0 2a3e cc78 b9bc b552 10be f996 083c
00000240: 09f6 58bd ccfe 833d e32d 0d3e 7fc3 e5bd
00000250: f479 a2bc 14d7 353e 153f 15be 000c 01bd
00000260: 988b 353e 13a2 023e 780c 593d c544 a1bd
00000270: 286c 8bbc e4a5 27be 5e03 30be 602a 2fbe
00000280: e690 333e 7ede 133e f151 943d 80d5 3bbd
00000290: b2f7 203e 5f88 45bd 4eca 013e 96b6 c2bb
000002a0: 51e4 afbd 16b7 50bd 6eae 1fbd aa20 2bbe
000002b0: 09a1 5f3d ded8 63bd f5c9 ab3d 8866 ee3d
000002c0: e3ca edbc fa56 b53d 7969 153d 921b fb3d
000002d0: 9823 f1bd 547b cfbc 8032 79bd 1bd1 233e
000002e0: 00c0 13be 772a d2bd 25cd fa3b adf7 253e
000002f0: 8245 eb3d f2cc 34be 3371 03be c182 1d3e
00000300: 16c5 933c 78bc 28be 289a 6bbd 0978 a33d
00000310: 56c0 bdbd 11a5 b6bd f3db e6bd 00b1 d2bd
00000320: 92e1 70bc c6d7 7c3d c6ea 903d ada4 b5bd
00000330: f9f2 fabc 9858 10be ff2e 043e 48f3 2f3e
00000340: a320 203e f9ce 983d b876 1fbd 0023 95bb
00000350: c3e6 863d 1c0e 22be 91b0 393c d3f7 17be
00000360: 76ec 3abe 9af5 c7bb 1212 6ebd bddb ecbd
00000370: 99f0 f73c e2b4 f33b 943c e43c 2046 d1bd
00000380: 081f 37be 9dee 823b fe89 98bd 591e 7cbd
00000390: 64a2 093e 3544 f43c 6fc5 aa3d f4fe 50bd
000003a0: d558 14be 111d 153d 389f f7bd ce50 b93c
000003b0: 96e7 11be caf1 0c3e c8b6 febd ad4e 223e
000003c0: f910 043e 7bb0 1e3e fb5c e03d 5317 2d3d
000003d0: 68cd 9e3c bbfd 3ebb 31d6 6ebd 69d9 2bbe
000003e0: 1732 3c3e d8ca ac3c a2db af3d f5be 1fbb
000003f0: 2481 843d ca8d c4bd 4955 11be 9e94 0e3e

fc_hidden.1.bias f4 [35]
-0.16411956 0.062299512 0.07909145 -0.02345247 0.1077279 -0.011335102 -0.031905092 0.10242888
-0.14545748 -0.17932014 0.031958595 0.027337452 -0.011243951 -0.12546843 0.13488197 -0.11481185
-0.06859582 -0.16332242 -0.1818344 0.03283169 -0.07357339 0.08883564 0.17625241 0.04894978
0.16510062 -0.14925343 0.09862112 0.09630755 -0.073075615 -0.012958607 -0.11037068 0.017584376
-0.18361424 -0.10901189 -0.14544494
00000000: f50e 28be c62d 7f3d b3fa a13d 651f c0bc
00000010: 72a0 dc3d ddb6 39bc eaae 02bd 3cc6 d13d
00000020: cef2 14be b39f 37be 04e7 023d cbf2 df3c
00000030: 8c38 38bc cc7a 00be 801e 0a3e 7a22 ebbd
00000040: f77b 8cbd fe3d 27be cc32 3abe 867a 063d
00000050: a5ad 96bd 76ef b53d 837b 343e 917f 483d
00000060: 2310 293e e4d5 18be dff9 c93d e53c c53d
00000070: aba8 95bd 5650 54bc 060a e2bd 1c0d 903c
00000080: 5f05 3cbe a041 dfbd 85ef 14be

fc_out.weight f4 [7, 35]
-0.015123503 0.01722833 -0.13115937 -0.05830823 0.10134682 0.008187709 0.03384876 -0.074646816
-0.04222396 -0.14985627 0.15209155 0.043657225 0.084036805 0.10304848 0.15392129 -0.103350356
0.042121883 -0.13843879 0.06292169 -0.07834629 0.06582222 -0.12260049 0.08944041 0.12522389
0.09868309 -0.13590194 0.1120847 -0.10056608 -0.15809558 0.11002913 0.03460587 -0.058863446
-0.14297539 0.04345654 -0.06954667 -0.123483054 -0.021214593 -0.13422145 0.093732834 -0.10929891
-0.057535116 -0.1530382 -0.023510933 -0.04003913 0.09327009 -0.05032637 0.13812208 0.1582528
0.045725945 -0.046052866 -0.13380298 -0.09478652 -0.047989473 -0.10593027 0.096387364 -0.05457219
0.019658154 0.007033414 -0.14006199 0.15603673 -0.057169333 -0.12299866 0.00883253 -0.14857285
0.021090249 -0.098562874 -0.037069377 -0.042631082 0.12232203 0.14666823 0.16017568 0.018620014
0.101636246 -0.14344713 -0.111134104 0.090968035 0.029829282 0.046783816 0.089240864 0.10717439
0.07549802 -0.08218202 -0.059770226 0.03004759 0.12855124 -0.017087176 -0.029161857 0.08621792
0.112057954 -0.00874106 -0.049984246 -0.17450306 0.01038477 0.051258214 -0.13238797 -0.1281044
-0.17533714 0.124283284 0.15845804 0.16728401 0.14352298 -0.017820219 0.06893279 0.10004827
-0.042780977 -0.08710644 0.14070274 -0.0067350636 0.077467136 -0.07216795 -0.08719502 -0.021274323
0.005589925 0.11266159 0.109804675 -0.010427338 0.15820795 -0.077971146 0.024888301 -0.096076764
0.037084688 0.1777314 -0.13022189 0.039762672 -0.14389895 -0.03780467 -0.06484685 0.0002849418
-0.10884667 0.057007063 -0.14827676 0.051505916 -0.054616988 -0.10115603 0.14329794 0.029560264
-0.11188985 -0.08766453 -0.07541687 -0.0803471 0.030710116 0.0023797206 0.1571916 0.018424202
-0.08680993 0.14534386 0.047904696 -0.036472067 0.13174312 0.13857003 -0.11648335 -0.14637986
-0.09939355 -0.13104391 -0.04248999 0.0740473 -0.12248372 -0.1528641 -0.14554977 -0.07405737
0.1059777 0.1623194 0.16791983 0.009418835 -0.12951955 0.1755303 -0.09972934 0.072855845
0.084493175 0.05225693 0.06652425 -0.15768196 -0.050068535 -0.1087219 0.13209108 -0.10336553
-0.0040436913 0.14079899 0.11643968 -0.13541976 -0.14100733 0.11746252 0.048646223 -0.13662204
0.14615452 -0.120604716 0.111021206 0.11332649 0.11433235 -0.044416763 0.019324208 -0.13647448
0.08785975 0.009746174 0.122124694 -0.07125393 0.14768274 0.11267189 -0.053052474 0.03818109
-0.12846895 -0.1183056 -0.12511308 -0.09710066 0.04699394 -0.07794607 -0.058381334 0.11419275
0.027918575 -0.084414326 -0.03294003 -0.044439174 0.08653491 0.12856224 0.12640989 -0.11500136
-0.014698696 0.039676953 -0.05623913 0.111142136 -0.0570876 0.022835711 -0.13398778 0.13417119
-0.10189353 0.005114849 -0.0972963 0.13268554 0.0097701335 0.08391248 -0.13285804 0.019803468
0.06925084 0.12487487 0.123701215 -0.022425821 -0.0022832276 0.061998155 -0.060775828 -0.0687815
-0.14593443 -0.16575883 -0.08009353 0.021104151 0.038174383
00000000: 92c8 77bc 6d22 8d3c a44e 06be 9cd4 6ebd
00000010: ec8e cf3d be25 063c ffa4 0a3d 6ee0 98bd
00000020: 08f3 2cbd ec73 19be e3bd 1b3e ebd1 323d
00000030: 7d1b ac3d 150b d33d 8b9d 1d3e 5aa9 d3bd
00000040: ff87 2c3d e6c2 0dbe 16dd 803d 0574 a0bd
00000050: cdcd 863d f715 fbbd 892c b73d b13a 003e
00000060: 5c1a ca3d e129 0bbe aa8c e53d 97f5 cdbd
00000070: cfe3 21be f456 e13d e2be 0d3d cc1a 71bd
00000080: 2468 12be 7cff 313d 7c6e 8ebd afe4 fcbd
00000090: 3aca adbc 5971 09be 00f7 bf3d 1bd8 dfbd
000000a0: f1a9 6bbd 0cb6 1cbe 009a c0bc 1200 24bd
000000b0: 6404 bf3d 0623 4ebd e06f 0d3e 060d 223e
000000c0: 214b 3b3d eea1 3cbd a603 09be 6f1f c2bd
000000d0: 9c90 44bd f8f1 d8bd bd66 c53d 1787 5fbd
000000e0: 230a a13c 8e78 e63b 696c 0fbe 18c8 1f3e
000000f0: 642a 6abd b9e6 fbbd 51b6 103c 7b23 18be
00000100: 75c5 ac3c 55db c9bd 0fd6 17bd ee9d 2ebd
00000110: f983 fa3d 3230 163e 1805 243e 0089 983c
00000120: aa26 d03d cee3 12be 479a e3bd 734d ba3d
00000130: 8a5c f43c 63a0 3f3d eac3 b63d 3f7e db3d
00000140: b59e 9a3d 0c4f a8bd a0d1 74bd 5d26 f63c
00000150: f0a2 033e 68fa 8bbc d9e4 eebc 0593 b03d
00000160: a47e e53d aa36 0fbc 48bc 4cbd eeb0 32be
00000170: e224 2a3c 22f4 513d b690 07be cd2d 03be
00000180: 948b 33be 3c88 fe3d d342 223e 804c 2b3e
00000190: b0f7 123e b5fb 91bc a22c 8d3d 1be6 cc3d
000001a0: 1b3b 2fbd dc64 b2bd 6114 103e cfb1 dcbb
000001b0: 17a7 9e3d cacc 93bd 4d93 b2bd 7d47 aebc
000001c0: b12b b73b 1fbb e63d 46e1 e03d 6dd7 2abc
000001d0: 4401 223e 56af 9fbd 8de2 cb3c e5c3 c4bd
000001e0: 1de6 173d 38ff 353e e358 05be 2fde 223d
000001f0: 3f5a 13be 12d9 1abd 6dce 84bd 3e64 9539
00000200: 01eb debd 3d80 693d ddd5 17be def7 523d
00000210: 10b6 5fbd e52a cfbd b2bc 123e 5e28 f23c
00000220: 8126 e5bd 7689 b3bd 2974 9abd 058d a4bd
00000230: c893 fb3c 16f5 1b3b d6f6 203e 5aee 963c
00000240: 68c9 b1bd 05d5 143e b737 443d bc63 15bd
00000250: abe7 063e 4de5 0d3e d38e eebd 9ae4 15be
00000260: d88e cbbd 6030 06be fc09 2ebd 1ca6 973d
00000270: bfd8 fabd 6888 1cbe 000b 15be 64ab 97bd
00000280: d60a d93d 0f37 263e 2df3 2b3e 7551 1a3c
00000290: c6a0 04be 37be 333e e53e ccbd 7235 953d
000002a0: c20a ad3d 5d0b 563d de3d 883d 6177 21be
000002b0: aa14 4dbd 96a9 debd e242 073e 4fb1 d3bd
000002c0: f180 84bb 9c2d 103e ed77 ee3d 7aab 0abe
000002d0: 3a64 10be 3190 f03d 4341 473d a6e6 0bbe
000002e0: 88a9 153e 9bff f6bd 165f e33d b817 e83d
000002f0: 1427 ea3d 5aee 35bd cd4d 9e3c f7bf 0bbe
00000300: d0ef b33d 6bae 1f3c 831c fa3d 95ed 91bd
00000310: 253a 173e 85c0 e63d 8d4d 59bd c663 1c3d
00000320: 5d8d 03be 354a f2bd a51d 00be b6dc c6bd
00000330: b87c 403d 30a2 9fbd 4421 6fbd e3dd e93d
00000340: 7fb5 e43c 6be1 acbd 20ec 06bd da05 36bd
00000350: 3739 b13d d2a5 033e 9871 013e d585 ebbd
00000360: cdd2 70bc 4d84 223d 015b 66bd 7d9e e33d
00000370: b0d4 69bd f511 bb3c 1834 09be 2c64 093e
00000380: 8ead d0bd 779a a73b 4843 c7bd b8de 073e
00000390: e912 203c 4eda ab3d f00b 08be e23a a23c
000003a0: 62d3 8d3d 65be ff3d 1057 fd3d 5bb6 b7bc
000003b0: 34a2 15bb c7f1 7d3d 13f0 78bd 51dd 8cbd
000003c0: d66f 15be afbc 29be 1408 a4bd 9de2 ac3c
000003d0: be5c 1c3d

fc_out.bias f4 [7]
0.018118238 0.034666 -0.034211066 -0.15388998 0.16477048 -0.13231935 0.00847314
00000000: b36c 943c f0fd 0d3d e720 0cbd 5695 1dbe
00000010: 98b9 283e b97e 07be edd2 0a3c
